{"format": "graph-model", "generatedBy": "2.14.0", "convertedBy": "TensorFlow.js Converter v4.22.0", "signature": {"inputs": {"args_0": {"name": "args_0:0", "dtype": "DT_FLOAT", "tensorShape": {"dim": [{"size": "1"}, {"size": "192"}, {"size": "128"}, {"size": "3"}]}}}, "outputs": {"identity": {"name": "Identity:0", "dtype": "DT_FLOAT", "tensorShape": {"dim": [{"size": "1"}, {"size": "768"}]}}}}, "modelTopology": {"node": [{"name": "StatefulPartitionedCall/model/tf.math.reduce_mean_22/Mean/reduction_indices", "op": "Const", "attr": {"value": {"tensor": {"dtype": "DT_INT32", "tensorShape": {"dim": [{"size": "1"}]}}}, "dtype": {"type": "DT_INT32"}}}, {"name": "StatefulPartitionedCall/model/tf.math.reduce_mean_23/Mean/reduction_indices", "op": "Const", "attr": {"value": {"tensor": {"dtype": "DT_INT32", "tensorShape": {"dim": [{"size": "1"}]}}}, "dtype": {"type": "DT_INT32"}}}, {"name": "unknown_182", "op": "Const", "attr": {"value": {"tensor": {"dtype": "DT_FLOAT", "tensorShape": {}}}, "dtype": {"type": "DT_FLOAT"}}}, {"name": "StatefulPartitionedCall/model/tf.compat.v1.transpose_9/transpose/perm", "op": "Const", "attr": {"value": {"tensor": {"dtype": "DT_INT32", "tensorShape": {"dim": [{"size": "4"}]}}}, "dtype": {"type": "DT_INT32"}}}, {"name": "StatefulPartitionedCall/model/tf.compat.v1.norm_13/norm/Sum/reduction_indices", "op": "Const", "attr": {"value": {"tensor": {"dtype": "DT_INT32", "tensorShape": {"dim": [{"size": "2"}]}}}, "dtype": {"type": "DT_INT32"}}}, {"name": "StatefulPartitionedCall/model/tf.math.reduce_mean_21/Mean/reduction_indices", "op": "Const", "attr": {"value": {"tensor": {"dtype": "DT_INT32", "tensorShape": {"dim": [{"size": "1"}]}}}, "dtype": {"type": "DT_INT32"}}}, {"name": "unknown_174", "op": "Const", "attr": {"value": {"tensor": {"dtype": "DT_FLOAT", "tensorShape": {}}}, "dtype": {"type": "DT_FLOAT"}}}, {"name": "StatefulPartitionedCall/model/layer_normalization_13/batchnorm/ReadVariableOp", "op": "Const", "attr": {"value": {"tensor": {"dtype": "DT_FLOAT", "tensorShape": {"dim": [{"size": "640"}]}}}, "dtype": {"type": "DT_FLOAT"}}}, {"name": "StatefulPartitionedCall/model/tf.compat.v1.norm_12/norm/Sum/reduction_indices", "op": "Const", "attr": {"value": {"tensor": {"dtype": "DT_INT32", "tensorShape": {"dim": [{"size": "2"}]}}}, "dtype": {"type": "DT_INT32"}}}, {"name": "StatefulPartitionedCall/model/tf.math.reduce_mean_20/Mean/reduction_indices", "op": "Const", "attr": {"value": {"tensor": {"dtype": "DT_INT32", "tensorShape": {"dim": [{"size": "1"}]}}}, "dtype": {"type": "DT_INT32"}}}, {"name": "unknown_163", "op": "Const", "attr": {"value": {"tensor": {"dtype": "DT_FLOAT", "tensorShape": {}}}, "dtype": {"type": "DT_FLOAT"}}}, {"name": "StatefulPartitionedCall/model/layer_normalization_12/batchnorm/ReadVariableOp", "op": "Const", "attr": {"value": {"tensor": {"dtype": "DT_FLOAT", "tensorShape": {"dim": [{"size": "640"}]}}}, "dtype": {"type": "DT_FLOAT"}}}, {"name": "StatefulPartitionedCall/model/tf.math.reduce_mean_18/Mean/reduction_indices", "op": "Const", "attr": {"value": {"tensor": {"dtype": "DT_INT32", "tensorShape": {"dim": [{"size": "1"}]}}}, "dtype": {"type": "DT_INT32"}}}, {"name": "StatefulPartitionedCall/model/tf.math.reduce_mean_19/Mean/reduction_indices", "op": "Const", "attr": {"value": {"tensor": {"dtype": "DT_INT32", "tensorShape": {"dim": [{"size": "1"}]}}}, "dtype": {"type": "DT_INT32"}}}, {"name": "unknown_152", "op": "Const", "attr": {"value": {"tensor": {"dtype": "DT_FLOAT", "tensorShape": {}}}, "dtype": {"type": "DT_FLOAT"}}}, {"name": "StatefulPartitionedCall/model/tf.compat.v1.transpose_7/transpose/perm", "op": "Const", "attr": {"value": {"tensor": {"dtype": "DT_INT32", "tensorShape": {"dim": [{"size": "4"}]}}}, "dtype": {"type": "DT_INT32"}}}, {"name": "StatefulPartitionedCall/model/tf.compat.v1.norm_11/norm/Sum/reduction_indices", "op": "Const", "attr": {"value": {"tensor": {"dtype": "DT_INT32", "tensorShape": {"dim": [{"size": "2"}]}}}, "dtype": {"type": "DT_INT32"}}}, {"name": "StatefulPartitionedCall/model/tf.math.reduce_mean_17/Mean/reduction_indices", "op": "Const", "attr": {"value": {"tensor": {"dtype": "DT_INT32", "tensorShape": {"dim": [{"size": "1"}]}}}, "dtype": {"type": "DT_INT32"}}}, {"name": "unknown_146", "op": "Const", "attr": {"value": {"tensor": {"dtype": "DT_FLOAT", "tensorShape": {}}}, "dtype": {"type": "DT_FLOAT"}}}, {"name": "StatefulPartitionedCall/model/layer_normalization_11/batchnorm/ReadVariableOp", "op": "Const", "attr": {"value": {"tensor": {"dtype": "DT_FLOAT", "tensorShape": {"dim": [{"size": "320"}]}}}, "dtype": {"type": "DT_FLOAT"}}}, {"name": "StatefulPartitionedCall/model/tf.compat.v1.norm_10/norm/Sum/reduction_indices", "op": "Const", "attr": {"value": {"tensor": {"dtype": "DT_INT32", "tensorShape": {"dim": [{"size": "2"}]}}}, "dtype": {"type": "DT_INT32"}}}, {"name": "StatefulPartitionedCall/model/tf.math.reduce_mean_16/Mean/reduction_indices", "op": "Const", "attr": {"value": {"tensor": {"dtype": "DT_INT32", "tensorShape": {"dim": [{"size": "1"}]}}}, "dtype": {"type": "DT_INT32"}}}, {"name": "unknown_135", "op": "Const", "attr": {"value": {"tensor": {"dtype": "DT_FLOAT", "tensorShape": {}}}, "dtype": {"type": "DT_FLOAT"}}}, {"name": "StatefulPartitionedCall/model/layer_normalization_10/batchnorm/ReadVariableOp", "op": "Const", "attr": {"value": {"tensor": {"dtype": "DT_FLOAT", "tensorShape": {"dim": [{"size": "320"}]}}}, "dtype": {"type": "DT_FLOAT"}}}, {"name": "StatefulPartitionedCall/model/tf.compat.v1.norm_9/norm/Sum/reduction_indices", "op": "Const", "attr": {"value": {"tensor": {"dtype": "DT_INT32", "tensorShape": {"dim": [{"size": "2"}]}}}, "dtype": {"type": "DT_INT32"}}}, {"name": "StatefulPartitionedCall/model/tf.math.reduce_mean_15/Mean/reduction_indices", "op": "Const", "attr": {"value": {"tensor": {"dtype": "DT_INT32", "tensorShape": {"dim": [{"size": "1"}]}}}, "dtype": {"type": "DT_INT32"}}}, {"name": "unknown_124", "op": "Const", "attr": {"value": {"tensor": {"dtype": "DT_FLOAT", "tensorShape": {}}}, "dtype": {"type": "DT_FLOAT"}}}, {"name": "StatefulPartitionedCall/model/layer_normalization_9/batchnorm/ReadVariableOp", "op": "Const", "attr": {"value": {"tensor": {"dtype": "DT_FLOAT", "tensorShape": {"dim": [{"size": "320"}]}}}, "dtype": {"type": "DT_FLOAT"}}}, {"name": "StatefulPartitionedCall/model/tf.compat.v1.norm_8/norm/Sum/reduction_indices", "op": "Const", "attr": {"value": {"tensor": {"dtype": "DT_INT32", "tensorShape": {"dim": [{"size": "2"}]}}}, "dtype": {"type": "DT_INT32"}}}, {"name": "StatefulPartitionedCall/model/tf.math.reduce_mean_14/Mean/reduction_indices", "op": "Const", "attr": {"value": {"tensor": {"dtype": "DT_INT32", "tensorShape": {"dim": [{"size": "1"}]}}}, "dtype": {"type": "DT_INT32"}}}, {"name": "unknown_113", "op": "Const", "attr": {"value": {"tensor": {"dtype": "DT_FLOAT", "tensorShape": {}}}, "dtype": {"type": "DT_FLOAT"}}}, {"name": "StatefulPartitionedCall/model/layer_normalization_8/batchnorm/ReadVariableOp", "op": "Const", "attr": {"value": {"tensor": {"dtype": "DT_FLOAT", "tensorShape": {"dim": [{"size": "320"}]}}}, "dtype": {"type": "DT_FLOAT"}}}, {"name": "StatefulPartitionedCall/model/tf.compat.v1.norm_7/norm/Sum/reduction_indices", "op": "Const", "attr": {"value": {"tensor": {"dtype": "DT_INT32", "tensorShape": {"dim": [{"size": "2"}]}}}, "dtype": {"type": "DT_INT32"}}}, {"name": "StatefulPartitionedCall/model/tf.math.reduce_mean_13/Mean/reduction_indices", "op": "Const", "attr": {"value": {"tensor": {"dtype": "DT_INT32", "tensorShape": {"dim": [{"size": "1"}]}}}, "dtype": {"type": "DT_INT32"}}}, {"name": "unknown_102", "op": "Const", "attr": {"value": {"tensor": {"dtype": "DT_FLOAT", "tensorShape": {}}}, "dtype": {"type": "DT_FLOAT"}}}, {"name": "StatefulPartitionedCall/model/layer_normalization_7/batchnorm/ReadVariableOp", "op": "Const", "attr": {"value": {"tensor": {"dtype": "DT_FLOAT", "tensorShape": {"dim": [{"size": "320"}]}}}, "dtype": {"type": "DT_FLOAT"}}}, {"name": "StatefulPartitionedCall/model/tf.compat.v1.norm_6/norm/Sum/reduction_indices", "op": "Const", "attr": {"value": {"tensor": {"dtype": "DT_INT32", "tensorShape": {"dim": [{"size": "2"}]}}}, "dtype": {"type": "DT_INT32"}}}, {"name": "StatefulPartitionedCall/model/tf.math.reduce_mean_12/Mean/reduction_indices", "op": "Const", "attr": {"value": {"tensor": {"dtype": "DT_INT32", "tensorShape": {"dim": [{"size": "1"}]}}}, "dtype": {"type": "DT_INT32"}}}, {"name": "unknown_91", "op": "Const", "attr": {"value": {"tensor": {"dtype": "DT_FLOAT", "tensorShape": {}}}, "dtype": {"type": "DT_FLOAT"}}}, {"name": "StatefulPartitionedCall/model/layer_normalization_6/batchnorm/ReadVariableOp", "op": "Const", "attr": {"value": {"tensor": {"dtype": "DT_FLOAT", "tensorShape": {"dim": [{"size": "320"}]}}}, "dtype": {"type": "DT_FLOAT"}}}, {"name": "StatefulPartitionedCall/model/tf.compat.v1.norm_5/norm/Sum/reduction_indices", "op": "Const", "attr": {"value": {"tensor": {"dtype": "DT_INT32", "tensorShape": {"dim": [{"size": "2"}]}}}, "dtype": {"type": "DT_INT32"}}}, {"name": "StatefulPartitionedCall/model/tf.math.reduce_mean_11/Mean/reduction_indices", "op": "Const", "attr": {"value": {"tensor": {"dtype": "DT_INT32", "tensorShape": {"dim": [{"size": "1"}]}}}, "dtype": {"type": "DT_INT32"}}}, {"name": "unknown_80", "op": "Const", "attr": {"value": {"tensor": {"dtype": "DT_FLOAT", "tensorShape": {}}}, "dtype": {"type": "DT_FLOAT"}}}, {"name": "StatefulPartitionedCall/model/layer_normalization_5/batchnorm/ReadVariableOp", "op": "Const", "attr": {"value": {"tensor": {"dtype": "DT_FLOAT", "tensorShape": {"dim": [{"size": "320"}]}}}, "dtype": {"type": "DT_FLOAT"}}}, {"name": "StatefulPartitionedCall/model/tf.compat.v1.norm_4/norm/Sum/reduction_indices", "op": "Const", "attr": {"value": {"tensor": {"dtype": "DT_INT32", "tensorShape": {"dim": [{"size": "2"}]}}}, "dtype": {"type": "DT_INT32"}}}, {"name": "StatefulPartitionedCall/model/tf.math.reduce_mean_10/Mean/reduction_indices", "op": "Const", "attr": {"value": {"tensor": {"dtype": "DT_INT32", "tensorShape": {"dim": [{"size": "1"}]}}}, "dtype": {"type": "DT_INT32"}}}, {"name": "unknown_69", "op": "Const", "attr": {"value": {"tensor": {"dtype": "DT_FLOAT", "tensorShape": {}}}, "dtype": {"type": "DT_FLOAT"}}}, {"name": "StatefulPartitionedCall/model/layer_normalization_4/batchnorm/ReadVariableOp", "op": "Const", "attr": {"value": {"tensor": {"dtype": "DT_FLOAT", "tensorShape": {"dim": [{"size": "320"}]}}}, "dtype": {"type": "DT_FLOAT"}}}, {"name": "StatefulPartitionedCall/model/tf.math.reduce_mean_8/Mean/reduction_indices", "op": "Const", "attr": {"value": {"tensor": {"dtype": "DT_INT32", "tensorShape": {"dim": [{"size": "1"}]}}}, "dtype": {"type": "DT_INT32"}}}, {"name": "StatefulPartitionedCall/model/tf.math.reduce_mean_9/Mean/reduction_indices", "op": "Const", "attr": {"value": {"tensor": {"dtype": "DT_INT32", "tensorShape": {"dim": [{"size": "1"}]}}}, "dtype": {"type": "DT_INT32"}}}, {"name": "unknown_58", "op": "Const", "attr": {"value": {"tensor": {"dtype": "DT_FLOAT", "tensorShape": {}}}, "dtype": {"type": "DT_FLOAT"}}}, {"name": "StatefulPartitionedCall/model/tf.compat.v1.transpose_5/transpose/perm", "op": "Const", "attr": {"value": {"tensor": {"dtype": "DT_INT32", "tensorShape": {"dim": [{"size": "4"}]}}}, "dtype": {"type": "DT_INT32"}}}, {"name": "StatefulPartitionedCall/model/tf.compat.v1.norm_3/norm/Sum/reduction_indices", "op": "Const", "attr": {"value": {"tensor": {"dtype": "DT_INT32", "tensorShape": {"dim": [{"size": "2"}]}}}, "dtype": {"type": "DT_INT32"}}}, {"name": "StatefulPartitionedCall/model/tf.math.reduce_mean_7/Mean/reduction_indices", "op": "Const", "attr": {"value": {"tensor": {"dtype": "DT_INT32", "tensorShape": {"dim": [{"size": "1"}]}}}, "dtype": {"type": "DT_INT32"}}}, {"name": "unknown_52", "op": "Const", "attr": {"value": {"tensor": {"dtype": "DT_FLOAT", "tensorShape": {}}}, "dtype": {"type": "DT_FLOAT"}}}, {"name": "StatefulPartitionedCall/model/layer_normalization_3/batchnorm/ReadVariableOp", "op": "Const", "attr": {"value": {"tensor": {"dtype": "DT_FLOAT", "tensorShape": {"dim": [{"size": "160"}]}}}, "dtype": {"type": "DT_FLOAT"}}}, {"name": "StatefulPartitionedCall/model/tf.compat.v1.norm_2/norm/Sum/reduction_indices", "op": "Const", "attr": {"value": {"tensor": {"dtype": "DT_INT32", "tensorShape": {"dim": [{"size": "2"}]}}}, "dtype": {"type": "DT_INT32"}}}, {"name": "StatefulPartitionedCall/model/tf.math.reduce_mean_6/Mean/reduction_indices", "op": "Const", "attr": {"value": {"tensor": {"dtype": "DT_INT32", "tensorShape": {"dim": [{"size": "1"}]}}}, "dtype": {"type": "DT_INT32"}}}, {"name": "unknown_41", "op": "Const", "attr": {"value": {"tensor": {"dtype": "DT_FLOAT", "tensorShape": {}}}, "dtype": {"type": "DT_FLOAT"}}}, {"name": "StatefulPartitionedCall/model/layer_normalization_2/batchnorm/ReadVariableOp", "op": "Const", "attr": {"value": {"tensor": {"dtype": "DT_FLOAT", "tensorShape": {"dim": [{"size": "160"}]}}}, "dtype": {"type": "DT_FLOAT"}}}, {"name": "StatefulPartitionedCall/model/tf.math.reduce_mean_4/Mean/reduction_indices", "op": "Const", "attr": {"value": {"tensor": {"dtype": "DT_INT32", "tensorShape": {"dim": [{"size": "1"}]}}}, "dtype": {"type": "DT_INT32"}}}, {"name": "StatefulPartitionedCall/model/tf.math.reduce_mean_5/Mean/reduction_indices", "op": "Const", "attr": {"value": {"tensor": {"dtype": "DT_INT32", "tensorShape": {"dim": [{"size": "1"}]}}}, "dtype": {"type": "DT_INT32"}}}, {"name": "unknown_30", "op": "Const", "attr": {"value": {"tensor": {"dtype": "DT_FLOAT", "tensorShape": {}}}, "dtype": {"type": "DT_FLOAT"}}}, {"name": "StatefulPartitionedCall/model/tf.compat.v1.transpose_3/transpose/perm", "op": "Const", "attr": {"value": {"tensor": {"dtype": "DT_INT32", "tensorShape": {"dim": [{"size": "4"}]}}}, "dtype": {"type": "DT_INT32"}}}, {"name": "StatefulPartitionedCall/model/tf.compat.v1.norm_1/norm/Sum/reduction_indices", "op": "Const", "attr": {"value": {"tensor": {"dtype": "DT_INT32", "tensorShape": {"dim": [{"size": "2"}]}}}, "dtype": {"type": "DT_INT32"}}}, {"name": "StatefulPartitionedCall/model/tf.math.reduce_mean_3/Mean/reduction_indices", "op": "Const", "attr": {"value": {"tensor": {"dtype": "DT_INT32", "tensorShape": {"dim": [{"size": "1"}]}}}, "dtype": {"type": "DT_INT32"}}}, {"name": "unknown_24", "op": "Const", "attr": {"value": {"tensor": {"dtype": "DT_FLOAT", "tensorShape": {}}}, "dtype": {"type": "DT_FLOAT"}}}, {"name": "StatefulPartitionedCall/model/layer_normalization_1/batchnorm/ReadVariableOp", "op": "Const", "attr": {"value": {"tensor": {"dtype": "DT_FLOAT", "tensorShape": {"dim": [{"size": "80"}]}}}, "dtype": {"type": "DT_FLOAT"}}}, {"name": "StatefulPartitionedCall/model/tf.compat.v1.transpose_2/transpose/perm", "op": "Const", "attr": {"value": {"tensor": {"dtype": "DT_INT32", "tensorShape": {"dim": [{"size": "4"}]}}}, "dtype": {"type": "DT_INT32"}}}, {"name": "StatefulPartitionedCall/model/tf.compat.v1.norm/norm/Sum/reduction_indices", "op": "Const", "attr": {"value": {"tensor": {"dtype": "DT_INT32", "tensorShape": {"dim": [{"size": "2"}]}}}, "dtype": {"type": "DT_INT32"}}}, {"name": "StatefulPartitionedCall/model/tf.math.reduce_mean_2/Mean/reduction_indices", "op": "Const", "attr": {"value": {"tensor": {"dtype": "DT_INT32", "tensorShape": {"dim": [{"size": "1"}]}}}, "dtype": {"type": "DT_INT32"}}}, {"name": "unknown_13", "op": "Const", "attr": {"value": {"tensor": {"dtype": "DT_FLOAT", "tensorShape": {}}}, "dtype": {"type": "DT_FLOAT"}}}, {"name": "StatefulPartitionedCall/model/layer_normalization/batchnorm/ReadVariableOp", "op": "Const", "attr": {"value": {"tensor": {"dtype": "DT_FLOAT", "tensorShape": {"dim": [{"size": "80"}]}}}, "dtype": {"type": "DT_FLOAT"}}}, {"name": "StatefulPartitionedCall/model/tf.math.reduce_mean/Mean/reduction_indices", "op": "Const", "attr": {"value": {"tensor": {"dtype": "DT_INT32", "tensorShape": {"dim": [{"size": "1"}]}}}, "dtype": {"type": "DT_INT32"}}}, {"name": "StatefulPartitionedCall/model/tf.math.reduce_mean_1/Mean/reduction_indices", "op": "Const", "attr": {"value": {"tensor": {"dtype": "DT_INT32", "tensorShape": {"dim": [{"size": "1"}]}}}, "dtype": {"type": "DT_INT32"}}}, {"name": "unknown_4", "op": "Const", "attr": {"value": {"tensor": {"dtype": "DT_FLOAT", "tensorShape": {}}}, "dtype": {"type": "DT_FLOAT"}}}, {"name": "StatefulPartitionedCall/model/tf.compat.v1.transpose/transpose/perm", "op": "Const", "attr": {"value": {"tensor": {"dtype": "DT_INT32", "tensorShape": {"dim": [{"size": "4"}]}}}, "dtype": {"type": "DT_INT32"}}}, {"name": "unknown", "op": "Const", "attr": {"value": {"tensor": {"dtype": "DT_FLOAT", "tensorShape": {}}}, "dtype": {"type": "DT_FLOAT"}}}, {"name": "unknown_0", "op": "Const", "attr": {"value": {"tensor": {"dtype": "DT_FLOAT", "tensorShape": {}}}, "dtype": {"type": "DT_FLOAT"}}}, {"name": "StatefulPartitionedCall/model/conv2d/Conv2D/ReadVariableOp", "op": "Const", "attr": {"value": {"tensor": {"dtype": "DT_FLOAT", "tensorShape": {"dim": [{"size": "4"}, {"size": "4"}, {"size": "3"}, {"size": "80"}]}}}, "dtype": {"type": "DT_FLOAT"}}}, {"name": "StatefulPartitionedCall/model/conv2d/BiasAdd/ReadVariableOp", "op": "Const", "attr": {"value": {"tensor": {"dtype": "DT_FLOAT", "tensorShape": {"dim": [{"size": "80"}]}}}, "dtype": {"type": "DT_FLOAT"}}}, {"name": "StatefulPartitionedCall/model/tf.compat.v1.transpose_1/transpose/perm", "op": "Const", "attr": {"value": {"tensor": {"dtype": "DT_INT32", "tensorShape": {"dim": [{"size": "4"}]}}}, "dtype": {"type": "DT_INT32"}}}, {"name": "StatefulPartitionedCall/model/zero_padding2d/Pad/paddings", "op": "Const", "attr": {"value": {"tensor": {"dtype": "DT_INT32", "tensorShape": {"dim": [{"size": "4"}, {"size": "2"}]}}}, "dtype": {"type": "DT_INT32"}}}, {"name": "StatefulPartitionedCall/model/depthwise_conv2d/depthwise/ReadVariableOp", "op": "Const", "attr": {"value": {"tensor": {"dtype": "DT_FLOAT", "tensorShape": {"dim": [{"size": "7"}, {"size": "7"}, {"size": "80"}, {"size": "1"}]}}}, "dtype": {"type": "DT_FLOAT"}}}, {"name": "StatefulPartitionedCall/model/depthwise_conv2d/BiasAdd/ReadVariableOp", "op": "Const", "attr": {"value": {"tensor": {"dtype": "DT_FLOAT", "tensorShape": {"dim": [{"size": "80"}]}}}, "dtype": {"type": "DT_FLOAT"}}}, {"name": "StatefulPartitionedCall/model/layer_normalization/moments/mean/reduction_indices", "op": "Const", "attr": {"value": {"tensor": {"dtype": "DT_INT32", "tensorShape": {"dim": [{"size": "1"}]}}}, "dtype": {"type": "DT_INT32"}}}, {"name": "StatefulPartitionedCall/model/layer_normalization/moments/variance/reduction_indices", "op": "Const", "attr": {"value": {"tensor": {"dtype": "DT_INT32", "tensorShape": {"dim": [{"size": "1"}]}}}, "dtype": {"type": "DT_INT32"}}}, {"name": "StatefulPartitionedCall/model/layer_normalization/batchnorm/add/y", "op": "Const", "attr": {"value": {"tensor": {"dtype": "DT_FLOAT", "tensorShape": {}}}, "dtype": {"type": "DT_FLOAT"}}}, {"name": "StatefulPartitionedCall/model/layer_normalization/batchnorm/mul/ReadVariableOp", "op": "Const", "attr": {"value": {"tensor": {"dtype": "DT_FLOAT", "tensorShape": {"dim": [{"size": "80"}]}}}, "dtype": {"type": "DT_FLOAT"}}}, {"name": "StatefulPartitionedCall/model/dense/Tensordot/Reshape/shape", "op": "Const", "attr": {"value": {"tensor": {"dtype": "DT_INT32", "tensorShape": {"dim": [{"size": "2"}]}}}, "dtype": {"type": "DT_INT32"}}}, {"name": "StatefulPartitionedCall/model/dense/Tensordot/ReadVariableOp", "op": "Const", "attr": {"value": {"tensor": {"dtype": "DT_FLOAT", "tensorShape": {"dim": [{"size": "80"}, {"size": "320"}]}}}, "dtype": {"type": "DT_FLOAT"}}}, {"name": "StatefulPartitionedCall/model/dense/Tensordot/shape", "op": "Const", "attr": {"value": {"tensor": {"dtype": "DT_INT32", "tensorShape": {"dim": [{"size": "4"}]}}}, "dtype": {"type": "DT_INT32"}}}, {"name": "StatefulPartitionedCall/model/dense/BiasAdd/ReadVariableOp", "op": "Const", "attr": {"value": {"tensor": {"dtype": "DT_FLOAT", "tensorShape": {"dim": [{"size": "320"}]}}}, "dtype": {"type": "DT_FLOAT"}}}, {"name": "StatefulPartitionedCall/model/dense_1/Tensordot/Reshape/shape", "op": "Const", "attr": {"value": {"tensor": {"dtype": "DT_INT32", "tensorShape": {"dim": [{"size": "2"}]}}}, "dtype": {"type": "DT_INT32"}}}, {"name": "StatefulPartitionedCall/model/dense_1/Tensordot/ReadVariableOp", "op": "Const", "attr": {"value": {"tensor": {"dtype": "DT_FLOAT", "tensorShape": {"dim": [{"size": "320"}, {"size": "80"}]}}}, "dtype": {"type": "DT_FLOAT"}}}, {"name": "StatefulPartitionedCall/model/dense_1/Tensordot/shape", "op": "Const", "attr": {"value": {"tensor": {"dtype": "DT_INT32", "tensorShape": {"dim": [{"size": "4"}]}}}, "dtype": {"type": "DT_INT32"}}}, {"name": "StatefulPartitionedCall/model/dense_1/BiasAdd/ReadVariableOp", "op": "Const", "attr": {"value": {"tensor": {"dtype": "DT_FLOAT", "tensorShape": {"dim": [{"size": "80"}]}}}, "dtype": {"type": "DT_FLOAT"}}}, {"name": "StatefulPartitionedCall/model/zero_padding2d_1/Pad/paddings", "op": "Const", "attr": {"value": {"tensor": {"dtype": "DT_INT32", "tensorShape": {"dim": [{"size": "4"}, {"size": "2"}]}}}, "dtype": {"type": "DT_INT32"}}}, {"name": "StatefulPartitionedCall/model/depthwise_conv2d_1/depthwise/ReadVariableOp", "op": "Const", "attr": {"value": {"tensor": {"dtype": "DT_FLOAT", "tensorShape": {"dim": [{"size": "7"}, {"size": "7"}, {"size": "80"}, {"size": "1"}]}}}, "dtype": {"type": "DT_FLOAT"}}}, {"name": "StatefulPartitionedCall/model/depthwise_conv2d_1/BiasAdd/ReadVariableOp", "op": "Const", "attr": {"value": {"tensor": {"dtype": "DT_FLOAT", "tensorShape": {"dim": [{"size": "80"}]}}}, "dtype": {"type": "DT_FLOAT"}}}, {"name": "StatefulPartitionedCall/model/layer_normalization_1/moments/mean/reduction_indices", "op": "Const", "attr": {"value": {"tensor": {"dtype": "DT_INT32", "tensorShape": {"dim": [{"size": "1"}]}}}, "dtype": {"type": "DT_INT32"}}}, {"name": "StatefulPartitionedCall/model/layer_normalization_1/moments/variance/reduction_indices", "op": "Const", "attr": {"value": {"tensor": {"dtype": "DT_INT32", "tensorShape": {"dim": [{"size": "1"}]}}}, "dtype": {"type": "DT_INT32"}}}, {"name": "StatefulPartitionedCall/model/layer_normalization_1/batchnorm/add/y", "op": "Const", "attr": {"value": {"tensor": {"dtype": "DT_FLOAT", "tensorShape": {}}}, "dtype": {"type": "DT_FLOAT"}}}, {"name": "StatefulPartitionedCall/model/layer_normalization_1/batchnorm/mul/ReadVariableOp", "op": "Const", "attr": {"value": {"tensor": {"dtype": "DT_FLOAT", "tensorShape": {"dim": [{"size": "80"}]}}}, "dtype": {"type": "DT_FLOAT"}}}, {"name": "StatefulPartitionedCall/model/dense_2/Tensordot/Reshape/shape", "op": "Const", "attr": {"value": {"tensor": {"dtype": "DT_INT32", "tensorShape": {"dim": [{"size": "2"}]}}}, "dtype": {"type": "DT_INT32"}}}, {"name": "StatefulPartitionedCall/model/dense_2/Tensordot/ReadVariableOp", "op": "Const", "attr": {"value": {"tensor": {"dtype": "DT_FLOAT", "tensorShape": {"dim": [{"size": "80"}, {"size": "320"}]}}}, "dtype": {"type": "DT_FLOAT"}}}, {"name": "StatefulPartitionedCall/model/dense_2/Tensordot/shape", "op": "Const", "attr": {"value": {"tensor": {"dtype": "DT_INT32", "tensorShape": {"dim": [{"size": "4"}]}}}, "dtype": {"type": "DT_INT32"}}}, {"name": "StatefulPartitionedCall/model/dense_2/BiasAdd/ReadVariableOp", "op": "Const", "attr": {"value": {"tensor": {"dtype": "DT_FLOAT", "tensorShape": {"dim": [{"size": "320"}]}}}, "dtype": {"type": "DT_FLOAT"}}}, {"name": "StatefulPartitionedCall/model/dense_3/Tensordot/Reshape/shape", "op": "Const", "attr": {"value": {"tensor": {"dtype": "DT_INT32", "tensorShape": {"dim": [{"size": "2"}]}}}, "dtype": {"type": "DT_INT32"}}}, {"name": "StatefulPartitionedCall/model/dense_3/Tensordot/ReadVariableOp", "op": "Const", "attr": {"value": {"tensor": {"dtype": "DT_FLOAT", "tensorShape": {"dim": [{"size": "320"}, {"size": "80"}]}}}, "dtype": {"type": "DT_FLOAT"}}}, {"name": "StatefulPartitionedCall/model/dense_3/Tensordot/shape", "op": "Const", "attr": {"value": {"tensor": {"dtype": "DT_INT32", "tensorShape": {"dim": [{"size": "4"}]}}}, "dtype": {"type": "DT_INT32"}}}, {"name": "StatefulPartitionedCall/model/dense_3/BiasAdd/ReadVariableOp", "op": "Const", "attr": {"value": {"tensor": {"dtype": "DT_FLOAT", "tensorShape": {"dim": [{"size": "80"}]}}}, "dtype": {"type": "DT_FLOAT"}}}, {"name": "StatefulPartitionedCall/model/tf.compat.v1.transpose_4/transpose/perm", "op": "Const", "attr": {"value": {"tensor": {"dtype": "DT_INT32", "tensorShape": {"dim": [{"size": "4"}]}}}, "dtype": {"type": "DT_INT32"}}}, {"name": "StatefulPartitionedCall/model/conv2d_1/Conv2D/ReadVariableOp", "op": "Const", "attr": {"value": {"tensor": {"dtype": "DT_FLOAT", "tensorShape": {"dim": [{"size": "2"}, {"size": "2"}, {"size": "80"}, {"size": "160"}]}}}, "dtype": {"type": "DT_FLOAT"}}}, {"name": "StatefulPartitionedCall/model/conv2d_1/BiasAdd/ReadVariableOp", "op": "Const", "attr": {"value": {"tensor": {"dtype": "DT_FLOAT", "tensorShape": {"dim": [{"size": "160"}]}}}, "dtype": {"type": "DT_FLOAT"}}}, {"name": "StatefulPartitionedCall/model/zero_padding2d_2/Pad/paddings", "op": "Const", "attr": {"value": {"tensor": {"dtype": "DT_INT32", "tensorShape": {"dim": [{"size": "4"}, {"size": "2"}]}}}, "dtype": {"type": "DT_INT32"}}}, {"name": "StatefulPartitionedCall/model/depthwise_conv2d_2/depthwise/ReadVariableOp", "op": "Const", "attr": {"value": {"tensor": {"dtype": "DT_FLOAT", "tensorShape": {"dim": [{"size": "7"}, {"size": "7"}, {"size": "160"}, {"size": "1"}]}}}, "dtype": {"type": "DT_FLOAT"}}}, {"name": "StatefulPartitionedCall/model/depthwise_conv2d_2/BiasAdd/ReadVariableOp", "op": "Const", "attr": {"value": {"tensor": {"dtype": "DT_FLOAT", "tensorShape": {"dim": [{"size": "160"}]}}}, "dtype": {"type": "DT_FLOAT"}}}, {"name": "StatefulPartitionedCall/model/layer_normalization_2/moments/mean/reduction_indices", "op": "Const", "attr": {"value": {"tensor": {"dtype": "DT_INT32", "tensorShape": {"dim": [{"size": "1"}]}}}, "dtype": {"type": "DT_INT32"}}}, {"name": "StatefulPartitionedCall/model/layer_normalization_2/moments/variance/reduction_indices", "op": "Const", "attr": {"value": {"tensor": {"dtype": "DT_INT32", "tensorShape": {"dim": [{"size": "1"}]}}}, "dtype": {"type": "DT_INT32"}}}, {"name": "StatefulPartitionedCall/model/layer_normalization_2/batchnorm/add/y", "op": "Const", "attr": {"value": {"tensor": {"dtype": "DT_FLOAT", "tensorShape": {}}}, "dtype": {"type": "DT_FLOAT"}}}, {"name": "StatefulPartitionedCall/model/layer_normalization_2/batchnorm/mul/ReadVariableOp", "op": "Const", "attr": {"value": {"tensor": {"dtype": "DT_FLOAT", "tensorShape": {"dim": [{"size": "160"}]}}}, "dtype": {"type": "DT_FLOAT"}}}, {"name": "StatefulPartitionedCall/model/dense_4/Tensordot/Reshape/shape", "op": "Const", "attr": {"value": {"tensor": {"dtype": "DT_INT32", "tensorShape": {"dim": [{"size": "2"}]}}}, "dtype": {"type": "DT_INT32"}}}, {"name": "StatefulPartitionedCall/model/dense_4/Tensordot/ReadVariableOp", "op": "Const", "attr": {"value": {"tensor": {"dtype": "DT_FLOAT", "tensorShape": {"dim": [{"size": "160"}, {"size": "640"}]}}}, "dtype": {"type": "DT_FLOAT"}}}, {"name": "StatefulPartitionedCall/model/dense_4/Tensordot/shape", "op": "Const", "attr": {"value": {"tensor": {"dtype": "DT_INT32", "tensorShape": {"dim": [{"size": "4"}]}}}, "dtype": {"type": "DT_INT32"}}}, {"name": "StatefulPartitionedCall/model/dense_4/BiasAdd/ReadVariableOp", "op": "Const", "attr": {"value": {"tensor": {"dtype": "DT_FLOAT", "tensorShape": {"dim": [{"size": "640"}]}}}, "dtype": {"type": "DT_FLOAT"}}}, {"name": "StatefulPartitionedCall/model/dense_5/Tensordot/Reshape/shape", "op": "Const", "attr": {"value": {"tensor": {"dtype": "DT_INT32", "tensorShape": {"dim": [{"size": "2"}]}}}, "dtype": {"type": "DT_INT32"}}}, {"name": "StatefulPartitionedCall/model/dense_5/Tensordot/ReadVariableOp", "op": "Const", "attr": {"value": {"tensor": {"dtype": "DT_FLOAT", "tensorShape": {"dim": [{"size": "640"}, {"size": "160"}]}}}, "dtype": {"type": "DT_FLOAT"}}}, {"name": "StatefulPartitionedCall/model/dense_5/Tensordot/shape", "op": "Const", "attr": {"value": {"tensor": {"dtype": "DT_INT32", "tensorShape": {"dim": [{"size": "4"}]}}}, "dtype": {"type": "DT_INT32"}}}, {"name": "StatefulPartitionedCall/model/dense_5/BiasAdd/ReadVariableOp", "op": "Const", "attr": {"value": {"tensor": {"dtype": "DT_FLOAT", "tensorShape": {"dim": [{"size": "160"}]}}}, "dtype": {"type": "DT_FLOAT"}}}, {"name": "StatefulPartitionedCall/model/zero_padding2d_3/Pad/paddings", "op": "Const", "attr": {"value": {"tensor": {"dtype": "DT_INT32", "tensorShape": {"dim": [{"size": "4"}, {"size": "2"}]}}}, "dtype": {"type": "DT_INT32"}}}, {"name": "StatefulPartitionedCall/model/depthwise_conv2d_3/depthwise/ReadVariableOp", "op": "Const", "attr": {"value": {"tensor": {"dtype": "DT_FLOAT", "tensorShape": {"dim": [{"size": "7"}, {"size": "7"}, {"size": "160"}, {"size": "1"}]}}}, "dtype": {"type": "DT_FLOAT"}}}, {"name": "StatefulPartitionedCall/model/depthwise_conv2d_3/BiasAdd/ReadVariableOp", "op": "Const", "attr": {"value": {"tensor": {"dtype": "DT_FLOAT", "tensorShape": {"dim": [{"size": "160"}]}}}, "dtype": {"type": "DT_FLOAT"}}}, {"name": "StatefulPartitionedCall/model/layer_normalization_3/moments/mean/reduction_indices", "op": "Const", "attr": {"value": {"tensor": {"dtype": "DT_INT32", "tensorShape": {"dim": [{"size": "1"}]}}}, "dtype": {"type": "DT_INT32"}}}, {"name": "StatefulPartitionedCall/model/layer_normalization_3/moments/variance/reduction_indices", "op": "Const", "attr": {"value": {"tensor": {"dtype": "DT_INT32", "tensorShape": {"dim": [{"size": "1"}]}}}, "dtype": {"type": "DT_INT32"}}}, {"name": "StatefulPartitionedCall/model/layer_normalization_3/batchnorm/add/y", "op": "Const", "attr": {"value": {"tensor": {"dtype": "DT_FLOAT", "tensorShape": {}}}, "dtype": {"type": "DT_FLOAT"}}}, {"name": "StatefulPartitionedCall/model/layer_normalization_3/batchnorm/mul/ReadVariableOp", "op": "Const", "attr": {"value": {"tensor": {"dtype": "DT_FLOAT", "tensorShape": {"dim": [{"size": "160"}]}}}, "dtype": {"type": "DT_FLOAT"}}}, {"name": "StatefulPartitionedCall/model/dense_6/Tensordot/Reshape/shape", "op": "Const", "attr": {"value": {"tensor": {"dtype": "DT_INT32", "tensorShape": {"dim": [{"size": "2"}]}}}, "dtype": {"type": "DT_INT32"}}}, {"name": "StatefulPartitionedCall/model/dense_6/Tensordot/ReadVariableOp", "op": "Const", "attr": {"value": {"tensor": {"dtype": "DT_FLOAT", "tensorShape": {"dim": [{"size": "160"}, {"size": "640"}]}}}, "dtype": {"type": "DT_FLOAT"}}}, {"name": "StatefulPartitionedCall/model/dense_6/Tensordot/shape", "op": "Const", "attr": {"value": {"tensor": {"dtype": "DT_INT32", "tensorShape": {"dim": [{"size": "4"}]}}}, "dtype": {"type": "DT_INT32"}}}, {"name": "StatefulPartitionedCall/model/dense_6/BiasAdd/ReadVariableOp", "op": "Const", "attr": {"value": {"tensor": {"dtype": "DT_FLOAT", "tensorShape": {"dim": [{"size": "640"}]}}}, "dtype": {"type": "DT_FLOAT"}}}, {"name": "StatefulPartitionedCall/model/dense_7/Tensordot/Reshape/shape", "op": "Const", "attr": {"value": {"tensor": {"dtype": "DT_INT32", "tensorShape": {"dim": [{"size": "2"}]}}}, "dtype": {"type": "DT_INT32"}}}, {"name": "StatefulPartitionedCall/model/dense_7/Tensordot/ReadVariableOp", "op": "Const", "attr": {"value": {"tensor": {"dtype": "DT_FLOAT", "tensorShape": {"dim": [{"size": "640"}, {"size": "160"}]}}}, "dtype": {"type": "DT_FLOAT"}}}, {"name": "StatefulPartitionedCall/model/dense_7/Tensordot/shape", "op": "Const", "attr": {"value": {"tensor": {"dtype": "DT_INT32", "tensorShape": {"dim": [{"size": "4"}]}}}, "dtype": {"type": "DT_INT32"}}}, {"name": "StatefulPartitionedCall/model/dense_7/BiasAdd/ReadVariableOp", "op": "Const", "attr": {"value": {"tensor": {"dtype": "DT_FLOAT", "tensorShape": {"dim": [{"size": "160"}]}}}, "dtype": {"type": "DT_FLOAT"}}}, {"name": "StatefulPartitionedCall/model/tf.compat.v1.transpose_6/transpose/perm", "op": "Const", "attr": {"value": {"tensor": {"dtype": "DT_INT32", "tensorShape": {"dim": [{"size": "4"}]}}}, "dtype": {"type": "DT_INT32"}}}, {"name": "StatefulPartitionedCall/model/conv2d_2/Conv2D/ReadVariableOp", "op": "Const", "attr": {"value": {"tensor": {"dtype": "DT_FLOAT", "tensorShape": {"dim": [{"size": "2"}, {"size": "2"}, {"size": "160"}, {"size": "320"}]}}}, "dtype": {"type": "DT_FLOAT"}}}, {"name": "StatefulPartitionedCall/model/conv2d_2/BiasAdd/ReadVariableOp", "op": "Const", "attr": {"value": {"tensor": {"dtype": "DT_FLOAT", "tensorShape": {"dim": [{"size": "320"}]}}}, "dtype": {"type": "DT_FLOAT"}}}, {"name": "StatefulPartitionedCall/model/zero_padding2d_4/Pad/paddings", "op": "Const", "attr": {"value": {"tensor": {"dtype": "DT_INT32", "tensorShape": {"dim": [{"size": "4"}, {"size": "2"}]}}}, "dtype": {"type": "DT_INT32"}}}, {"name": "StatefulPartitionedCall/model/depthwise_conv2d_4/depthwise/ReadVariableOp", "op": "Const", "attr": {"value": {"tensor": {"dtype": "DT_FLOAT", "tensorShape": {"dim": [{"size": "7"}, {"size": "7"}, {"size": "320"}, {"size": "1"}]}}}, "dtype": {"type": "DT_FLOAT"}}}, {"name": "StatefulPartitionedCall/model/depthwise_conv2d_4/BiasAdd/ReadVariableOp", "op": "Const", "attr": {"value": {"tensor": {"dtype": "DT_FLOAT", "tensorShape": {"dim": [{"size": "320"}]}}}, "dtype": {"type": "DT_FLOAT"}}}, {"name": "StatefulPartitionedCall/model/layer_normalization_4/moments/mean/reduction_indices", "op": "Const", "attr": {"value": {"tensor": {"dtype": "DT_INT32", "tensorShape": {"dim": [{"size": "1"}]}}}, "dtype": {"type": "DT_INT32"}}}, {"name": "StatefulPartitionedCall/model/layer_normalization_4/moments/variance/reduction_indices", "op": "Const", "attr": {"value": {"tensor": {"dtype": "DT_INT32", "tensorShape": {"dim": [{"size": "1"}]}}}, "dtype": {"type": "DT_INT32"}}}, {"name": "StatefulPartitionedCall/model/layer_normalization_4/batchnorm/add/y", "op": "Const", "attr": {"value": {"tensor": {"dtype": "DT_FLOAT", "tensorShape": {}}}, "dtype": {"type": "DT_FLOAT"}}}, {"name": "StatefulPartitionedCall/model/layer_normalization_4/batchnorm/mul/ReadVariableOp", "op": "Const", "attr": {"value": {"tensor": {"dtype": "DT_FLOAT", "tensorShape": {"dim": [{"size": "320"}]}}}, "dtype": {"type": "DT_FLOAT"}}}, {"name": "StatefulPartitionedCall/model/dense_8/Tensordot/Reshape/shape", "op": "Const", "attr": {"value": {"tensor": {"dtype": "DT_INT32", "tensorShape": {"dim": [{"size": "2"}]}}}, "dtype": {"type": "DT_INT32"}}}, {"name": "StatefulPartitionedCall/model/dense_8/Tensordot/ReadVariableOp", "op": "Const", "attr": {"value": {"tensor": {"dtype": "DT_FLOAT", "tensorShape": {"dim": [{"size": "320"}, {"size": "1280"}]}}}, "dtype": {"type": "DT_FLOAT"}}}, {"name": "StatefulPartitionedCall/model/dense_8/Tensordot/shape", "op": "Const", "attr": {"value": {"tensor": {"dtype": "DT_INT32", "tensorShape": {"dim": [{"size": "4"}]}}}, "dtype": {"type": "DT_INT32"}}}, {"name": "StatefulPartitionedCall/model/dense_8/BiasAdd/ReadVariableOp", "op": "Const", "attr": {"value": {"tensor": {"dtype": "DT_FLOAT", "tensorShape": {"dim": [{"size": "1280"}]}}}, "dtype": {"type": "DT_FLOAT"}}}, {"name": "StatefulPartitionedCall/model/dense_9/Tensordot/Reshape/shape", "op": "Const", "attr": {"value": {"tensor": {"dtype": "DT_INT32", "tensorShape": {"dim": [{"size": "2"}]}}}, "dtype": {"type": "DT_INT32"}}}, {"name": "StatefulPartitionedCall/model/dense_9/Tensordot/ReadVariableOp", "op": "Const", "attr": {"value": {"tensor": {"dtype": "DT_FLOAT", "tensorShape": {"dim": [{"size": "1280"}, {"size": "320"}]}}}, "dtype": {"type": "DT_FLOAT"}}}, {"name": "StatefulPartitionedCall/model/dense_9/Tensordot/shape", "op": "Const", "attr": {"value": {"tensor": {"dtype": "DT_INT32", "tensorShape": {"dim": [{"size": "4"}]}}}, "dtype": {"type": "DT_INT32"}}}, {"name": "StatefulPartitionedCall/model/dense_9/BiasAdd/ReadVariableOp", "op": "Const", "attr": {"value": {"tensor": {"dtype": "DT_FLOAT", "tensorShape": {"dim": [{"size": "320"}]}}}, "dtype": {"type": "DT_FLOAT"}}}, {"name": "StatefulPartitionedCall/model/zero_padding2d_5/Pad/paddings", "op": "Const", "attr": {"value": {"tensor": {"dtype": "DT_INT32", "tensorShape": {"dim": [{"size": "4"}, {"size": "2"}]}}}, "dtype": {"type": "DT_INT32"}}}, {"name": "StatefulPartitionedCall/model/depthwise_conv2d_5/depthwise/ReadVariableOp", "op": "Const", "attr": {"value": {"tensor": {"dtype": "DT_FLOAT", "tensorShape": {"dim": [{"size": "7"}, {"size": "7"}, {"size": "320"}, {"size": "1"}]}}}, "dtype": {"type": "DT_FLOAT"}}}, {"name": "StatefulPartitionedCall/model/depthwise_conv2d_5/BiasAdd/ReadVariableOp", "op": "Const", "attr": {"value": {"tensor": {"dtype": "DT_FLOAT", "tensorShape": {"dim": [{"size": "320"}]}}}, "dtype": {"type": "DT_FLOAT"}}}, {"name": "StatefulPartitionedCall/model/layer_normalization_5/moments/mean/reduction_indices", "op": "Const", "attr": {"value": {"tensor": {"dtype": "DT_INT32", "tensorShape": {"dim": [{"size": "1"}]}}}, "dtype": {"type": "DT_INT32"}}}, {"name": "StatefulPartitionedCall/model/layer_normalization_5/moments/variance/reduction_indices", "op": "Const", "attr": {"value": {"tensor": {"dtype": "DT_INT32", "tensorShape": {"dim": [{"size": "1"}]}}}, "dtype": {"type": "DT_INT32"}}}, {"name": "StatefulPartitionedCall/model/layer_normalization_5/batchnorm/add/y", "op": "Const", "attr": {"value": {"tensor": {"dtype": "DT_FLOAT", "tensorShape": {}}}, "dtype": {"type": "DT_FLOAT"}}}, {"name": "StatefulPartitionedCall/model/layer_normalization_5/batchnorm/mul/ReadVariableOp", "op": "Const", "attr": {"value": {"tensor": {"dtype": "DT_FLOAT", "tensorShape": {"dim": [{"size": "320"}]}}}, "dtype": {"type": "DT_FLOAT"}}}, {"name": "StatefulPartitionedCall/model/dense_10/Tensordot/Reshape/shape", "op": "Const", "attr": {"value": {"tensor": {"dtype": "DT_INT32", "tensorShape": {"dim": [{"size": "2"}]}}}, "dtype": {"type": "DT_INT32"}}}, {"name": "StatefulPartitionedCall/model/dense_10/Tensordot/ReadVariableOp", "op": "Const", "attr": {"value": {"tensor": {"dtype": "DT_FLOAT", "tensorShape": {"dim": [{"size": "320"}, {"size": "1280"}]}}}, "dtype": {"type": "DT_FLOAT"}}}, {"name": "StatefulPartitionedCall/model/dense_10/Tensordot/shape", "op": "Const", "attr": {"value": {"tensor": {"dtype": "DT_INT32", "tensorShape": {"dim": [{"size": "4"}]}}}, "dtype": {"type": "DT_INT32"}}}, {"name": "StatefulPartitionedCall/model/dense_10/BiasAdd/ReadVariableOp", "op": "Const", "attr": {"value": {"tensor": {"dtype": "DT_FLOAT", "tensorShape": {"dim": [{"size": "1280"}]}}}, "dtype": {"type": "DT_FLOAT"}}}, {"name": "StatefulPartitionedCall/model/dense_11/Tensordot/Reshape/shape", "op": "Const", "attr": {"value": {"tensor": {"dtype": "DT_INT32", "tensorShape": {"dim": [{"size": "2"}]}}}, "dtype": {"type": "DT_INT32"}}}, {"name": "StatefulPartitionedCall/model/dense_11/Tensordot/ReadVariableOp", "op": "Const", "attr": {"value": {"tensor": {"dtype": "DT_FLOAT", "tensorShape": {"dim": [{"size": "1280"}, {"size": "320"}]}}}, "dtype": {"type": "DT_FLOAT"}}}, {"name": "StatefulPartitionedCall/model/dense_11/Tensordot/shape", "op": "Const", "attr": {"value": {"tensor": {"dtype": "DT_INT32", "tensorShape": {"dim": [{"size": "4"}]}}}, "dtype": {"type": "DT_INT32"}}}, {"name": "StatefulPartitionedCall/model/dense_11/BiasAdd/ReadVariableOp", "op": "Const", "attr": {"value": {"tensor": {"dtype": "DT_FLOAT", "tensorShape": {"dim": [{"size": "320"}]}}}, "dtype": {"type": "DT_FLOAT"}}}, {"name": "StatefulPartitionedCall/model/zero_padding2d_6/Pad/paddings", "op": "Const", "attr": {"value": {"tensor": {"dtype": "DT_INT32", "tensorShape": {"dim": [{"size": "4"}, {"size": "2"}]}}}, "dtype": {"type": "DT_INT32"}}}, {"name": "StatefulPartitionedCall/model/depthwise_conv2d_6/depthwise/ReadVariableOp", "op": "Const", "attr": {"value": {"tensor": {"dtype": "DT_FLOAT", "tensorShape": {"dim": [{"size": "7"}, {"size": "7"}, {"size": "320"}, {"size": "1"}]}}}, "dtype": {"type": "DT_FLOAT"}}}, {"name": "StatefulPartitionedCall/model/depthwise_conv2d_6/BiasAdd/ReadVariableOp", "op": "Const", "attr": {"value": {"tensor": {"dtype": "DT_FLOAT", "tensorShape": {"dim": [{"size": "320"}]}}}, "dtype": {"type": "DT_FLOAT"}}}, {"name": "StatefulPartitionedCall/model/layer_normalization_6/moments/mean/reduction_indices", "op": "Const", "attr": {"value": {"tensor": {"dtype": "DT_INT32", "tensorShape": {"dim": [{"size": "1"}]}}}, "dtype": {"type": "DT_INT32"}}}, {"name": "StatefulPartitionedCall/model/layer_normalization_6/moments/variance/reduction_indices", "op": "Const", "attr": {"value": {"tensor": {"dtype": "DT_INT32", "tensorShape": {"dim": [{"size": "1"}]}}}, "dtype": {"type": "DT_INT32"}}}, {"name": "StatefulPartitionedCall/model/layer_normalization_6/batchnorm/add/y", "op": "Const", "attr": {"value": {"tensor": {"dtype": "DT_FLOAT", "tensorShape": {}}}, "dtype": {"type": "DT_FLOAT"}}}, {"name": "StatefulPartitionedCall/model/layer_normalization_6/batchnorm/mul/ReadVariableOp", "op": "Const", "attr": {"value": {"tensor": {"dtype": "DT_FLOAT", "tensorShape": {"dim": [{"size": "320"}]}}}, "dtype": {"type": "DT_FLOAT"}}}, {"name": "StatefulPartitionedCall/model/dense_12/Tensordot/Reshape/shape", "op": "Const", "attr": {"value": {"tensor": {"dtype": "DT_INT32", "tensorShape": {"dim": [{"size": "2"}]}}}, "dtype": {"type": "DT_INT32"}}}, {"name": "StatefulPartitionedCall/model/dense_12/Tensordot/ReadVariableOp", "op": "Const", "attr": {"value": {"tensor": {"dtype": "DT_FLOAT", "tensorShape": {"dim": [{"size": "320"}, {"size": "1280"}]}}}, "dtype": {"type": "DT_FLOAT"}}}, {"name": "StatefulPartitionedCall/model/dense_12/Tensordot/shape", "op": "Const", "attr": {"value": {"tensor": {"dtype": "DT_INT32", "tensorShape": {"dim": [{"size": "4"}]}}}, "dtype": {"type": "DT_INT32"}}}, {"name": "StatefulPartitionedCall/model/dense_12/BiasAdd/ReadVariableOp", "op": "Const", "attr": {"value": {"tensor": {"dtype": "DT_FLOAT", "tensorShape": {"dim": [{"size": "1280"}]}}}, "dtype": {"type": "DT_FLOAT"}}}, {"name": "StatefulPartitionedCall/model/dense_13/Tensordot/Reshape/shape", "op": "Const", "attr": {"value": {"tensor": {"dtype": "DT_INT32", "tensorShape": {"dim": [{"size": "2"}]}}}, "dtype": {"type": "DT_INT32"}}}, {"name": "StatefulPartitionedCall/model/dense_13/Tensordot/ReadVariableOp", "op": "Const", "attr": {"value": {"tensor": {"dtype": "DT_FLOAT", "tensorShape": {"dim": [{"size": "1280"}, {"size": "320"}]}}}, "dtype": {"type": "DT_FLOAT"}}}, {"name": "StatefulPartitionedCall/model/dense_13/Tensordot/shape", "op": "Const", "attr": {"value": {"tensor": {"dtype": "DT_INT32", "tensorShape": {"dim": [{"size": "4"}]}}}, "dtype": {"type": "DT_INT32"}}}, {"name": "StatefulPartitionedCall/model/dense_13/BiasAdd/ReadVariableOp", "op": "Const", "attr": {"value": {"tensor": {"dtype": "DT_FLOAT", "tensorShape": {"dim": [{"size": "320"}]}}}, "dtype": {"type": "DT_FLOAT"}}}, {"name": "StatefulPartitionedCall/model/zero_padding2d_7/Pad/paddings", "op": "Const", "attr": {"value": {"tensor": {"dtype": "DT_INT32", "tensorShape": {"dim": [{"size": "4"}, {"size": "2"}]}}}, "dtype": {"type": "DT_INT32"}}}, {"name": "StatefulPartitionedCall/model/depthwise_conv2d_7/depthwise/ReadVariableOp", "op": "Const", "attr": {"value": {"tensor": {"dtype": "DT_FLOAT", "tensorShape": {"dim": [{"size": "7"}, {"size": "7"}, {"size": "320"}, {"size": "1"}]}}}, "dtype": {"type": "DT_FLOAT"}}}, {"name": "StatefulPartitionedCall/model/depthwise_conv2d_7/BiasAdd/ReadVariableOp", "op": "Const", "attr": {"value": {"tensor": {"dtype": "DT_FLOAT", "tensorShape": {"dim": [{"size": "320"}]}}}, "dtype": {"type": "DT_FLOAT"}}}, {"name": "StatefulPartitionedCall/model/layer_normalization_7/moments/mean/reduction_indices", "op": "Const", "attr": {"value": {"tensor": {"dtype": "DT_INT32", "tensorShape": {"dim": [{"size": "1"}]}}}, "dtype": {"type": "DT_INT32"}}}, {"name": "StatefulPartitionedCall/model/layer_normalization_7/moments/variance/reduction_indices", "op": "Const", "attr": {"value": {"tensor": {"dtype": "DT_INT32", "tensorShape": {"dim": [{"size": "1"}]}}}, "dtype": {"type": "DT_INT32"}}}, {"name": "StatefulPartitionedCall/model/layer_normalization_7/batchnorm/add/y", "op": "Const", "attr": {"value": {"tensor": {"dtype": "DT_FLOAT", "tensorShape": {}}}, "dtype": {"type": "DT_FLOAT"}}}, {"name": "StatefulPartitionedCall/model/layer_normalization_7/batchnorm/mul/ReadVariableOp", "op": "Const", "attr": {"value": {"tensor": {"dtype": "DT_FLOAT", "tensorShape": {"dim": [{"size": "320"}]}}}, "dtype": {"type": "DT_FLOAT"}}}, {"name": "StatefulPartitionedCall/model/dense_14/Tensordot/Reshape/shape", "op": "Const", "attr": {"value": {"tensor": {"dtype": "DT_INT32", "tensorShape": {"dim": [{"size": "2"}]}}}, "dtype": {"type": "DT_INT32"}}}, {"name": "StatefulPartitionedCall/model/dense_14/Tensordot/ReadVariableOp", "op": "Const", "attr": {"value": {"tensor": {"dtype": "DT_FLOAT", "tensorShape": {"dim": [{"size": "320"}, {"size": "1280"}]}}}, "dtype": {"type": "DT_FLOAT"}}}, {"name": "StatefulPartitionedCall/model/dense_14/Tensordot/shape", "op": "Const", "attr": {"value": {"tensor": {"dtype": "DT_INT32", "tensorShape": {"dim": [{"size": "4"}]}}}, "dtype": {"type": "DT_INT32"}}}, {"name": "StatefulPartitionedCall/model/dense_14/BiasAdd/ReadVariableOp", "op": "Const", "attr": {"value": {"tensor": {"dtype": "DT_FLOAT", "tensorShape": {"dim": [{"size": "1280"}]}}}, "dtype": {"type": "DT_FLOAT"}}}, {"name": "StatefulPartitionedCall/model/dense_15/Tensordot/Reshape/shape", "op": "Const", "attr": {"value": {"tensor": {"dtype": "DT_INT32", "tensorShape": {"dim": [{"size": "2"}]}}}, "dtype": {"type": "DT_INT32"}}}, {"name": "StatefulPartitionedCall/model/dense_15/Tensordot/ReadVariableOp", "op": "Const", "attr": {"value": {"tensor": {"dtype": "DT_FLOAT", "tensorShape": {"dim": [{"size": "1280"}, {"size": "320"}]}}}, "dtype": {"type": "DT_FLOAT"}}}, {"name": "StatefulPartitionedCall/model/dense_15/Tensordot/shape", "op": "Const", "attr": {"value": {"tensor": {"dtype": "DT_INT32", "tensorShape": {"dim": [{"size": "4"}]}}}, "dtype": {"type": "DT_INT32"}}}, {"name": "StatefulPartitionedCall/model/dense_15/BiasAdd/ReadVariableOp", "op": "Const", "attr": {"value": {"tensor": {"dtype": "DT_FLOAT", "tensorShape": {"dim": [{"size": "320"}]}}}, "dtype": {"type": "DT_FLOAT"}}}, {"name": "StatefulPartitionedCall/model/zero_padding2d_8/Pad/paddings", "op": "Const", "attr": {"value": {"tensor": {"dtype": "DT_INT32", "tensorShape": {"dim": [{"size": "4"}, {"size": "2"}]}}}, "dtype": {"type": "DT_INT32"}}}, {"name": "StatefulPartitionedCall/model/depthwise_conv2d_8/depthwise/ReadVariableOp", "op": "Const", "attr": {"value": {"tensor": {"dtype": "DT_FLOAT", "tensorShape": {"dim": [{"size": "7"}, {"size": "7"}, {"size": "320"}, {"size": "1"}]}}}, "dtype": {"type": "DT_FLOAT"}}}, {"name": "StatefulPartitionedCall/model/depthwise_conv2d_8/BiasAdd/ReadVariableOp", "op": "Const", "attr": {"value": {"tensor": {"dtype": "DT_FLOAT", "tensorShape": {"dim": [{"size": "320"}]}}}, "dtype": {"type": "DT_FLOAT"}}}, {"name": "StatefulPartitionedCall/model/layer_normalization_8/moments/mean/reduction_indices", "op": "Const", "attr": {"value": {"tensor": {"dtype": "DT_INT32", "tensorShape": {"dim": [{"size": "1"}]}}}, "dtype": {"type": "DT_INT32"}}}, {"name": "StatefulPartitionedCall/model/layer_normalization_8/moments/variance/reduction_indices", "op": "Const", "attr": {"value": {"tensor": {"dtype": "DT_INT32", "tensorShape": {"dim": [{"size": "1"}]}}}, "dtype": {"type": "DT_INT32"}}}, {"name": "StatefulPartitionedCall/model/layer_normalization_8/batchnorm/add/y", "op": "Const", "attr": {"value": {"tensor": {"dtype": "DT_FLOAT", "tensorShape": {}}}, "dtype": {"type": "DT_FLOAT"}}}, {"name": "StatefulPartitionedCall/model/layer_normalization_8/batchnorm/mul/ReadVariableOp", "op": "Const", "attr": {"value": {"tensor": {"dtype": "DT_FLOAT", "tensorShape": {"dim": [{"size": "320"}]}}}, "dtype": {"type": "DT_FLOAT"}}}, {"name": "StatefulPartitionedCall/model/dense_16/Tensordot/Reshape/shape", "op": "Const", "attr": {"value": {"tensor": {"dtype": "DT_INT32", "tensorShape": {"dim": [{"size": "2"}]}}}, "dtype": {"type": "DT_INT32"}}}, {"name": "StatefulPartitionedCall/model/dense_16/Tensordot/ReadVariableOp", "op": "Const", "attr": {"value": {"tensor": {"dtype": "DT_FLOAT", "tensorShape": {"dim": [{"size": "320"}, {"size": "1280"}]}}}, "dtype": {"type": "DT_FLOAT"}}}, {"name": "StatefulPartitionedCall/model/dense_16/Tensordot/shape", "op": "Const", "attr": {"value": {"tensor": {"dtype": "DT_INT32", "tensorShape": {"dim": [{"size": "4"}]}}}, "dtype": {"type": "DT_INT32"}}}, {"name": "StatefulPartitionedCall/model/dense_16/BiasAdd/ReadVariableOp", "op": "Const", "attr": {"value": {"tensor": {"dtype": "DT_FLOAT", "tensorShape": {"dim": [{"size": "1280"}]}}}, "dtype": {"type": "DT_FLOAT"}}}, {"name": "StatefulPartitionedCall/model/dense_17/Tensordot/Reshape/shape", "op": "Const", "attr": {"value": {"tensor": {"dtype": "DT_INT32", "tensorShape": {"dim": [{"size": "2"}]}}}, "dtype": {"type": "DT_INT32"}}}, {"name": "StatefulPartitionedCall/model/dense_17/Tensordot/ReadVariableOp", "op": "Const", "attr": {"value": {"tensor": {"dtype": "DT_FLOAT", "tensorShape": {"dim": [{"size": "1280"}, {"size": "320"}]}}}, "dtype": {"type": "DT_FLOAT"}}}, {"name": "StatefulPartitionedCall/model/dense_17/Tensordot/shape", "op": "Const", "attr": {"value": {"tensor": {"dtype": "DT_INT32", "tensorShape": {"dim": [{"size": "4"}]}}}, "dtype": {"type": "DT_INT32"}}}, {"name": "StatefulPartitionedCall/model/dense_17/BiasAdd/ReadVariableOp", "op": "Const", "attr": {"value": {"tensor": {"dtype": "DT_FLOAT", "tensorShape": {"dim": [{"size": "320"}]}}}, "dtype": {"type": "DT_FLOAT"}}}, {"name": "StatefulPartitionedCall/model/zero_padding2d_9/Pad/paddings", "op": "Const", "attr": {"value": {"tensor": {"dtype": "DT_INT32", "tensorShape": {"dim": [{"size": "4"}, {"size": "2"}]}}}, "dtype": {"type": "DT_INT32"}}}, {"name": "StatefulPartitionedCall/model/depthwise_conv2d_9/depthwise/ReadVariableOp", "op": "Const", "attr": {"value": {"tensor": {"dtype": "DT_FLOAT", "tensorShape": {"dim": [{"size": "7"}, {"size": "7"}, {"size": "320"}, {"size": "1"}]}}}, "dtype": {"type": "DT_FLOAT"}}}, {"name": "StatefulPartitionedCall/model/depthwise_conv2d_9/BiasAdd/ReadVariableOp", "op": "Const", "attr": {"value": {"tensor": {"dtype": "DT_FLOAT", "tensorShape": {"dim": [{"size": "320"}]}}}, "dtype": {"type": "DT_FLOAT"}}}, {"name": "StatefulPartitionedCall/model/layer_normalization_9/moments/mean/reduction_indices", "op": "Const", "attr": {"value": {"tensor": {"dtype": "DT_INT32", "tensorShape": {"dim": [{"size": "1"}]}}}, "dtype": {"type": "DT_INT32"}}}, {"name": "StatefulPartitionedCall/model/layer_normalization_9/moments/variance/reduction_indices", "op": "Const", "attr": {"value": {"tensor": {"dtype": "DT_INT32", "tensorShape": {"dim": [{"size": "1"}]}}}, "dtype": {"type": "DT_INT32"}}}, {"name": "StatefulPartitionedCall/model/layer_normalization_9/batchnorm/add/y", "op": "Const", "attr": {"value": {"tensor": {"dtype": "DT_FLOAT", "tensorShape": {}}}, "dtype": {"type": "DT_FLOAT"}}}, {"name": "StatefulPartitionedCall/model/layer_normalization_9/batchnorm/mul/ReadVariableOp", "op": "Const", "attr": {"value": {"tensor": {"dtype": "DT_FLOAT", "tensorShape": {"dim": [{"size": "320"}]}}}, "dtype": {"type": "DT_FLOAT"}}}, {"name": "StatefulPartitionedCall/model/dense_18/Tensordot/Reshape/shape", "op": "Const", "attr": {"value": {"tensor": {"dtype": "DT_INT32", "tensorShape": {"dim": [{"size": "2"}]}}}, "dtype": {"type": "DT_INT32"}}}, {"name": "StatefulPartitionedCall/model/dense_18/Tensordot/ReadVariableOp", "op": "Const", "attr": {"value": {"tensor": {"dtype": "DT_FLOAT", "tensorShape": {"dim": [{"size": "320"}, {"size": "1280"}]}}}, "dtype": {"type": "DT_FLOAT"}}}, {"name": "StatefulPartitionedCall/model/dense_18/Tensordot/shape", "op": "Const", "attr": {"value": {"tensor": {"dtype": "DT_INT32", "tensorShape": {"dim": [{"size": "4"}]}}}, "dtype": {"type": "DT_INT32"}}}, {"name": "StatefulPartitionedCall/model/dense_18/BiasAdd/ReadVariableOp", "op": "Const", "attr": {"value": {"tensor": {"dtype": "DT_FLOAT", "tensorShape": {"dim": [{"size": "1280"}]}}}, "dtype": {"type": "DT_FLOAT"}}}, {"name": "StatefulPartitionedCall/model/dense_19/Tensordot/Reshape/shape", "op": "Const", "attr": {"value": {"tensor": {"dtype": "DT_INT32", "tensorShape": {"dim": [{"size": "2"}]}}}, "dtype": {"type": "DT_INT32"}}}, {"name": "StatefulPartitionedCall/model/dense_19/Tensordot/ReadVariableOp", "op": "Const", "attr": {"value": {"tensor": {"dtype": "DT_FLOAT", "tensorShape": {"dim": [{"size": "1280"}, {"size": "320"}]}}}, "dtype": {"type": "DT_FLOAT"}}}, {"name": "StatefulPartitionedCall/model/dense_19/Tensordot/shape", "op": "Const", "attr": {"value": {"tensor": {"dtype": "DT_INT32", "tensorShape": {"dim": [{"size": "4"}]}}}, "dtype": {"type": "DT_INT32"}}}, {"name": "StatefulPartitionedCall/model/dense_19/BiasAdd/ReadVariableOp", "op": "Const", "attr": {"value": {"tensor": {"dtype": "DT_FLOAT", "tensorShape": {"dim": [{"size": "320"}]}}}, "dtype": {"type": "DT_FLOAT"}}}, {"name": "StatefulPartitionedCall/model/zero_padding2d_10/Pad/paddings", "op": "Const", "attr": {"value": {"tensor": {"dtype": "DT_INT32", "tensorShape": {"dim": [{"size": "4"}, {"size": "2"}]}}}, "dtype": {"type": "DT_INT32"}}}, {"name": "StatefulPartitionedCall/model/depthwise_conv2d_10/depthwise/ReadVariableOp", "op": "Const", "attr": {"value": {"tensor": {"dtype": "DT_FLOAT", "tensorShape": {"dim": [{"size": "7"}, {"size": "7"}, {"size": "320"}, {"size": "1"}]}}}, "dtype": {"type": "DT_FLOAT"}}}, {"name": "StatefulPartitionedCall/model/depthwise_conv2d_10/BiasAdd/ReadVariableOp", "op": "Const", "attr": {"value": {"tensor": {"dtype": "DT_FLOAT", "tensorShape": {"dim": [{"size": "320"}]}}}, "dtype": {"type": "DT_FLOAT"}}}, {"name": "StatefulPartitionedCall/model/layer_normalization_10/moments/mean/reduction_indices", "op": "Const", "attr": {"value": {"tensor": {"dtype": "DT_INT32", "tensorShape": {"dim": [{"size": "1"}]}}}, "dtype": {"type": "DT_INT32"}}}, {"name": "StatefulPartitionedCall/model/layer_normalization_10/moments/variance/reduction_indices", "op": "Const", "attr": {"value": {"tensor": {"dtype": "DT_INT32", "tensorShape": {"dim": [{"size": "1"}]}}}, "dtype": {"type": "DT_INT32"}}}, {"name": "StatefulPartitionedCall/model/layer_normalization_10/batchnorm/add/y", "op": "Const", "attr": {"value": {"tensor": {"dtype": "DT_FLOAT", "tensorShape": {}}}, "dtype": {"type": "DT_FLOAT"}}}, {"name": "StatefulPartitionedCall/model/layer_normalization_10/batchnorm/mul/ReadVariableOp", "op": "Const", "attr": {"value": {"tensor": {"dtype": "DT_FLOAT", "tensorShape": {"dim": [{"size": "320"}]}}}, "dtype": {"type": "DT_FLOAT"}}}, {"name": "StatefulPartitionedCall/model/dense_20/Tensordot/Reshape/shape", "op": "Const", "attr": {"value": {"tensor": {"dtype": "DT_INT32", "tensorShape": {"dim": [{"size": "2"}]}}}, "dtype": {"type": "DT_INT32"}}}, {"name": "StatefulPartitionedCall/model/dense_20/Tensordot/ReadVariableOp", "op": "Const", "attr": {"value": {"tensor": {"dtype": "DT_FLOAT", "tensorShape": {"dim": [{"size": "320"}, {"size": "1280"}]}}}, "dtype": {"type": "DT_FLOAT"}}}, {"name": "StatefulPartitionedCall/model/dense_20/Tensordot/shape", "op": "Const", "attr": {"value": {"tensor": {"dtype": "DT_INT32", "tensorShape": {"dim": [{"size": "4"}]}}}, "dtype": {"type": "DT_INT32"}}}, {"name": "StatefulPartitionedCall/model/dense_20/BiasAdd/ReadVariableOp", "op": "Const", "attr": {"value": {"tensor": {"dtype": "DT_FLOAT", "tensorShape": {"dim": [{"size": "1280"}]}}}, "dtype": {"type": "DT_FLOAT"}}}, {"name": "StatefulPartitionedCall/model/dense_21/Tensordot/Reshape/shape", "op": "Const", "attr": {"value": {"tensor": {"dtype": "DT_INT32", "tensorShape": {"dim": [{"size": "2"}]}}}, "dtype": {"type": "DT_INT32"}}}, {"name": "StatefulPartitionedCall/model/dense_21/Tensordot/ReadVariableOp", "op": "Const", "attr": {"value": {"tensor": {"dtype": "DT_FLOAT", "tensorShape": {"dim": [{"size": "1280"}, {"size": "320"}]}}}, "dtype": {"type": "DT_FLOAT"}}}, {"name": "StatefulPartitionedCall/model/dense_21/Tensordot/shape", "op": "Const", "attr": {"value": {"tensor": {"dtype": "DT_INT32", "tensorShape": {"dim": [{"size": "4"}]}}}, "dtype": {"type": "DT_INT32"}}}, {"name": "StatefulPartitionedCall/model/dense_21/BiasAdd/ReadVariableOp", "op": "Const", "attr": {"value": {"tensor": {"dtype": "DT_FLOAT", "tensorShape": {"dim": [{"size": "320"}]}}}, "dtype": {"type": "DT_FLOAT"}}}, {"name": "StatefulPartitionedCall/model/zero_padding2d_11/Pad/paddings", "op": "Const", "attr": {"value": {"tensor": {"dtype": "DT_INT32", "tensorShape": {"dim": [{"size": "4"}, {"size": "2"}]}}}, "dtype": {"type": "DT_INT32"}}}, {"name": "StatefulPartitionedCall/model/depthwise_conv2d_11/depthwise/ReadVariableOp", "op": "Const", "attr": {"value": {"tensor": {"dtype": "DT_FLOAT", "tensorShape": {"dim": [{"size": "7"}, {"size": "7"}, {"size": "320"}, {"size": "1"}]}}}, "dtype": {"type": "DT_FLOAT"}}}, {"name": "StatefulPartitionedCall/model/depthwise_conv2d_11/BiasAdd/ReadVariableOp", "op": "Const", "attr": {"value": {"tensor": {"dtype": "DT_FLOAT", "tensorShape": {"dim": [{"size": "320"}]}}}, "dtype": {"type": "DT_FLOAT"}}}, {"name": "StatefulPartitionedCall/model/layer_normalization_11/moments/mean/reduction_indices", "op": "Const", "attr": {"value": {"tensor": {"dtype": "DT_INT32", "tensorShape": {"dim": [{"size": "1"}]}}}, "dtype": {"type": "DT_INT32"}}}, {"name": "StatefulPartitionedCall/model/layer_normalization_11/moments/variance/reduction_indices", "op": "Const", "attr": {"value": {"tensor": {"dtype": "DT_INT32", "tensorShape": {"dim": [{"size": "1"}]}}}, "dtype": {"type": "DT_INT32"}}}, {"name": "StatefulPartitionedCall/model/layer_normalization_11/batchnorm/add/y", "op": "Const", "attr": {"value": {"tensor": {"dtype": "DT_FLOAT", "tensorShape": {}}}, "dtype": {"type": "DT_FLOAT"}}}, {"name": "StatefulPartitionedCall/model/layer_normalization_11/batchnorm/mul/ReadVariableOp", "op": "Const", "attr": {"value": {"tensor": {"dtype": "DT_FLOAT", "tensorShape": {"dim": [{"size": "320"}]}}}, "dtype": {"type": "DT_FLOAT"}}}, {"name": "StatefulPartitionedCall/model/dense_22/Tensordot/Reshape/shape", "op": "Const", "attr": {"value": {"tensor": {"dtype": "DT_INT32", "tensorShape": {"dim": [{"size": "2"}]}}}, "dtype": {"type": "DT_INT32"}}}, {"name": "StatefulPartitionedCall/model/dense_22/Tensordot/ReadVariableOp", "op": "Const", "attr": {"value": {"tensor": {"dtype": "DT_FLOAT", "tensorShape": {"dim": [{"size": "320"}, {"size": "1280"}]}}}, "dtype": {"type": "DT_FLOAT"}}}, {"name": "StatefulPartitionedCall/model/dense_22/Tensordot/shape", "op": "Const", "attr": {"value": {"tensor": {"dtype": "DT_INT32", "tensorShape": {"dim": [{"size": "4"}]}}}, "dtype": {"type": "DT_INT32"}}}, {"name": "StatefulPartitionedCall/model/dense_22/BiasAdd/ReadVariableOp", "op": "Const", "attr": {"value": {"tensor": {"dtype": "DT_FLOAT", "tensorShape": {"dim": [{"size": "1280"}]}}}, "dtype": {"type": "DT_FLOAT"}}}, {"name": "StatefulPartitionedCall/model/dense_23/Tensordot/Reshape/shape", "op": "Const", "attr": {"value": {"tensor": {"dtype": "DT_INT32", "tensorShape": {"dim": [{"size": "2"}]}}}, "dtype": {"type": "DT_INT32"}}}, {"name": "StatefulPartitionedCall/model/dense_23/Tensordot/ReadVariableOp", "op": "Const", "attr": {"value": {"tensor": {"dtype": "DT_FLOAT", "tensorShape": {"dim": [{"size": "1280"}, {"size": "320"}]}}}, "dtype": {"type": "DT_FLOAT"}}}, {"name": "StatefulPartitionedCall/model/dense_23/Tensordot/shape", "op": "Const", "attr": {"value": {"tensor": {"dtype": "DT_INT32", "tensorShape": {"dim": [{"size": "4"}]}}}, "dtype": {"type": "DT_INT32"}}}, {"name": "StatefulPartitionedCall/model/dense_23/BiasAdd/ReadVariableOp", "op": "Const", "attr": {"value": {"tensor": {"dtype": "DT_FLOAT", "tensorShape": {"dim": [{"size": "320"}]}}}, "dtype": {"type": "DT_FLOAT"}}}, {"name": "StatefulPartitionedCall/model/tf.compat.v1.transpose_8/transpose/perm", "op": "Const", "attr": {"value": {"tensor": {"dtype": "DT_INT32", "tensorShape": {"dim": [{"size": "4"}]}}}, "dtype": {"type": "DT_INT32"}}}, {"name": "StatefulPartitionedCall/model/conv2d_3/Conv2D/ReadVariableOp", "op": "Const", "attr": {"value": {"tensor": {"dtype": "DT_FLOAT", "tensorShape": {"dim": [{"size": "2"}, {"size": "2"}, {"size": "320"}, {"size": "640"}]}}}, "dtype": {"type": "DT_FLOAT"}}}, {"name": "StatefulPartitionedCall/model/conv2d_3/BiasAdd/ReadVariableOp", "op": "Const", "attr": {"value": {"tensor": {"dtype": "DT_FLOAT", "tensorShape": {"dim": [{"size": "640"}]}}}, "dtype": {"type": "DT_FLOAT"}}}, {"name": "StatefulPartitionedCall/model/zero_padding2d_12/Pad/paddings", "op": "Const", "attr": {"value": {"tensor": {"dtype": "DT_INT32", "tensorShape": {"dim": [{"size": "4"}, {"size": "2"}]}}}, "dtype": {"type": "DT_INT32"}}}, {"name": "StatefulPartitionedCall/model/depthwise_conv2d_12/depthwise/ReadVariableOp", "op": "Const", "attr": {"value": {"tensor": {"dtype": "DT_FLOAT", "tensorShape": {"dim": [{"size": "7"}, {"size": "7"}, {"size": "640"}, {"size": "1"}]}}}, "dtype": {"type": "DT_FLOAT"}}}, {"name": "StatefulPartitionedCall/model/depthwise_conv2d_12/BiasAdd/ReadVariableOp", "op": "Const", "attr": {"value": {"tensor": {"dtype": "DT_FLOAT", "tensorShape": {"dim": [{"size": "640"}]}}}, "dtype": {"type": "DT_FLOAT"}}}, {"name": "StatefulPartitionedCall/model/layer_normalization_12/moments/mean/reduction_indices", "op": "Const", "attr": {"value": {"tensor": {"dtype": "DT_INT32", "tensorShape": {"dim": [{"size": "1"}]}}}, "dtype": {"type": "DT_INT32"}}}, {"name": "StatefulPartitionedCall/model/layer_normalization_12/moments/variance/reduction_indices", "op": "Const", "attr": {"value": {"tensor": {"dtype": "DT_INT32", "tensorShape": {"dim": [{"size": "1"}]}}}, "dtype": {"type": "DT_INT32"}}}, {"name": "StatefulPartitionedCall/model/layer_normalization_12/batchnorm/add/y", "op": "Const", "attr": {"value": {"tensor": {"dtype": "DT_FLOAT", "tensorShape": {}}}, "dtype": {"type": "DT_FLOAT"}}}, {"name": "StatefulPartitionedCall/model/layer_normalization_12/batchnorm/mul/ReadVariableOp", "op": "Const", "attr": {"value": {"tensor": {"dtype": "DT_FLOAT", "tensorShape": {"dim": [{"size": "640"}]}}}, "dtype": {"type": "DT_FLOAT"}}}, {"name": "StatefulPartitionedCall/model/dense_24/Tensordot/Reshape/shape", "op": "Const", "attr": {"value": {"tensor": {"dtype": "DT_INT32", "tensorShape": {"dim": [{"size": "2"}]}}}, "dtype": {"type": "DT_INT32"}}}, {"name": "StatefulPartitionedCall/model/dense_24/Tensordot/ReadVariableOp", "op": "Const", "attr": {"value": {"tensor": {"dtype": "DT_FLOAT", "tensorShape": {"dim": [{"size": "640"}, {"size": "2560"}]}}}, "dtype": {"type": "DT_FLOAT"}}}, {"name": "StatefulPartitionedCall/model/dense_24/Tensordot/shape", "op": "Const", "attr": {"value": {"tensor": {"dtype": "DT_INT32", "tensorShape": {"dim": [{"size": "4"}]}}}, "dtype": {"type": "DT_INT32"}}}, {"name": "StatefulPartitionedCall/model/dense_24/BiasAdd/ReadVariableOp", "op": "Const", "attr": {"value": {"tensor": {"dtype": "DT_FLOAT", "tensorShape": {"dim": [{"size": "2560"}]}}}, "dtype": {"type": "DT_FLOAT"}}}, {"name": "StatefulPartitionedCall/model/dense_25/Tensordot/Reshape/shape", "op": "Const", "attr": {"value": {"tensor": {"dtype": "DT_INT32", "tensorShape": {"dim": [{"size": "2"}]}}}, "dtype": {"type": "DT_INT32"}}}, {"name": "StatefulPartitionedCall/model/dense_25/Tensordot/ReadVariableOp", "op": "Const", "attr": {"value": {"tensor": {"dtype": "DT_FLOAT", "tensorShape": {"dim": [{"size": "2560"}, {"size": "640"}]}}}, "dtype": {"type": "DT_FLOAT"}}}, {"name": "StatefulPartitionedCall/model/dense_25/Tensordot/shape", "op": "Const", "attr": {"value": {"tensor": {"dtype": "DT_INT32", "tensorShape": {"dim": [{"size": "4"}]}}}, "dtype": {"type": "DT_INT32"}}}, {"name": "StatefulPartitionedCall/model/dense_25/BiasAdd/ReadVariableOp", "op": "Const", "attr": {"value": {"tensor": {"dtype": "DT_FLOAT", "tensorShape": {"dim": [{"size": "640"}]}}}, "dtype": {"type": "DT_FLOAT"}}}, {"name": "StatefulPartitionedCall/model/zero_padding2d_13/Pad/paddings", "op": "Const", "attr": {"value": {"tensor": {"dtype": "DT_INT32", "tensorShape": {"dim": [{"size": "4"}, {"size": "2"}]}}}, "dtype": {"type": "DT_INT32"}}}, {"name": "StatefulPartitionedCall/model/depthwise_conv2d_13/depthwise/ReadVariableOp", "op": "Const", "attr": {"value": {"tensor": {"dtype": "DT_FLOAT", "tensorShape": {"dim": [{"size": "7"}, {"size": "7"}, {"size": "640"}, {"size": "1"}]}}}, "dtype": {"type": "DT_FLOAT"}}}, {"name": "StatefulPartitionedCall/model/depthwise_conv2d_13/BiasAdd/ReadVariableOp", "op": "Const", "attr": {"value": {"tensor": {"dtype": "DT_FLOAT", "tensorShape": {"dim": [{"size": "640"}]}}}, "dtype": {"type": "DT_FLOAT"}}}, {"name": "StatefulPartitionedCall/model/layer_normalization_13/moments/mean/reduction_indices", "op": "Const", "attr": {"value": {"tensor": {"dtype": "DT_INT32", "tensorShape": {"dim": [{"size": "1"}]}}}, "dtype": {"type": "DT_INT32"}}}, {"name": "StatefulPartitionedCall/model/layer_normalization_13/moments/variance/reduction_indices", "op": "Const", "attr": {"value": {"tensor": {"dtype": "DT_INT32", "tensorShape": {"dim": [{"size": "1"}]}}}, "dtype": {"type": "DT_INT32"}}}, {"name": "StatefulPartitionedCall/model/layer_normalization_13/batchnorm/add/y", "op": "Const", "attr": {"value": {"tensor": {"dtype": "DT_FLOAT", "tensorShape": {}}}, "dtype": {"type": "DT_FLOAT"}}}, {"name": "StatefulPartitionedCall/model/layer_normalization_13/batchnorm/mul/ReadVariableOp", "op": "Const", "attr": {"value": {"tensor": {"dtype": "DT_FLOAT", "tensorShape": {"dim": [{"size": "640"}]}}}, "dtype": {"type": "DT_FLOAT"}}}, {"name": "StatefulPartitionedCall/model/dense_26/Tensordot/Reshape/shape", "op": "Const", "attr": {"value": {"tensor": {"dtype": "DT_INT32", "tensorShape": {"dim": [{"size": "2"}]}}}, "dtype": {"type": "DT_INT32"}}}, {"name": "StatefulPartitionedCall/model/dense_26/Tensordot/ReadVariableOp", "op": "Const", "attr": {"value": {"tensor": {"dtype": "DT_FLOAT", "tensorShape": {"dim": [{"size": "640"}, {"size": "2560"}]}}}, "dtype": {"type": "DT_FLOAT"}}}, {"name": "StatefulPartitionedCall/model/dense_26/Tensordot/shape", "op": "Const", "attr": {"value": {"tensor": {"dtype": "DT_INT32", "tensorShape": {"dim": [{"size": "4"}]}}}, "dtype": {"type": "DT_INT32"}}}, {"name": "StatefulPartitionedCall/model/dense_26/BiasAdd/ReadVariableOp", "op": "Const", "attr": {"value": {"tensor": {"dtype": "DT_FLOAT", "tensorShape": {"dim": [{"size": "2560"}]}}}, "dtype": {"type": "DT_FLOAT"}}}, {"name": "StatefulPartitionedCall/model/dense_27/Tensordot/Reshape/shape", "op": "Const", "attr": {"value": {"tensor": {"dtype": "DT_INT32", "tensorShape": {"dim": [{"size": "2"}]}}}, "dtype": {"type": "DT_INT32"}}}, {"name": "StatefulPartitionedCall/model/dense_27/Tensordot/ReadVariableOp", "op": "Const", "attr": {"value": {"tensor": {"dtype": "DT_FLOAT", "tensorShape": {"dim": [{"size": "2560"}, {"size": "640"}]}}}, "dtype": {"type": "DT_FLOAT"}}}, {"name": "StatefulPartitionedCall/model/dense_27/Tensordot/shape", "op": "Const", "attr": {"value": {"tensor": {"dtype": "DT_INT32", "tensorShape": {"dim": [{"size": "4"}]}}}, "dtype": {"type": "DT_INT32"}}}, {"name": "StatefulPartitionedCall/model/dense_27/BiasAdd/ReadVariableOp", "op": "Const", "attr": {"value": {"tensor": {"dtype": "DT_FLOAT", "tensorShape": {"dim": [{"size": "640"}]}}}, "dtype": {"type": "DT_FLOAT"}}}, {"name": "StatefulPartitionedCall/model/conv2d_4/Conv2D/ReadVariableOp", "op": "Const", "attr": {"value": {"tensor": {"dtype": "DT_FLOAT", "tensorShape": {"dim": [{"size": "1"}, {"size": "1"}, {"size": "640"}, {"size": "32"}]}}}, "dtype": {"type": "DT_FLOAT"}}}, {"name": "StatefulPartitionedCall/model/conv2d_4/BiasAdd/ReadVariableOp", "op": "Const", "attr": {"value": {"tensor": {"dtype": "DT_FLOAT", "tensorShape": {"dim": [{"size": "32"}]}}}, "dtype": {"type": "DT_FLOAT"}}}, {"name": "StatefulPartitionedCall/model/tf.reshape/Reshape/shape", "op": "Const", "attr": {"value": {"tensor": {"dtype": "DT_INT32", "tensorShape": {"dim": [{"size": "2"}]}}}, "dtype": {"type": "DT_INT32"}}}, {"name": "StatefulPartitionedCall/model/dense_28/MatMul/ReadVariableOp", "op": "Const", "attr": {"value": {"tensor": {"dtype": "DT_FLOAT", "tensorShape": {"dim": [{"size": "768"}, {"size": "768"}]}}}, "dtype": {"type": "DT_FLOAT"}}}, {"name": "StatefulPartitionedCall/model/dense_28/BiasAdd/ReadVariableOp", "op": "Const", "attr": {"value": {"tensor": {"dtype": "DT_FLOAT", "tensorShape": {"dim": [{"size": "768"}]}}}, "dtype": {"type": "DT_FLOAT"}}}, {"name": "args_0", "op": "Placeholder", "attr": {"shape": {"shape": {"dim": [{"size": "1"}, {"size": "192"}, {"size": "128"}, {"size": "3"}]}}, "dtype": {"type": "DT_FLOAT"}}}, {"name": "StatefulPartitionedCall/model/tf.math.multiply/Mul", "op": "Mul", "input": ["args_0", "unknown"], "attr": {"T": {"type": "DT_FLOAT"}}}, {"name": "StatefulPartitionedCall/model/tf.math.subtract/Sub", "op": "Sub", "input": ["StatefulPartitionedCall/model/tf.math.multiply/Mul", "unknown_0"], "attr": {"T": {"type": "DT_FLOAT"}}}, {"name": "StatefulPartitionedCall/model/conv2d/Conv2D", "op": "Conv2D", "input": ["StatefulPartitionedCall/model/tf.math.subtract/Sub", "StatefulPartitionedCall/model/conv2d/Conv2D/ReadVariableOp"], "device": "/device:CPU:0", "attr": {"padding": {"s": "VkFMSUQ="}, "data_format": {"s": "TkhXQw=="}, "use_cudnn_on_gpu": {"b": true}, "strides": {"list": {"i": ["1", "4", "4", "1"]}}, "T": {"type": "DT_FLOAT"}, "explicit_paddings": {"list": {}}, "dilations": {"list": {"i": ["1", "1", "1", "1"]}}}}, {"name": "StatefulPartitionedCall/model/conv2d/BiasAdd", "op": "BiasAdd", "input": ["StatefulPartitionedCall/model/conv2d/Conv2D", "StatefulPartitionedCall/model/conv2d/BiasAdd/ReadVariableOp"], "attr": {"_has_manual_control_dependencies": {"b": true}, "T": {"type": "DT_FLOAT"}, "data_format": {"s": "TkhXQw=="}}}, {"name": "StatefulPartitionedCall/model/tf.math.reduce_mean/Mean", "op": "Mean", "input": ["StatefulPartitionedCall/model/conv2d/BiasAdd", "StatefulPartitionedCall/model/tf.math.reduce_mean/Mean/reduction_indices"], "attr": {"Tidx": {"type": "DT_INT32"}, "T": {"type": "DT_FLOAT"}, "keep_dims": {"b": true}}}, {"name": "StatefulPartitionedCall/model/weight_layer/StatefulPartitionedCall/Identity", "op": "Const", "input": ["^StatefulPartitionedCall/model/conv2d/BiasAdd"], "attr": {"value": {"tensor": {"dtype": "DT_FLOAT", "tensorShape": {"dim": [{"size": "80"}, {"size": "1"}, {"size": "1"}]}}}, "dtype": {"type": "DT_FLOAT"}}}, {"name": "StatefulPartitionedCall/model/weight_layer_1/StatefulPartitionedCall/Identity", "op": "Const", "input": ["^StatefulPartitionedCall/model/conv2d/BiasAdd"], "attr": {"value": {"tensor": {"dtype": "DT_FLOAT", "tensorShape": {"dim": [{"size": "80"}, {"size": "1"}, {"size": "1"}]}}}, "dtype": {"type": "DT_FLOAT"}}}, {"name": "StatefulPartitionedCall/model/tf.math.subtract_2/Sub", "op": "Sub", "input": ["StatefulPartitionedCall/model/conv2d/BiasAdd", "StatefulPartitionedCall/model/tf.math.reduce_mean/Mean"], "attr": {"T": {"type": "DT_FLOAT"}}}, {"name": "StatefulPartitionedCall/model/tf.math.subtract_1/Sub", "op": "SquaredDifference", "input": ["StatefulPartitionedCall/model/conv2d/BiasAdd", "StatefulPartitionedCall/model/tf.math.reduce_mean/Mean"], "attr": {"T": {"type": "DT_FLOAT"}}}, {"name": "StatefulPartitionedCall/model/tf.math.reduce_mean_1/Mean", "op": "Mean", "input": ["StatefulPartitionedCall/model/tf.math.subtract_1/Sub", "StatefulPartitionedCall/model/tf.math.reduce_mean_1/Mean/reduction_indices"], "attr": {"Tidx": {"type": "DT_INT32"}, "T": {"type": "DT_FLOAT"}, "keep_dims": {"b": true}}}, {"name": "StatefulPartitionedCall/model/tf.math.add/Add", "op": "AddV2", "input": ["StatefulPartitionedCall/model/tf.math.reduce_mean_1/Mean", "unknown_4"], "attr": {"T": {"type": "DT_FLOAT"}}}, {"name": "StatefulPartitionedCall/model/tf.math.sqrt/Sqrt", "op": "Rsqrt", "input": ["StatefulPartitionedCall/model/tf.math.add/Add"], "attr": {"T": {"type": "DT_FLOAT"}}}, {"name": "StatefulPartitionedCall/model/tf.math.truediv/truediv", "op": "Mul", "input": ["StatefulPartitionedCall/model/tf.math.subtract_2/Sub", "StatefulPartitionedCall/model/tf.math.sqrt/Sqrt"], "attr": {"T": {"type": "DT_FLOAT"}}}, {"name": "StatefulPartitionedCall/model/tf.compat.v1.transpose/transpose", "op": "Transpose", "input": ["StatefulPartitionedCall/model/tf.math.truediv/truediv", "StatefulPartitionedCall/model/tf.compat.v1.transpose/transpose/perm"], "attr": {"Tperm": {"type": "DT_INT32"}, "T": {"type": "DT_FLOAT"}}}, {"name": "StatefulPartitionedCall/model/tf.math.multiply_1/Mul", "op": "Mul", "input": ["StatefulPartitionedCall/model/weight_layer/StatefulPartitionedCall/Identity", "StatefulPartitionedCall/model/tf.compat.v1.transpose/transpose"], "attr": {"T": {"type": "DT_FLOAT"}}}, {"name": "StatefulPartitionedCall/model/tf.__operators__.add/Add", "op": "AddV2", "input": ["StatefulPartitionedCall/model/tf.math.multiply_1/Mul", "StatefulPartitionedCall/model/weight_layer_1/StatefulPartitionedCall/Identity"], "attr": {"T": {"type": "DT_FLOAT"}}}, {"name": "StatefulPartitionedCall/model/tf.compat.v1.transpose_2/transpose", "op": "Transpose", "input": ["StatefulPartitionedCall/model/tf.__operators__.add/Add", "StatefulPartitionedCall/model/tf.compat.v1.transpose_2/transpose/perm"], "attr": {"Tperm": {"type": "DT_INT32"}, "T": {"type": "DT_FLOAT"}}}, {"name": "StatefulPartitionedCall/model/tf.compat.v1.transpose_1/transpose", "op": "Transpose", "input": ["StatefulPartitionedCall/model/tf.__operators__.add/Add", "StatefulPartitionedCall/model/tf.compat.v1.transpose_1/transpose/perm"], "attr": {"Tperm": {"type": "DT_INT32"}, "T": {"type": "DT_FLOAT"}}}, {"name": "StatefulPartitionedCall/model/zero_padding2d/Pad", "op": "Pad", "input": ["StatefulPartitionedCall/model/tf.compat.v1.transpose_1/transpose", "StatefulPartitionedCall/model/zero_padding2d/Pad/paddings"], "attr": {"Tpaddings": {"type": "DT_INT32"}, "T": {"type": "DT_FLOAT"}}}, {"name": "StatefulPartitionedCall/model/depthwise_conv2d/depthwise", "op": "FusedDepthwiseConv2dNative", "input": ["StatefulPartitionedCall/model/zero_padding2d/Pad", "StatefulPartitionedCall/model/depthwise_conv2d/depthwise/ReadVariableOp", "StatefulPartitionedCall/model/depthwise_conv2d/BiasAdd/ReadVariableOp"], "attr": {"padding": {"s": "VkFMSUQ="}, "data_format": {"s": "TkhXQw=="}, "strides": {"list": {"i": ["1", "1", "1", "1"]}}, "num_args": {"i": "1"}, "fused_ops": {"list": {"s": ["Qmlhc0FkZA=="]}}, "T": {"type": "DT_FLOAT"}, "explicit_paddings": {"list": {}}, "dilations": {"list": {"i": ["1", "1", "1", "1"]}}}}, {"name": "StatefulPartitionedCall/model/layer_normalization/moments/mean", "op": "Mean", "input": ["StatefulPartitionedCall/model/depthwise_conv2d/depthwise", "StatefulPartitionedCall/model/layer_normalization/moments/mean/reduction_indices"], "attr": {"Tidx": {"type": "DT_INT32"}, "T": {"type": "DT_FLOAT"}, "keep_dims": {"b": true}}}, {"name": "StatefulPartitionedCall/model/layer_normalization/moments/SquaredDifference", "op": "SquaredDifference", "input": ["StatefulPartitionedCall/model/depthwise_conv2d/depthwise", "StatefulPartitionedCall/model/layer_normalization/moments/mean"], "attr": {"T": {"type": "DT_FLOAT"}}}, {"name": "StatefulPartitionedCall/model/layer_normalization/moments/variance", "op": "Mean", "input": ["StatefulPartitionedCall/model/layer_normalization/moments/SquaredDifference", "StatefulPartitionedCall/model/layer_normalization/moments/variance/reduction_indices"], "attr": {"Tidx": {"type": "DT_INT32"}, "T": {"type": "DT_FLOAT"}, "keep_dims": {"b": true}}}, {"name": "StatefulPartitionedCall/model/layer_normalization/batchnorm/add", "op": "AddV2", "input": ["StatefulPartitionedCall/model/layer_normalization/moments/variance", "StatefulPartitionedCall/model/layer_normalization/batchnorm/add/y"], "attr": {"T": {"type": "DT_FLOAT"}}}, {"name": "StatefulPartitionedCall/model/layer_normalization/batchnorm/Rsqrt", "op": "Rsqrt", "input": ["StatefulPartitionedCall/model/layer_normalization/batchnorm/add"], "attr": {"T": {"type": "DT_FLOAT"}}}, {"name": "StatefulPartitionedCall/model/layer_normalization/batchnorm/mul", "op": "Mul", "input": ["StatefulPartitionedCall/model/layer_normalization/batchnorm/Rsqrt", "StatefulPartitionedCall/model/layer_normalization/batchnorm/mul/ReadVariableOp"], "attr": {"T": {"type": "DT_FLOAT"}}}, {"name": "StatefulPartitionedCall/model/layer_normalization/batchnorm/mul_2", "op": "Mul", "input": ["StatefulPartitionedCall/model/layer_normalization/moments/mean", "StatefulPartitionedCall/model/layer_normalization/batchnorm/mul"], "attr": {"T": {"type": "DT_FLOAT"}}}, {"name": "StatefulPartitionedCall/model/layer_normalization/batchnorm/mul_1", "op": "Mul", "input": ["StatefulPartitionedCall/model/depthwise_conv2d/depthwise", "StatefulPartitionedCall/model/layer_normalization/batchnorm/mul"], "attr": {"T": {"type": "DT_FLOAT"}}}, {"name": "StatefulPartitionedCall/model/layer_normalization/batchnorm/sub", "op": "Sub", "input": ["StatefulPartitionedCall/model/layer_normalization/batchnorm/ReadVariableOp", "StatefulPartitionedCall/model/layer_normalization/batchnorm/mul_2"], "attr": {"T": {"type": "DT_FLOAT"}}}, {"name": "StatefulPartitionedCall/model/layer_normalization/batchnorm/add_1", "op": "AddV2", "input": ["StatefulPartitionedCall/model/layer_normalization/batchnorm/mul_1", "StatefulPartitionedCall/model/layer_normalization/batchnorm/sub"], "attr": {"T": {"type": "DT_FLOAT"}}}, {"name": "StatefulPartitionedCall/model/dense/Tensordot/Reshape", "op": "Reshape", "input": ["StatefulPartitionedCall/model/layer_normalization/batchnorm/add_1", "StatefulPartitionedCall/model/dense/Tensordot/Reshape/shape"], "attr": {"T": {"type": "DT_FLOAT"}, "Tshape": {"type": "DT_INT32"}}}, {"name": "StatefulPartitionedCall/model/dense/Tensordot/MatMul", "op": "MatMul", "input": ["StatefulPartitionedCall/model/dense/Tensordot/Reshape", "StatefulPartitionedCall/model/dense/Tensordot/ReadVariableOp"], "device": "/device:CPU:0", "attr": {"transpose_a": {"b": false}, "T": {"type": "DT_FLOAT"}, "transpose_b": {"b": false}}}, {"name": "StatefulPartitionedCall/model/dense/Tensordot", "op": "Reshape", "input": ["StatefulPartitionedCall/model/dense/Tensordot/MatMul", "StatefulPartitionedCall/model/dense/Tensordot/shape"], "attr": {"T": {"type": "DT_FLOAT"}, "Tshape": {"type": "DT_INT32"}}}, {"name": "StatefulPartitionedCall/model/dense/BiasAdd", "op": "BiasAdd", "input": ["StatefulPartitionedCall/model/dense/Tensordot", "StatefulPartitionedCall/model/dense/BiasAdd/ReadVariableOp"], "attr": {"data_format": {"s": "TkhXQw=="}, "T": {"type": "DT_FLOAT"}}}, {"name": "StatefulPartitionedCall/model/tf.math.softplus/Softplus", "op": "Softplus", "input": ["StatefulPartitionedCall/model/dense/BiasAdd"], "attr": {"T": {"type": "DT_FLOAT"}}}, {"name": "StatefulPartitionedCall/model/tf.math.tanh/Tanh", "op": "Tanh", "input": ["StatefulPartitionedCall/model/tf.math.softplus/Softplus"], "attr": {"T": {"type": "DT_FLOAT"}}}, {"name": "StatefulPartitionedCall/model/tf.math.multiply_2/Mul", "op": "Mul", "input": ["StatefulPartitionedCall/model/dense/BiasAdd", "StatefulPartitionedCall/model/tf.math.tanh/Tanh"], "attr": {"_has_manual_control_dependencies": {"b": true}, "T": {"type": "DT_FLOAT"}}}, {"name": "StatefulPartitionedCall/model/tf.compat.v1.norm/norm/ArithmeticOptimizer/ReplaceMulWithSquare_mul", "op": "Square", "input": ["StatefulPartitionedCall/model/tf.math.multiply_2/Mul"], "attr": {"T": {"type": "DT_FLOAT"}}}, {"name": "StatefulPartitionedCall/model/weight_layer_5/StatefulPartitionedCall/Identity", "op": "Const", "input": ["^StatefulPartitionedCall/model/tf.math.multiply_2/Mul"], "attr": {"value": {"tensor": {"dtype": "DT_FLOAT", "tensorShape": {"dim": [{"size": "1"}, {"size": "1"}, {"size": "1"}, {"size": "320"}]}}}, "dtype": {"type": "DT_FLOAT"}}}, {"name": "StatefulPartitionedCall/model/weight_layer_4/StatefulPartitionedCall/Identity", "op": "Const", "input": ["^StatefulPartitionedCall/model/tf.math.multiply_2/Mul"], "attr": {"value": {"tensor": {"dtype": "DT_FLOAT", "tensorShape": {"dim": [{"size": "1"}, {"size": "1"}, {"size": "1"}, {"size": "320"}]}}}, "dtype": {"type": "DT_FLOAT"}}}, {"name": "StatefulPartitionedCall/model/tf.compat.v1.norm/norm/Sum", "op": "Sum", "input": ["StatefulPartitionedCall/model/tf.compat.v1.norm/norm/ArithmeticOptimizer/ReplaceMulWithSquare_mul", "StatefulPartitionedCall/model/tf.compat.v1.norm/norm/Sum/reduction_indices"], "attr": {"Tidx": {"type": "DT_INT32"}, "T": {"type": "DT_FLOAT"}, "keep_dims": {"b": true}}}, {"name": "StatefulPartitionedCall/model/tf.compat.v1.norm/norm/Sqrt", "op": "Sqrt", "input": ["StatefulPartitionedCall/model/tf.compat.v1.norm/norm/Sum"], "attr": {"T": {"type": "DT_FLOAT"}}}, {"name": "StatefulPartitionedCall/model/tf.math.reduce_mean_2/Mean", "op": "Mean", "input": ["StatefulPartitionedCall/model/tf.compat.v1.norm/norm/Sqrt", "StatefulPartitionedCall/model/tf.math.reduce_mean_2/Mean/reduction_indices"], "attr": {"Tidx": {"type": "DT_INT32"}, "T": {"type": "DT_FLOAT"}, "keep_dims": {"b": true}}}, {"name": "StatefulPartitionedCall/model/tf.math.add_1/Add", "op": "AddV2", "input": ["StatefulPartitionedCall/model/tf.math.reduce_mean_2/Mean", "unknown_13"], "attr": {"T": {"type": "DT_FLOAT"}}}, {"name": "StatefulPartitionedCall/model/tf.math.truediv_1/truediv", "op": "RealDiv", "input": ["StatefulPartitionedCall/model/tf.compat.v1.norm/norm/Sqrt", "StatefulPartitionedCall/model/tf.math.add_1/Add"], "attr": {"T": {"type": "DT_FLOAT"}}}, {"name": "StatefulPartitionedCall/model/tf.math.multiply_3/Mul", "op": "Mul", "input": ["StatefulPartitionedCall/model/weight_layer_4/StatefulPartitionedCall/Identity", "StatefulPartitionedCall/model/tf.math.truediv_1/truediv"], "attr": {"_grappler_ArithmeticOptimizer_MinimizeBroadcasts": {"b": true}, "T": {"type": "DT_FLOAT"}}}, {"name": "StatefulPartitionedCall/model/tf.math.multiply_4/Mul", "op": "Mul", "input": ["StatefulPartitionedCall/model/tf.math.multiply_3/Mul", "StatefulPartitionedCall/model/tf.math.multiply_2/Mul"], "attr": {"_grappler_ArithmeticOptimizer_MinimizeBroadcasts": {"b": true}, "T": {"type": "DT_FLOAT"}}}, {"name": "StatefulPartitionedCall/model/tf.__operators__.add_2/ArithmeticOptimizer/AddOpsRewrite_Leaf_1_Add", "op": "AddN", "input": ["StatefulPartitionedCall/model/tf.math.multiply_4/Mul", "StatefulPartitionedCall/model/tf.math.multiply_2/Mul"], "attr": {"N": {"i": "2"}, "T": {"type": "DT_FLOAT"}, "_grappler_ArithmeticOptimizer_AddOpsRewriteStage": {"b": true}}}, {"name": "StatefulPartitionedCall/model/tf.__operators__.add_2/ArithmeticOptimizer/AddOpsRewrite_Add", "op": "AddV2", "input": ["StatefulPartitionedCall/model/weight_layer_5/StatefulPartitionedCall/Identity", "StatefulPartitionedCall/model/tf.__operators__.add_2/ArithmeticOptimizer/AddOpsRewrite_Leaf_1_Add"], "attr": {"T": {"type": "DT_FLOAT"}, "_grappler_ArithmeticOptimizer_AddOpsRewriteStage": {"b": true}}}, {"name": "StatefulPartitionedCall/model/dense_1/Tensordot/Reshape", "op": "Reshape", "input": ["StatefulPartitionedCall/model/tf.__operators__.add_2/ArithmeticOptimizer/AddOpsRewrite_Add", "StatefulPartitionedCall/model/dense_1/Tensordot/Reshape/shape"], "attr": {"T": {"type": "DT_FLOAT"}, "Tshape": {"type": "DT_INT32"}}}, {"name": "StatefulPartitionedCall/model/dense_1/Tensordot/MatMul", "op": "MatMul", "input": ["StatefulPartitionedCall/model/dense_1/Tensordot/Reshape", "StatefulPartitionedCall/model/dense_1/Tensordot/ReadVariableOp"], "device": "/device:CPU:0", "attr": {"transpose_a": {"b": false}, "T": {"type": "DT_FLOAT"}, "transpose_b": {"b": false}}}, {"name": "StatefulPartitionedCall/model/dense_1/Tensordot", "op": "Reshape", "input": ["StatefulPartitionedCall/model/dense_1/Tensordot/MatMul", "StatefulPartitionedCall/model/dense_1/Tensordot/shape"], "attr": {"T": {"type": "DT_FLOAT"}, "Tshape": {"type": "DT_INT32"}}}, {"name": "StatefulPartitionedCall/model/dense_1/BiasAdd", "op": "BiasAdd", "input": ["StatefulPartitionedCall/model/dense_1/Tensordot", "StatefulPartitionedCall/model/dense_1/BiasAdd/ReadVariableOp"], "attr": {"data_format": {"s": "TkhXQw=="}, "T": {"type": "DT_FLOAT"}}}, {"name": "StatefulPartitionedCall/model/tf.__operators__.add_3/Add", "op": "AddV2", "input": ["StatefulPartitionedCall/model/tf.compat.v1.transpose_2/transpose", "StatefulPartitionedCall/model/dense_1/BiasAdd"], "attr": {"T": {"type": "DT_FLOAT"}}}, {"name": "StatefulPartitionedCall/model/zero_padding2d_1/Pad", "op": "Pad", "input": ["StatefulPartitionedCall/model/tf.__operators__.add_3/Add", "StatefulPartitionedCall/model/zero_padding2d_1/Pad/paddings"], "attr": {"Tpaddings": {"type": "DT_INT32"}, "T": {"type": "DT_FLOAT"}}}, {"name": "StatefulPartitionedCall/model/depthwise_conv2d_1/depthwise", "op": "FusedDepthwiseConv2dNative", "input": ["StatefulPartitionedCall/model/zero_padding2d_1/Pad", "StatefulPartitionedCall/model/depthwise_conv2d_1/depthwise/ReadVariableOp", "StatefulPartitionedCall/model/depthwise_conv2d_1/BiasAdd/ReadVariableOp"], "attr": {"padding": {"s": "VkFMSUQ="}, "data_format": {"s": "TkhXQw=="}, "strides": {"list": {"i": ["1", "1", "1", "1"]}}, "num_args": {"i": "1"}, "fused_ops": {"list": {"s": ["Qmlhc0FkZA=="]}}, "T": {"type": "DT_FLOAT"}, "explicit_paddings": {"list": {}}, "dilations": {"list": {"i": ["1", "1", "1", "1"]}}}}, {"name": "StatefulPartitionedCall/model/layer_normalization_1/moments/mean", "op": "Mean", "input": ["StatefulPartitionedCall/model/depthwise_conv2d_1/depthwise", "StatefulPartitionedCall/model/layer_normalization_1/moments/mean/reduction_indices"], "attr": {"Tidx": {"type": "DT_INT32"}, "T": {"type": "DT_FLOAT"}, "keep_dims": {"b": true}}}, {"name": "StatefulPartitionedCall/model/layer_normalization_1/moments/SquaredDifference", "op": "SquaredDifference", "input": ["StatefulPartitionedCall/model/depthwise_conv2d_1/depthwise", "StatefulPartitionedCall/model/layer_normalization_1/moments/mean"], "attr": {"T": {"type": "DT_FLOAT"}}}, {"name": "StatefulPartitionedCall/model/layer_normalization_1/moments/variance", "op": "Mean", "input": ["StatefulPartitionedCall/model/layer_normalization_1/moments/SquaredDifference", "StatefulPartitionedCall/model/layer_normalization_1/moments/variance/reduction_indices"], "attr": {"Tidx": {"type": "DT_INT32"}, "T": {"type": "DT_FLOAT"}, "keep_dims": {"b": true}}}, {"name": "StatefulPartitionedCall/model/layer_normalization_1/batchnorm/add", "op": "AddV2", "input": ["StatefulPartitionedCall/model/layer_normalization_1/moments/variance", "StatefulPartitionedCall/model/layer_normalization_1/batchnorm/add/y"], "attr": {"T": {"type": "DT_FLOAT"}}}, {"name": "StatefulPartitionedCall/model/layer_normalization_1/batchnorm/Rsqrt", "op": "Rsqrt", "input": ["StatefulPartitionedCall/model/layer_normalization_1/batchnorm/add"], "attr": {"T": {"type": "DT_FLOAT"}}}, {"name": "StatefulPartitionedCall/model/layer_normalization_1/batchnorm/mul", "op": "Mul", "input": ["StatefulPartitionedCall/model/layer_normalization_1/batchnorm/Rsqrt", "StatefulPartitionedCall/model/layer_normalization_1/batchnorm/mul/ReadVariableOp"], "attr": {"T": {"type": "DT_FLOAT"}}}, {"name": "StatefulPartitionedCall/model/layer_normalization_1/batchnorm/mul_2", "op": "Mul", "input": ["StatefulPartitionedCall/model/layer_normalization_1/moments/mean", "StatefulPartitionedCall/model/layer_normalization_1/batchnorm/mul"], "attr": {"T": {"type": "DT_FLOAT"}}}, {"name": "StatefulPartitionedCall/model/layer_normalization_1/batchnorm/mul_1", "op": "Mul", "input": ["StatefulPartitionedCall/model/depthwise_conv2d_1/depthwise", "StatefulPartitionedCall/model/layer_normalization_1/batchnorm/mul"], "attr": {"T": {"type": "DT_FLOAT"}}}, {"name": "StatefulPartitionedCall/model/layer_normalization_1/batchnorm/sub", "op": "Sub", "input": ["StatefulPartitionedCall/model/layer_normalization_1/batchnorm/ReadVariableOp", "StatefulPartitionedCall/model/layer_normalization_1/batchnorm/mul_2"], "attr": {"T": {"type": "DT_FLOAT"}}}, {"name": "StatefulPartitionedCall/model/layer_normalization_1/batchnorm/add_1", "op": "AddV2", "input": ["StatefulPartitionedCall/model/layer_normalization_1/batchnorm/mul_1", "StatefulPartitionedCall/model/layer_normalization_1/batchnorm/sub"], "attr": {"T": {"type": "DT_FLOAT"}}}, {"name": "StatefulPartitionedCall/model/dense_2/Tensordot/Reshape", "op": "Reshape", "input": ["StatefulPartitionedCall/model/layer_normalization_1/batchnorm/add_1", "StatefulPartitionedCall/model/dense_2/Tensordot/Reshape/shape"], "attr": {"T": {"type": "DT_FLOAT"}, "Tshape": {"type": "DT_INT32"}}}, {"name": "StatefulPartitionedCall/model/dense_2/Tensordot/MatMul", "op": "MatMul", "input": ["StatefulPartitionedCall/model/dense_2/Tensordot/Reshape", "StatefulPartitionedCall/model/dense_2/Tensordot/ReadVariableOp"], "device": "/device:CPU:0", "attr": {"transpose_a": {"b": false}, "T": {"type": "DT_FLOAT"}, "transpose_b": {"b": false}}}, {"name": "StatefulPartitionedCall/model/dense_2/Tensordot", "op": "Reshape", "input": ["StatefulPartitionedCall/model/dense_2/Tensordot/MatMul", "StatefulPartitionedCall/model/dense_2/Tensordot/shape"], "attr": {"T": {"type": "DT_FLOAT"}, "Tshape": {"type": "DT_INT32"}}}, {"name": "StatefulPartitionedCall/model/dense_2/BiasAdd", "op": "BiasAdd", "input": ["StatefulPartitionedCall/model/dense_2/Tensordot", "StatefulPartitionedCall/model/dense_2/BiasAdd/ReadVariableOp"], "attr": {"data_format": {"s": "TkhXQw=="}, "T": {"type": "DT_FLOAT"}}}, {"name": "StatefulPartitionedCall/model/tf.math.softplus_1/Softplus", "op": "Softplus", "input": ["StatefulPartitionedCall/model/dense_2/BiasAdd"], "attr": {"T": {"type": "DT_FLOAT"}}}, {"name": "StatefulPartitionedCall/model/tf.math.tanh_1/Tanh", "op": "Tanh", "input": ["StatefulPartitionedCall/model/tf.math.softplus_1/Softplus"], "attr": {"T": {"type": "DT_FLOAT"}}}, {"name": "StatefulPartitionedCall/model/tf.math.multiply_5/Mul", "op": "Mul", "input": ["StatefulPartitionedCall/model/dense_2/BiasAdd", "StatefulPartitionedCall/model/tf.math.tanh_1/Tanh"], "attr": {"_has_manual_control_dependencies": {"b": true}, "T": {"type": "DT_FLOAT"}}}, {"name": "StatefulPartitionedCall/model/tf.compat.v1.norm_1/norm/ArithmeticOptimizer/ReplaceMulWithSquare_mul", "op": "Square", "input": ["StatefulPartitionedCall/model/tf.math.multiply_5/Mul"], "attr": {"T": {"type": "DT_FLOAT"}}}, {"name": "StatefulPartitionedCall/model/weight_layer_9/StatefulPartitionedCall/Identity", "op": "Const", "input": ["^StatefulPartitionedCall/model/tf.math.multiply_5/Mul"], "attr": {"value": {"tensor": {"dtype": "DT_FLOAT", "tensorShape": {"dim": [{"size": "1"}, {"size": "1"}, {"size": "1"}, {"size": "320"}]}}}, "dtype": {"type": "DT_FLOAT"}}}, {"name": "StatefulPartitionedCall/model/weight_layer_8/StatefulPartitionedCall/Identity", "op": "Const", "input": ["^StatefulPartitionedCall/model/tf.math.multiply_5/Mul"], "attr": {"value": {"tensor": {"dtype": "DT_FLOAT", "tensorShape": {"dim": [{"size": "1"}, {"size": "1"}, {"size": "1"}, {"size": "320"}]}}}, "dtype": {"type": "DT_FLOAT"}}}, {"name": "StatefulPartitionedCall/model/tf.compat.v1.norm_1/norm/Sum", "op": "Sum", "input": ["StatefulPartitionedCall/model/tf.compat.v1.norm_1/norm/ArithmeticOptimizer/ReplaceMulWithSquare_mul", "StatefulPartitionedCall/model/tf.compat.v1.norm_1/norm/Sum/reduction_indices"], "attr": {"T": {"type": "DT_FLOAT"}, "Tidx": {"type": "DT_INT32"}, "keep_dims": {"b": true}}}, {"name": "StatefulPartitionedCall/model/tf.compat.v1.norm_1/norm/Sqrt", "op": "Sqrt", "input": ["StatefulPartitionedCall/model/tf.compat.v1.norm_1/norm/Sum"], "attr": {"T": {"type": "DT_FLOAT"}}}, {"name": "StatefulPartitionedCall/model/tf.math.reduce_mean_3/Mean", "op": "Mean", "input": ["StatefulPartitionedCall/model/tf.compat.v1.norm_1/norm/Sqrt", "StatefulPartitionedCall/model/tf.math.reduce_mean_3/Mean/reduction_indices"], "attr": {"T": {"type": "DT_FLOAT"}, "Tidx": {"type": "DT_INT32"}, "keep_dims": {"b": true}}}, {"name": "StatefulPartitionedCall/model/tf.math.add_2/Add", "op": "AddV2", "input": ["StatefulPartitionedCall/model/tf.math.reduce_mean_3/Mean", "unknown_24"], "attr": {"T": {"type": "DT_FLOAT"}}}, {"name": "StatefulPartitionedCall/model/tf.math.truediv_2/truediv", "op": "RealDiv", "input": ["StatefulPartitionedCall/model/tf.compat.v1.norm_1/norm/Sqrt", "StatefulPartitionedCall/model/tf.math.add_2/Add"], "attr": {"T": {"type": "DT_FLOAT"}}}, {"name": "StatefulPartitionedCall/model/tf.math.multiply_6/Mul", "op": "Mul", "input": ["StatefulPartitionedCall/model/weight_layer_8/StatefulPartitionedCall/Identity", "StatefulPartitionedCall/model/tf.math.truediv_2/truediv"], "attr": {"_grappler_ArithmeticOptimizer_MinimizeBroadcasts": {"b": true}, "T": {"type": "DT_FLOAT"}}}, {"name": "StatefulPartitionedCall/model/tf.math.multiply_7/Mul", "op": "Mul", "input": ["StatefulPartitionedCall/model/tf.math.multiply_6/Mul", "StatefulPartitionedCall/model/tf.math.multiply_5/Mul"], "attr": {"_grappler_ArithmeticOptimizer_MinimizeBroadcasts": {"b": true}, "T": {"type": "DT_FLOAT"}}}, {"name": "StatefulPartitionedCall/model/tf.__operators__.add_5/ArithmeticOptimizer/AddOpsRewrite_Leaf_1_Add", "op": "AddN", "input": ["StatefulPartitionedCall/model/tf.math.multiply_7/Mul", "StatefulPartitionedCall/model/tf.math.multiply_5/Mul"], "attr": {"N": {"i": "2"}, "T": {"type": "DT_FLOAT"}, "_grappler_ArithmeticOptimizer_AddOpsRewriteStage": {"b": true}}}, {"name": "StatefulPartitionedCall/model/tf.__operators__.add_5/ArithmeticOptimizer/AddOpsRewrite_Add", "op": "AddV2", "input": ["StatefulPartitionedCall/model/weight_layer_9/StatefulPartitionedCall/Identity", "StatefulPartitionedCall/model/tf.__operators__.add_5/ArithmeticOptimizer/AddOpsRewrite_Leaf_1_Add"], "attr": {"T": {"type": "DT_FLOAT"}, "_grappler_ArithmeticOptimizer_AddOpsRewriteStage": {"b": true}}}, {"name": "StatefulPartitionedCall/model/dense_3/Tensordot/Reshape", "op": "Reshape", "input": ["StatefulPartitionedCall/model/tf.__operators__.add_5/ArithmeticOptimizer/AddOpsRewrite_Add", "StatefulPartitionedCall/model/dense_3/Tensordot/Reshape/shape"], "attr": {"T": {"type": "DT_FLOAT"}, "Tshape": {"type": "DT_INT32"}}}, {"name": "StatefulPartitionedCall/model/dense_3/Tensordot/MatMul", "op": "MatMul", "input": ["StatefulPartitionedCall/model/dense_3/Tensordot/Reshape", "StatefulPartitionedCall/model/dense_3/Tensordot/ReadVariableOp"], "device": "/device:CPU:0", "attr": {"transpose_a": {"b": false}, "T": {"type": "DT_FLOAT"}, "transpose_b": {"b": false}}}, {"name": "StatefulPartitionedCall/model/dense_3/Tensordot", "op": "Reshape", "input": ["StatefulPartitionedCall/model/dense_3/Tensordot/MatMul", "StatefulPartitionedCall/model/dense_3/Tensordot/shape"], "attr": {"T": {"type": "DT_FLOAT"}, "Tshape": {"type": "DT_INT32"}}}, {"name": "StatefulPartitionedCall/model/dense_3/BiasAdd", "op": "BiasAdd", "input": ["StatefulPartitionedCall/model/dense_3/Tensordot", "StatefulPartitionedCall/model/dense_3/BiasAdd/ReadVariableOp"], "attr": {"data_format": {"s": "TkhXQw=="}, "T": {"type": "DT_FLOAT"}}}, {"name": "StatefulPartitionedCall/model/tf.__operators__.add_6/Add", "op": "AddV2", "input": ["StatefulPartitionedCall/model/tf.__operators__.add_3/Add", "StatefulPartitionedCall/model/dense_3/BiasAdd"], "attr": {"_has_manual_control_dependencies": {"b": true}, "T": {"type": "DT_FLOAT"}}}, {"name": "StatefulPartitionedCall/model/tf.math.reduce_mean_4/Mean", "op": "Mean", "input": ["StatefulPartitionedCall/model/tf.__operators__.add_6/Add", "StatefulPartitionedCall/model/tf.math.reduce_mean_4/Mean/reduction_indices"], "attr": {"T": {"type": "DT_FLOAT"}, "Tidx": {"type": "DT_INT32"}, "keep_dims": {"b": true}}}, {"name": "StatefulPartitionedCall/model/weight_layer_10/StatefulPartitionedCall/Identity", "op": "Const", "input": ["^StatefulPartitionedCall/model/tf.__operators__.add_6/Add"], "attr": {"value": {"tensor": {"dtype": "DT_FLOAT", "tensorShape": {"dim": [{"size": "80"}, {"size": "1"}, {"size": "1"}]}}}, "dtype": {"type": "DT_FLOAT"}}}, {"name": "StatefulPartitionedCall/model/weight_layer_11/StatefulPartitionedCall/Identity", "op": "Const", "input": ["^StatefulPartitionedCall/model/tf.__operators__.add_6/Add"], "attr": {"value": {"tensor": {"dtype": "DT_FLOAT", "tensorShape": {"dim": [{"size": "80"}, {"size": "1"}, {"size": "1"}]}}}, "dtype": {"type": "DT_FLOAT"}}}, {"name": "StatefulPartitionedCall/model/tf.math.subtract_4/Sub", "op": "Sub", "input": ["StatefulPartitionedCall/model/tf.__operators__.add_6/Add", "StatefulPartitionedCall/model/tf.math.reduce_mean_4/Mean"], "attr": {"T": {"type": "DT_FLOAT"}}}, {"name": "StatefulPartitionedCall/model/tf.math.subtract_3/Sub", "op": "SquaredDifference", "input": ["StatefulPartitionedCall/model/tf.__operators__.add_6/Add", "StatefulPartitionedCall/model/tf.math.reduce_mean_4/Mean"], "attr": {"T": {"type": "DT_FLOAT"}}}, {"name": "StatefulPartitionedCall/model/tf.math.reduce_mean_5/Mean", "op": "Mean", "input": ["StatefulPartitionedCall/model/tf.math.subtract_3/Sub", "StatefulPartitionedCall/model/tf.math.reduce_mean_5/Mean/reduction_indices"], "attr": {"Tidx": {"type": "DT_INT32"}, "T": {"type": "DT_FLOAT"}, "keep_dims": {"b": true}}}, {"name": "StatefulPartitionedCall/model/tf.math.add_3/Add", "op": "AddV2", "input": ["StatefulPartitionedCall/model/tf.math.reduce_mean_5/Mean", "unknown_30"], "attr": {"T": {"type": "DT_FLOAT"}}}, {"name": "StatefulPartitionedCall/model/tf.math.sqrt_1/Sqrt", "op": "Rsqrt", "input": ["StatefulPartitionedCall/model/tf.math.add_3/Add"], "attr": {"T": {"type": "DT_FLOAT"}}}, {"name": "StatefulPartitionedCall/model/tf.math.truediv_3/truediv", "op": "Mul", "input": ["StatefulPartitionedCall/model/tf.math.subtract_4/Sub", "StatefulPartitionedCall/model/tf.math.sqrt_1/Sqrt"], "attr": {"T": {"type": "DT_FLOAT"}}}, {"name": "StatefulPartitionedCall/model/tf.compat.v1.transpose_3/transpose", "op": "Transpose", "input": ["StatefulPartitionedCall/model/tf.math.truediv_3/truediv", "StatefulPartitionedCall/model/tf.compat.v1.transpose_3/transpose/perm"], "attr": {"Tperm": {"type": "DT_INT32"}, "T": {"type": "DT_FLOAT"}}}, {"name": "StatefulPartitionedCall/model/tf.math.multiply_8/Mul", "op": "Mul", "input": ["StatefulPartitionedCall/model/weight_layer_10/StatefulPartitionedCall/Identity", "StatefulPartitionedCall/model/tf.compat.v1.transpose_3/transpose"], "attr": {"T": {"type": "DT_FLOAT"}}}, {"name": "StatefulPartitionedCall/model/tf.__operators__.add_7/Add", "op": "AddV2", "input": ["StatefulPartitionedCall/model/tf.math.multiply_8/Mul", "StatefulPartitionedCall/model/weight_layer_11/StatefulPartitionedCall/Identity"], "attr": {"T": {"type": "DT_FLOAT"}}}, {"name": "StatefulPartitionedCall/model/tf.compat.v1.transpose_4/transpose", "op": "Transpose", "input": ["StatefulPartitionedCall/model/tf.__operators__.add_7/Add", "StatefulPartitionedCall/model/tf.compat.v1.transpose_4/transpose/perm"], "attr": {"Tperm": {"type": "DT_INT32"}, "T": {"type": "DT_FLOAT"}}}, {"name": "StatefulPartitionedCall/model/conv2d_1/BiasAdd", "op": "_FusedConv2D", "input": ["StatefulPartitionedCall/model/tf.compat.v1.transpose_4/transpose", "StatefulPartitionedCall/model/conv2d_1/Conv2D/ReadVariableOp", "StatefulPartitionedCall/model/conv2d_1/BiasAdd/ReadVariableOp"], "device": "/device:CPU:0", "attr": {"num_host_args": {"i": "0"}, "data_format": {"s": "TkhXQw=="}, "filter_format": {"s": "SFdJTw=="}, "fused_ops": {"list": {"s": ["Qmlhc0FkZA=="]}}, "num_args": {"i": "1"}, "strides": {"list": {"i": ["1", "2", "2", "1"]}}, "TArgs": {"list": {"type": ["DT_FLOAT"]}}, "padding": {"s": "VkFMSUQ="}, "use_cudnn_on_gpu": {"b": true}, "leakyrelu_alpha": {"f": 0.2}, "epsilon": {"f": 0.0}, "T": {"type": "DT_FLOAT"}, "explicit_paddings": {"list": {}}, "dilations": {"list": {"i": ["1", "1", "1", "1"]}}}}, {"name": "StatefulPartitionedCall/model/zero_padding2d_2/Pad", "op": "Pad", "input": ["StatefulPartitionedCall/model/conv2d_1/BiasAdd", "StatefulPartitionedCall/model/zero_padding2d_2/Pad/paddings"], "attr": {"Tpaddings": {"type": "DT_INT32"}, "T": {"type": "DT_FLOAT"}}}, {"name": "StatefulPartitionedCall/model/depthwise_conv2d_2/depthwise", "op": "FusedDepthwiseConv2dNative", "input": ["StatefulPartitionedCall/model/zero_padding2d_2/Pad", "StatefulPartitionedCall/model/depthwise_conv2d_2/depthwise/ReadVariableOp", "StatefulPartitionedCall/model/depthwise_conv2d_2/BiasAdd/ReadVariableOp"], "attr": {"padding": {"s": "VkFMSUQ="}, "data_format": {"s": "TkhXQw=="}, "strides": {"list": {"i": ["1", "1", "1", "1"]}}, "num_args": {"i": "1"}, "fused_ops": {"list": {"s": ["Qmlhc0FkZA=="]}}, "T": {"type": "DT_FLOAT"}, "explicit_paddings": {"list": {}}, "dilations": {"list": {"i": ["1", "1", "1", "1"]}}}}, {"name": "StatefulPartitionedCall/model/layer_normalization_2/moments/mean", "op": "Mean", "input": ["StatefulPartitionedCall/model/depthwise_conv2d_2/depthwise", "StatefulPartitionedCall/model/layer_normalization_2/moments/mean/reduction_indices"], "attr": {"Tidx": {"type": "DT_INT32"}, "T": {"type": "DT_FLOAT"}, "keep_dims": {"b": true}}}, {"name": "StatefulPartitionedCall/model/layer_normalization_2/moments/SquaredDifference", "op": "SquaredDifference", "input": ["StatefulPartitionedCall/model/depthwise_conv2d_2/depthwise", "StatefulPartitionedCall/model/layer_normalization_2/moments/mean"], "attr": {"T": {"type": "DT_FLOAT"}}}, {"name": "StatefulPartitionedCall/model/layer_normalization_2/moments/variance", "op": "Mean", "input": ["StatefulPartitionedCall/model/layer_normalization_2/moments/SquaredDifference", "StatefulPartitionedCall/model/layer_normalization_2/moments/variance/reduction_indices"], "attr": {"Tidx": {"type": "DT_INT32"}, "T": {"type": "DT_FLOAT"}, "keep_dims": {"b": true}}}, {"name": "StatefulPartitionedCall/model/layer_normalization_2/batchnorm/add", "op": "AddV2", "input": ["StatefulPartitionedCall/model/layer_normalization_2/moments/variance", "StatefulPartitionedCall/model/layer_normalization_2/batchnorm/add/y"], "attr": {"T": {"type": "DT_FLOAT"}}}, {"name": "StatefulPartitionedCall/model/layer_normalization_2/batchnorm/Rsqrt", "op": "Rsqrt", "input": ["StatefulPartitionedCall/model/layer_normalization_2/batchnorm/add"], "attr": {"T": {"type": "DT_FLOAT"}}}, {"name": "StatefulPartitionedCall/model/layer_normalization_2/batchnorm/mul", "op": "Mul", "input": ["StatefulPartitionedCall/model/layer_normalization_2/batchnorm/Rsqrt", "StatefulPartitionedCall/model/layer_normalization_2/batchnorm/mul/ReadVariableOp"], "attr": {"T": {"type": "DT_FLOAT"}}}, {"name": "StatefulPartitionedCall/model/layer_normalization_2/batchnorm/mul_2", "op": "Mul", "input": ["StatefulPartitionedCall/model/layer_normalization_2/moments/mean", "StatefulPartitionedCall/model/layer_normalization_2/batchnorm/mul"], "attr": {"T": {"type": "DT_FLOAT"}}}, {"name": "StatefulPartitionedCall/model/layer_normalization_2/batchnorm/mul_1", "op": "Mul", "input": ["StatefulPartitionedCall/model/depthwise_conv2d_2/depthwise", "StatefulPartitionedCall/model/layer_normalization_2/batchnorm/mul"], "attr": {"T": {"type": "DT_FLOAT"}}}, {"name": "StatefulPartitionedCall/model/layer_normalization_2/batchnorm/sub", "op": "Sub", "input": ["StatefulPartitionedCall/model/layer_normalization_2/batchnorm/ReadVariableOp", "StatefulPartitionedCall/model/layer_normalization_2/batchnorm/mul_2"], "attr": {"T": {"type": "DT_FLOAT"}}}, {"name": "StatefulPartitionedCall/model/layer_normalization_2/batchnorm/add_1", "op": "AddV2", "input": ["StatefulPartitionedCall/model/layer_normalization_2/batchnorm/mul_1", "StatefulPartitionedCall/model/layer_normalization_2/batchnorm/sub"], "attr": {"T": {"type": "DT_FLOAT"}}}, {"name": "StatefulPartitionedCall/model/dense_4/Tensordot/Reshape", "op": "Reshape", "input": ["StatefulPartitionedCall/model/layer_normalization_2/batchnorm/add_1", "StatefulPartitionedCall/model/dense_4/Tensordot/Reshape/shape"], "attr": {"T": {"type": "DT_FLOAT"}, "Tshape": {"type": "DT_INT32"}}}, {"name": "StatefulPartitionedCall/model/dense_4/Tensordot/MatMul", "op": "MatMul", "input": ["StatefulPartitionedCall/model/dense_4/Tensordot/Reshape", "StatefulPartitionedCall/model/dense_4/Tensordot/ReadVariableOp"], "device": "/device:CPU:0", "attr": {"transpose_a": {"b": false}, "T": {"type": "DT_FLOAT"}, "transpose_b": {"b": false}}}, {"name": "StatefulPartitionedCall/model/dense_4/Tensordot", "op": "Reshape", "input": ["StatefulPartitionedCall/model/dense_4/Tensordot/MatMul", "StatefulPartitionedCall/model/dense_4/Tensordot/shape"], "attr": {"T": {"type": "DT_FLOAT"}, "Tshape": {"type": "DT_INT32"}}}, {"name": "StatefulPartitionedCall/model/dense_4/BiasAdd", "op": "BiasAdd", "input": ["StatefulPartitionedCall/model/dense_4/Tensordot", "StatefulPartitionedCall/model/dense_4/BiasAdd/ReadVariableOp"], "attr": {"data_format": {"s": "TkhXQw=="}, "T": {"type": "DT_FLOAT"}}}, {"name": "StatefulPartitionedCall/model/tf.math.softplus_2/Softplus", "op": "Softplus", "input": ["StatefulPartitionedCall/model/dense_4/BiasAdd"], "attr": {"T": {"type": "DT_FLOAT"}}}, {"name": "StatefulPartitionedCall/model/tf.math.tanh_2/Tanh", "op": "Tanh", "input": ["StatefulPartitionedCall/model/tf.math.softplus_2/Softplus"], "attr": {"T": {"type": "DT_FLOAT"}}}, {"name": "StatefulPartitionedCall/model/tf.math.multiply_9/Mul", "op": "Mul", "input": ["StatefulPartitionedCall/model/dense_4/BiasAdd", "StatefulPartitionedCall/model/tf.math.tanh_2/Tanh"], "attr": {"_has_manual_control_dependencies": {"b": true}, "T": {"type": "DT_FLOAT"}}}, {"name": "StatefulPartitionedCall/model/tf.compat.v1.norm_2/norm/ArithmeticOptimizer/ReplaceMulWithSquare_mul", "op": "Square", "input": ["StatefulPartitionedCall/model/tf.math.multiply_9/Mul"], "attr": {"T": {"type": "DT_FLOAT"}}}, {"name": "StatefulPartitionedCall/model/weight_layer_15/StatefulPartitionedCall/Identity", "op": "Const", "input": ["^StatefulPartitionedCall/model/tf.math.multiply_9/Mul"], "attr": {"value": {"tensor": {"dtype": "DT_FLOAT", "tensorShape": {"dim": [{"size": "1"}, {"size": "1"}, {"size": "1"}, {"size": "640"}]}}}, "dtype": {"type": "DT_FLOAT"}}}, {"name": "StatefulPartitionedCall/model/weight_layer_14/StatefulPartitionedCall/Identity", "op": "Const", "input": ["^StatefulPartitionedCall/model/tf.math.multiply_9/Mul"], "attr": {"value": {"tensor": {"dtype": "DT_FLOAT", "tensorShape": {"dim": [{"size": "1"}, {"size": "1"}, {"size": "1"}, {"size": "640"}]}}}, "dtype": {"type": "DT_FLOAT"}}}, {"name": "StatefulPartitionedCall/model/tf.compat.v1.norm_2/norm/Sum", "op": "Sum", "input": ["StatefulPartitionedCall/model/tf.compat.v1.norm_2/norm/ArithmeticOptimizer/ReplaceMulWithSquare_mul", "StatefulPartitionedCall/model/tf.compat.v1.norm_2/norm/Sum/reduction_indices"], "attr": {"T": {"type": "DT_FLOAT"}, "Tidx": {"type": "DT_INT32"}, "keep_dims": {"b": true}}}, {"name": "StatefulPartitionedCall/model/tf.compat.v1.norm_2/norm/Sqrt", "op": "Sqrt", "input": ["StatefulPartitionedCall/model/tf.compat.v1.norm_2/norm/Sum"], "attr": {"T": {"type": "DT_FLOAT"}}}, {"name": "StatefulPartitionedCall/model/tf.math.reduce_mean_6/Mean", "op": "Mean", "input": ["StatefulPartitionedCall/model/tf.compat.v1.norm_2/norm/Sqrt", "StatefulPartitionedCall/model/tf.math.reduce_mean_6/Mean/reduction_indices"], "attr": {"T": {"type": "DT_FLOAT"}, "Tidx": {"type": "DT_INT32"}, "keep_dims": {"b": true}}}, {"name": "StatefulPartitionedCall/model/tf.math.add_4/Add", "op": "AddV2", "input": ["StatefulPartitionedCall/model/tf.math.reduce_mean_6/Mean", "unknown_41"], "attr": {"T": {"type": "DT_FLOAT"}}}, {"name": "StatefulPartitionedCall/model/tf.math.truediv_4/truediv", "op": "RealDiv", "input": ["StatefulPartitionedCall/model/tf.compat.v1.norm_2/norm/Sqrt", "StatefulPartitionedCall/model/tf.math.add_4/Add"], "attr": {"T": {"type": "DT_FLOAT"}}}, {"name": "StatefulPartitionedCall/model/tf.math.multiply_10/Mul", "op": "Mul", "input": ["StatefulPartitionedCall/model/weight_layer_14/StatefulPartitionedCall/Identity", "StatefulPartitionedCall/model/tf.math.truediv_4/truediv"], "attr": {"_grappler_ArithmeticOptimizer_MinimizeBroadcasts": {"b": true}, "T": {"type": "DT_FLOAT"}}}, {"name": "StatefulPartitionedCall/model/tf.math.multiply_11/Mul", "op": "Mul", "input": ["StatefulPartitionedCall/model/tf.math.multiply_10/Mul", "StatefulPartitionedCall/model/tf.math.multiply_9/Mul"], "attr": {"_grappler_ArithmeticOptimizer_MinimizeBroadcasts": {"b": true}, "T": {"type": "DT_FLOAT"}}}, {"name": "StatefulPartitionedCall/model/tf.__operators__.add_9/ArithmeticOptimizer/AddOpsRewrite_Leaf_1_Add", "op": "AddN", "input": ["StatefulPartitionedCall/model/tf.math.multiply_11/Mul", "StatefulPartitionedCall/model/tf.math.multiply_9/Mul"], "attr": {"N": {"i": "2"}, "T": {"type": "DT_FLOAT"}, "_grappler_ArithmeticOptimizer_AddOpsRewriteStage": {"b": true}}}, {"name": "StatefulPartitionedCall/model/tf.__operators__.add_9/ArithmeticOptimizer/AddOpsRewrite_Add", "op": "AddV2", "input": ["StatefulPartitionedCall/model/weight_layer_15/StatefulPartitionedCall/Identity", "StatefulPartitionedCall/model/tf.__operators__.add_9/ArithmeticOptimizer/AddOpsRewrite_Leaf_1_Add"], "attr": {"T": {"type": "DT_FLOAT"}, "_grappler_ArithmeticOptimizer_AddOpsRewriteStage": {"b": true}}}, {"name": "StatefulPartitionedCall/model/dense_5/Tensordot/Reshape", "op": "Reshape", "input": ["StatefulPartitionedCall/model/tf.__operators__.add_9/ArithmeticOptimizer/AddOpsRewrite_Add", "StatefulPartitionedCall/model/dense_5/Tensordot/Reshape/shape"], "attr": {"T": {"type": "DT_FLOAT"}, "Tshape": {"type": "DT_INT32"}}}, {"name": "StatefulPartitionedCall/model/dense_5/Tensordot/MatMul", "op": "MatMul", "input": ["StatefulPartitionedCall/model/dense_5/Tensordot/Reshape", "StatefulPartitionedCall/model/dense_5/Tensordot/ReadVariableOp"], "device": "/device:CPU:0", "attr": {"transpose_a": {"b": false}, "T": {"type": "DT_FLOAT"}, "transpose_b": {"b": false}}}, {"name": "StatefulPartitionedCall/model/dense_5/Tensordot", "op": "Reshape", "input": ["StatefulPartitionedCall/model/dense_5/Tensordot/MatMul", "StatefulPartitionedCall/model/dense_5/Tensordot/shape"], "attr": {"T": {"type": "DT_FLOAT"}, "Tshape": {"type": "DT_INT32"}}}, {"name": "StatefulPartitionedCall/model/dense_5/BiasAdd", "op": "BiasAdd", "input": ["StatefulPartitionedCall/model/dense_5/Tensordot", "StatefulPartitionedCall/model/dense_5/BiasAdd/ReadVariableOp"], "attr": {"data_format": {"s": "TkhXQw=="}, "T": {"type": "DT_FLOAT"}}}, {"name": "StatefulPartitionedCall/model/tf.__operators__.add_10/Add", "op": "AddV2", "input": ["StatefulPartitionedCall/model/conv2d_1/BiasAdd", "StatefulPartitionedCall/model/dense_5/BiasAdd"], "attr": {"T": {"type": "DT_FLOAT"}}}, {"name": "StatefulPartitionedCall/model/zero_padding2d_3/Pad", "op": "Pad", "input": ["StatefulPartitionedCall/model/tf.__operators__.add_10/Add", "StatefulPartitionedCall/model/zero_padding2d_3/Pad/paddings"], "attr": {"Tpaddings": {"type": "DT_INT32"}, "T": {"type": "DT_FLOAT"}}}, {"name": "StatefulPartitionedCall/model/depthwise_conv2d_3/depthwise", "op": "FusedDepthwiseConv2dNative", "input": ["StatefulPartitionedCall/model/zero_padding2d_3/Pad", "StatefulPartitionedCall/model/depthwise_conv2d_3/depthwise/ReadVariableOp", "StatefulPartitionedCall/model/depthwise_conv2d_3/BiasAdd/ReadVariableOp"], "attr": {"padding": {"s": "VkFMSUQ="}, "data_format": {"s": "TkhXQw=="}, "strides": {"list": {"i": ["1", "1", "1", "1"]}}, "num_args": {"i": "1"}, "fused_ops": {"list": {"s": ["Qmlhc0FkZA=="]}}, "T": {"type": "DT_FLOAT"}, "explicit_paddings": {"list": {}}, "dilations": {"list": {"i": ["1", "1", "1", "1"]}}}}, {"name": "StatefulPartitionedCall/model/layer_normalization_3/moments/mean", "op": "Mean", "input": ["StatefulPartitionedCall/model/depthwise_conv2d_3/depthwise", "StatefulPartitionedCall/model/layer_normalization_3/moments/mean/reduction_indices"], "attr": {"Tidx": {"type": "DT_INT32"}, "T": {"type": "DT_FLOAT"}, "keep_dims": {"b": true}}}, {"name": "StatefulPartitionedCall/model/layer_normalization_3/moments/SquaredDifference", "op": "SquaredDifference", "input": ["StatefulPartitionedCall/model/depthwise_conv2d_3/depthwise", "StatefulPartitionedCall/model/layer_normalization_3/moments/mean"], "attr": {"T": {"type": "DT_FLOAT"}}}, {"name": "StatefulPartitionedCall/model/layer_normalization_3/moments/variance", "op": "Mean", "input": ["StatefulPartitionedCall/model/layer_normalization_3/moments/SquaredDifference", "StatefulPartitionedCall/model/layer_normalization_3/moments/variance/reduction_indices"], "attr": {"Tidx": {"type": "DT_INT32"}, "T": {"type": "DT_FLOAT"}, "keep_dims": {"b": true}}}, {"name": "StatefulPartitionedCall/model/layer_normalization_3/batchnorm/add", "op": "AddV2", "input": ["StatefulPartitionedCall/model/layer_normalization_3/moments/variance", "StatefulPartitionedCall/model/layer_normalization_3/batchnorm/add/y"], "attr": {"T": {"type": "DT_FLOAT"}}}, {"name": "StatefulPartitionedCall/model/layer_normalization_3/batchnorm/Rsqrt", "op": "Rsqrt", "input": ["StatefulPartitionedCall/model/layer_normalization_3/batchnorm/add"], "attr": {"T": {"type": "DT_FLOAT"}}}, {"name": "StatefulPartitionedCall/model/layer_normalization_3/batchnorm/mul", "op": "Mul", "input": ["StatefulPartitionedCall/model/layer_normalization_3/batchnorm/Rsqrt", "StatefulPartitionedCall/model/layer_normalization_3/batchnorm/mul/ReadVariableOp"], "attr": {"T": {"type": "DT_FLOAT"}}}, {"name": "StatefulPartitionedCall/model/layer_normalization_3/batchnorm/mul_2", "op": "Mul", "input": ["StatefulPartitionedCall/model/layer_normalization_3/moments/mean", "StatefulPartitionedCall/model/layer_normalization_3/batchnorm/mul"], "attr": {"T": {"type": "DT_FLOAT"}}}, {"name": "StatefulPartitionedCall/model/layer_normalization_3/batchnorm/mul_1", "op": "Mul", "input": ["StatefulPartitionedCall/model/depthwise_conv2d_3/depthwise", "StatefulPartitionedCall/model/layer_normalization_3/batchnorm/mul"], "attr": {"T": {"type": "DT_FLOAT"}}}, {"name": "StatefulPartitionedCall/model/layer_normalization_3/batchnorm/sub", "op": "Sub", "input": ["StatefulPartitionedCall/model/layer_normalization_3/batchnorm/ReadVariableOp", "StatefulPartitionedCall/model/layer_normalization_3/batchnorm/mul_2"], "attr": {"T": {"type": "DT_FLOAT"}}}, {"name": "StatefulPartitionedCall/model/layer_normalization_3/batchnorm/add_1", "op": "AddV2", "input": ["StatefulPartitionedCall/model/layer_normalization_3/batchnorm/mul_1", "StatefulPartitionedCall/model/layer_normalization_3/batchnorm/sub"], "attr": {"T": {"type": "DT_FLOAT"}}}, {"name": "StatefulPartitionedCall/model/dense_6/Tensordot/Reshape", "op": "Reshape", "input": ["StatefulPartitionedCall/model/layer_normalization_3/batchnorm/add_1", "StatefulPartitionedCall/model/dense_6/Tensordot/Reshape/shape"], "attr": {"T": {"type": "DT_FLOAT"}, "Tshape": {"type": "DT_INT32"}}}, {"name": "StatefulPartitionedCall/model/dense_6/Tensordot/MatMul", "op": "MatMul", "input": ["StatefulPartitionedCall/model/dense_6/Tensordot/Reshape", "StatefulPartitionedCall/model/dense_6/Tensordot/ReadVariableOp"], "device": "/device:CPU:0", "attr": {"transpose_a": {"b": false}, "T": {"type": "DT_FLOAT"}, "transpose_b": {"b": false}}}, {"name": "StatefulPartitionedCall/model/dense_6/Tensordot", "op": "Reshape", "input": ["StatefulPartitionedCall/model/dense_6/Tensordot/MatMul", "StatefulPartitionedCall/model/dense_6/Tensordot/shape"], "attr": {"T": {"type": "DT_FLOAT"}, "Tshape": {"type": "DT_INT32"}}}, {"name": "StatefulPartitionedCall/model/dense_6/BiasAdd", "op": "BiasAdd", "input": ["StatefulPartitionedCall/model/dense_6/Tensordot", "StatefulPartitionedCall/model/dense_6/BiasAdd/ReadVariableOp"], "attr": {"data_format": {"s": "TkhXQw=="}, "T": {"type": "DT_FLOAT"}}}, {"name": "StatefulPartitionedCall/model/tf.math.softplus_3/Softplus", "op": "Softplus", "input": ["StatefulPartitionedCall/model/dense_6/BiasAdd"], "attr": {"T": {"type": "DT_FLOAT"}}}, {"name": "StatefulPartitionedCall/model/tf.math.tanh_3/Tanh", "op": "Tanh", "input": ["StatefulPartitionedCall/model/tf.math.softplus_3/Softplus"], "attr": {"T": {"type": "DT_FLOAT"}}}, {"name": "StatefulPartitionedCall/model/tf.math.multiply_12/Mul", "op": "Mul", "input": ["StatefulPartitionedCall/model/dense_6/BiasAdd", "StatefulPartitionedCall/model/tf.math.tanh_3/Tanh"], "attr": {"_has_manual_control_dependencies": {"b": true}, "T": {"type": "DT_FLOAT"}}}, {"name": "StatefulPartitionedCall/model/tf.compat.v1.norm_3/norm/ArithmeticOptimizer/ReplaceMulWithSquare_mul", "op": "Square", "input": ["StatefulPartitionedCall/model/tf.math.multiply_12/Mul"], "attr": {"T": {"type": "DT_FLOAT"}}}, {"name": "StatefulPartitionedCall/model/weight_layer_19/StatefulPartitionedCall/Identity", "op": "Const", "input": ["^StatefulPartitionedCall/model/tf.math.multiply_12/Mul"], "attr": {"value": {"tensor": {"dtype": "DT_FLOAT", "tensorShape": {"dim": [{"size": "1"}, {"size": "1"}, {"size": "1"}, {"size": "640"}]}}}, "dtype": {"type": "DT_FLOAT"}}}, {"name": "StatefulPartitionedCall/model/weight_layer_18/StatefulPartitionedCall/Identity", "op": "Const", "input": ["^StatefulPartitionedCall/model/tf.math.multiply_12/Mul"], "attr": {"value": {"tensor": {"dtype": "DT_FLOAT", "tensorShape": {"dim": [{"size": "1"}, {"size": "1"}, {"size": "1"}, {"size": "640"}]}}}, "dtype": {"type": "DT_FLOAT"}}}, {"name": "StatefulPartitionedCall/model/tf.compat.v1.norm_3/norm/Sum", "op": "Sum", "input": ["StatefulPartitionedCall/model/tf.compat.v1.norm_3/norm/ArithmeticOptimizer/ReplaceMulWithSquare_mul", "StatefulPartitionedCall/model/tf.compat.v1.norm_3/norm/Sum/reduction_indices"], "attr": {"Tidx": {"type": "DT_INT32"}, "T": {"type": "DT_FLOAT"}, "keep_dims": {"b": true}}}, {"name": "StatefulPartitionedCall/model/tf.compat.v1.norm_3/norm/Sqrt", "op": "Sqrt", "input": ["StatefulPartitionedCall/model/tf.compat.v1.norm_3/norm/Sum"], "attr": {"T": {"type": "DT_FLOAT"}}}, {"name": "StatefulPartitionedCall/model/tf.math.reduce_mean_7/Mean", "op": "Mean", "input": ["StatefulPartitionedCall/model/tf.compat.v1.norm_3/norm/Sqrt", "StatefulPartitionedCall/model/tf.math.reduce_mean_7/Mean/reduction_indices"], "attr": {"T": {"type": "DT_FLOAT"}, "Tidx": {"type": "DT_INT32"}, "keep_dims": {"b": true}}}, {"name": "StatefulPartitionedCall/model/tf.math.add_5/Add", "op": "AddV2", "input": ["StatefulPartitionedCall/model/tf.math.reduce_mean_7/Mean", "unknown_52"], "attr": {"T": {"type": "DT_FLOAT"}}}, {"name": "StatefulPartitionedCall/model/tf.math.truediv_5/truediv", "op": "RealDiv", "input": ["StatefulPartitionedCall/model/tf.compat.v1.norm_3/norm/Sqrt", "StatefulPartitionedCall/model/tf.math.add_5/Add"], "attr": {"T": {"type": "DT_FLOAT"}}}, {"name": "StatefulPartitionedCall/model/tf.math.multiply_13/Mul", "op": "Mul", "input": ["StatefulPartitionedCall/model/weight_layer_18/StatefulPartitionedCall/Identity", "StatefulPartitionedCall/model/tf.math.truediv_5/truediv"], "attr": {"_grappler_ArithmeticOptimizer_MinimizeBroadcasts": {"b": true}, "T": {"type": "DT_FLOAT"}}}, {"name": "StatefulPartitionedCall/model/tf.math.multiply_14/Mul", "op": "Mul", "input": ["StatefulPartitionedCall/model/tf.math.multiply_13/Mul", "StatefulPartitionedCall/model/tf.math.multiply_12/Mul"], "attr": {"_grappler_ArithmeticOptimizer_MinimizeBroadcasts": {"b": true}, "T": {"type": "DT_FLOAT"}}}, {"name": "StatefulPartitionedCall/model/tf.__operators__.add_12/ArithmeticOptimizer/AddOpsRewrite_Leaf_1_Add", "op": "AddN", "input": ["StatefulPartitionedCall/model/tf.math.multiply_14/Mul", "StatefulPartitionedCall/model/tf.math.multiply_12/Mul"], "attr": {"N": {"i": "2"}, "T": {"type": "DT_FLOAT"}, "_grappler_ArithmeticOptimizer_AddOpsRewriteStage": {"b": true}}}, {"name": "StatefulPartitionedCall/model/tf.__operators__.add_12/ArithmeticOptimizer/AddOpsRewrite_Add", "op": "AddV2", "input": ["StatefulPartitionedCall/model/weight_layer_19/StatefulPartitionedCall/Identity", "StatefulPartitionedCall/model/tf.__operators__.add_12/ArithmeticOptimizer/AddOpsRewrite_Leaf_1_Add"], "attr": {"T": {"type": "DT_FLOAT"}, "_grappler_ArithmeticOptimizer_AddOpsRewriteStage": {"b": true}}}, {"name": "StatefulPartitionedCall/model/dense_7/Tensordot/Reshape", "op": "Reshape", "input": ["StatefulPartitionedCall/model/tf.__operators__.add_12/ArithmeticOptimizer/AddOpsRewrite_Add", "StatefulPartitionedCall/model/dense_7/Tensordot/Reshape/shape"], "attr": {"T": {"type": "DT_FLOAT"}, "Tshape": {"type": "DT_INT32"}}}, {"name": "StatefulPartitionedCall/model/dense_7/Tensordot/MatMul", "op": "MatMul", "input": ["StatefulPartitionedCall/model/dense_7/Tensordot/Reshape", "StatefulPartitionedCall/model/dense_7/Tensordot/ReadVariableOp"], "device": "/device:CPU:0", "attr": {"transpose_a": {"b": false}, "T": {"type": "DT_FLOAT"}, "transpose_b": {"b": false}}}, {"name": "StatefulPartitionedCall/model/dense_7/Tensordot", "op": "Reshape", "input": ["StatefulPartitionedCall/model/dense_7/Tensordot/MatMul", "StatefulPartitionedCall/model/dense_7/Tensordot/shape"], "attr": {"T": {"type": "DT_FLOAT"}, "Tshape": {"type": "DT_INT32"}}}, {"name": "StatefulPartitionedCall/model/dense_7/BiasAdd", "op": "BiasAdd", "input": ["StatefulPartitionedCall/model/dense_7/Tensordot", "StatefulPartitionedCall/model/dense_7/BiasAdd/ReadVariableOp"], "attr": {"data_format": {"s": "TkhXQw=="}, "T": {"type": "DT_FLOAT"}}}, {"name": "StatefulPartitionedCall/model/tf.__operators__.add_13/Add", "op": "AddV2", "input": ["StatefulPartitionedCall/model/tf.__operators__.add_10/Add", "StatefulPartitionedCall/model/dense_7/BiasAdd"], "attr": {"_has_manual_control_dependencies": {"b": true}, "T": {"type": "DT_FLOAT"}}}, {"name": "StatefulPartitionedCall/model/tf.math.reduce_mean_8/Mean", "op": "Mean", "input": ["StatefulPartitionedCall/model/tf.__operators__.add_13/Add", "StatefulPartitionedCall/model/tf.math.reduce_mean_8/Mean/reduction_indices"], "attr": {"Tidx": {"type": "DT_INT32"}, "T": {"type": "DT_FLOAT"}, "keep_dims": {"b": true}}}, {"name": "StatefulPartitionedCall/model/weight_layer_20/StatefulPartitionedCall/Identity", "op": "Const", "input": ["^StatefulPartitionedCall/model/tf.__operators__.add_13/Add"], "attr": {"value": {"tensor": {"dtype": "DT_FLOAT", "tensorShape": {"dim": [{"size": "160"}, {"size": "1"}, {"size": "1"}]}}}, "dtype": {"type": "DT_FLOAT"}}}, {"name": "StatefulPartitionedCall/model/weight_layer_21/StatefulPartitionedCall/Identity", "op": "Const", "input": ["^StatefulPartitionedCall/model/tf.__operators__.add_13/Add"], "attr": {"value": {"tensor": {"dtype": "DT_FLOAT", "tensorShape": {"dim": [{"size": "160"}, {"size": "1"}, {"size": "1"}]}}}, "dtype": {"type": "DT_FLOAT"}}}, {"name": "StatefulPartitionedCall/model/tf.math.subtract_6/Sub", "op": "Sub", "input": ["StatefulPartitionedCall/model/tf.__operators__.add_13/Add", "StatefulPartitionedCall/model/tf.math.reduce_mean_8/Mean"], "attr": {"T": {"type": "DT_FLOAT"}}}, {"name": "StatefulPartitionedCall/model/tf.math.subtract_5/Sub", "op": "SquaredDifference", "input": ["StatefulPartitionedCall/model/tf.__operators__.add_13/Add", "StatefulPartitionedCall/model/tf.math.reduce_mean_8/Mean"], "attr": {"T": {"type": "DT_FLOAT"}}}, {"name": "StatefulPartitionedCall/model/tf.math.reduce_mean_9/Mean", "op": "Mean", "input": ["StatefulPartitionedCall/model/tf.math.subtract_5/Sub", "StatefulPartitionedCall/model/tf.math.reduce_mean_9/Mean/reduction_indices"], "attr": {"Tidx": {"type": "DT_INT32"}, "T": {"type": "DT_FLOAT"}, "keep_dims": {"b": true}}}, {"name": "StatefulPartitionedCall/model/tf.math.add_6/Add", "op": "AddV2", "input": ["StatefulPartitionedCall/model/tf.math.reduce_mean_9/Mean", "unknown_58"], "attr": {"T": {"type": "DT_FLOAT"}}}, {"name": "StatefulPartitionedCall/model/tf.math.sqrt_2/Sqrt", "op": "Rsqrt", "input": ["StatefulPartitionedCall/model/tf.math.add_6/Add"], "attr": {"T": {"type": "DT_FLOAT"}}}, {"name": "StatefulPartitionedCall/model/tf.math.truediv_6/truediv", "op": "Mul", "input": ["StatefulPartitionedCall/model/tf.math.subtract_6/Sub", "StatefulPartitionedCall/model/tf.math.sqrt_2/Sqrt"], "attr": {"T": {"type": "DT_FLOAT"}}}, {"name": "StatefulPartitionedCall/model/tf.compat.v1.transpose_5/transpose", "op": "Transpose", "input": ["StatefulPartitionedCall/model/tf.math.truediv_6/truediv", "StatefulPartitionedCall/model/tf.compat.v1.transpose_5/transpose/perm"], "attr": {"Tperm": {"type": "DT_INT32"}, "T": {"type": "DT_FLOAT"}}}, {"name": "StatefulPartitionedCall/model/tf.math.multiply_15/Mul", "op": "Mul", "input": ["StatefulPartitionedCall/model/weight_layer_20/StatefulPartitionedCall/Identity", "StatefulPartitionedCall/model/tf.compat.v1.transpose_5/transpose"], "attr": {"T": {"type": "DT_FLOAT"}}}, {"name": "StatefulPartitionedCall/model/tf.__operators__.add_14/Add", "op": "AddV2", "input": ["StatefulPartitionedCall/model/tf.math.multiply_15/Mul", "StatefulPartitionedCall/model/weight_layer_21/StatefulPartitionedCall/Identity"], "attr": {"T": {"type": "DT_FLOAT"}}}, {"name": "StatefulPartitionedCall/model/tf.compat.v1.transpose_6/transpose", "op": "Transpose", "input": ["StatefulPartitionedCall/model/tf.__operators__.add_14/Add", "StatefulPartitionedCall/model/tf.compat.v1.transpose_6/transpose/perm"], "attr": {"Tperm": {"type": "DT_INT32"}, "T": {"type": "DT_FLOAT"}}}, {"name": "StatefulPartitionedCall/model/conv2d_2/BiasAdd", "op": "_FusedConv2D", "input": ["StatefulPartitionedCall/model/tf.compat.v1.transpose_6/transpose", "StatefulPartitionedCall/model/conv2d_2/Conv2D/ReadVariableOp", "StatefulPartitionedCall/model/conv2d_2/BiasAdd/ReadVariableOp"], "device": "/device:CPU:0", "attr": {"num_host_args": {"i": "0"}, "data_format": {"s": "TkhXQw=="}, "filter_format": {"s": "SFdJTw=="}, "fused_ops": {"list": {"s": ["Qmlhc0FkZA=="]}}, "num_args": {"i": "1"}, "strides": {"list": {"i": ["1", "2", "2", "1"]}}, "TArgs": {"list": {"type": ["DT_FLOAT"]}}, "padding": {"s": "VkFMSUQ="}, "use_cudnn_on_gpu": {"b": true}, "leakyrelu_alpha": {"f": 0.2}, "epsilon": {"f": 0.0}, "T": {"type": "DT_FLOAT"}, "explicit_paddings": {"list": {}}, "dilations": {"list": {"i": ["1", "1", "1", "1"]}}}}, {"name": "StatefulPartitionedCall/model/zero_padding2d_4/Pad", "op": "Pad", "input": ["StatefulPartitionedCall/model/conv2d_2/BiasAdd", "StatefulPartitionedCall/model/zero_padding2d_4/Pad/paddings"], "attr": {"Tpaddings": {"type": "DT_INT32"}, "T": {"type": "DT_FLOAT"}}}, {"name": "StatefulPartitionedCall/model/depthwise_conv2d_4/depthwise", "op": "FusedDepthwiseConv2dNative", "input": ["StatefulPartitionedCall/model/zero_padding2d_4/Pad", "StatefulPartitionedCall/model/depthwise_conv2d_4/depthwise/ReadVariableOp", "StatefulPartitionedCall/model/depthwise_conv2d_4/BiasAdd/ReadVariableOp"], "attr": {"padding": {"s": "VkFMSUQ="}, "data_format": {"s": "TkhXQw=="}, "strides": {"list": {"i": ["1", "1", "1", "1"]}}, "num_args": {"i": "1"}, "fused_ops": {"list": {"s": ["Qmlhc0FkZA=="]}}, "T": {"type": "DT_FLOAT"}, "explicit_paddings": {"list": {}}, "dilations": {"list": {"i": ["1", "1", "1", "1"]}}}}, {"name": "StatefulPartitionedCall/model/layer_normalization_4/moments/mean", "op": "Mean", "input": ["StatefulPartitionedCall/model/depthwise_conv2d_4/depthwise", "StatefulPartitionedCall/model/layer_normalization_4/moments/mean/reduction_indices"], "attr": {"T": {"type": "DT_FLOAT"}, "Tidx": {"type": "DT_INT32"}, "keep_dims": {"b": true}}}, {"name": "StatefulPartitionedCall/model/layer_normalization_4/moments/SquaredDifference", "op": "SquaredDifference", "input": ["StatefulPartitionedCall/model/depthwise_conv2d_4/depthwise", "StatefulPartitionedCall/model/layer_normalization_4/moments/mean"], "attr": {"T": {"type": "DT_FLOAT"}}}, {"name": "StatefulPartitionedCall/model/layer_normalization_4/moments/variance", "op": "Mean", "input": ["StatefulPartitionedCall/model/layer_normalization_4/moments/SquaredDifference", "StatefulPartitionedCall/model/layer_normalization_4/moments/variance/reduction_indices"], "attr": {"Tidx": {"type": "DT_INT32"}, "T": {"type": "DT_FLOAT"}, "keep_dims": {"b": true}}}, {"name": "StatefulPartitionedCall/model/layer_normalization_4/batchnorm/add", "op": "AddV2", "input": ["StatefulPartitionedCall/model/layer_normalization_4/moments/variance", "StatefulPartitionedCall/model/layer_normalization_4/batchnorm/add/y"], "attr": {"T": {"type": "DT_FLOAT"}}}, {"name": "StatefulPartitionedCall/model/layer_normalization_4/batchnorm/Rsqrt", "op": "Rsqrt", "input": ["StatefulPartitionedCall/model/layer_normalization_4/batchnorm/add"], "attr": {"T": {"type": "DT_FLOAT"}}}, {"name": "StatefulPartitionedCall/model/layer_normalization_4/batchnorm/mul", "op": "Mul", "input": ["StatefulPartitionedCall/model/layer_normalization_4/batchnorm/Rsqrt", "StatefulPartitionedCall/model/layer_normalization_4/batchnorm/mul/ReadVariableOp"], "attr": {"T": {"type": "DT_FLOAT"}}}, {"name": "StatefulPartitionedCall/model/layer_normalization_4/batchnorm/mul_2", "op": "Mul", "input": ["StatefulPartitionedCall/model/layer_normalization_4/moments/mean", "StatefulPartitionedCall/model/layer_normalization_4/batchnorm/mul"], "attr": {"T": {"type": "DT_FLOAT"}}}, {"name": "StatefulPartitionedCall/model/layer_normalization_4/batchnorm/mul_1", "op": "Mul", "input": ["StatefulPartitionedCall/model/depthwise_conv2d_4/depthwise", "StatefulPartitionedCall/model/layer_normalization_4/batchnorm/mul"], "attr": {"T": {"type": "DT_FLOAT"}}}, {"name": "StatefulPartitionedCall/model/layer_normalization_4/batchnorm/sub", "op": "Sub", "input": ["StatefulPartitionedCall/model/layer_normalization_4/batchnorm/ReadVariableOp", "StatefulPartitionedCall/model/layer_normalization_4/batchnorm/mul_2"], "attr": {"T": {"type": "DT_FLOAT"}}}, {"name": "StatefulPartitionedCall/model/layer_normalization_4/batchnorm/add_1", "op": "AddV2", "input": ["StatefulPartitionedCall/model/layer_normalization_4/batchnorm/mul_1", "StatefulPartitionedCall/model/layer_normalization_4/batchnorm/sub"], "attr": {"T": {"type": "DT_FLOAT"}}}, {"name": "StatefulPartitionedCall/model/dense_8/Tensordot/Reshape", "op": "Reshape", "input": ["StatefulPartitionedCall/model/layer_normalization_4/batchnorm/add_1", "StatefulPartitionedCall/model/dense_8/Tensordot/Reshape/shape"], "attr": {"T": {"type": "DT_FLOAT"}, "Tshape": {"type": "DT_INT32"}}}, {"name": "StatefulPartitionedCall/model/dense_8/Tensordot/MatMul", "op": "MatMul", "input": ["StatefulPartitionedCall/model/dense_8/Tensordot/Reshape", "StatefulPartitionedCall/model/dense_8/Tensordot/ReadVariableOp"], "device": "/device:CPU:0", "attr": {"transpose_a": {"b": false}, "T": {"type": "DT_FLOAT"}, "transpose_b": {"b": false}}}, {"name": "StatefulPartitionedCall/model/dense_8/Tensordot", "op": "Reshape", "input": ["StatefulPartitionedCall/model/dense_8/Tensordot/MatMul", "StatefulPartitionedCall/model/dense_8/Tensordot/shape"], "attr": {"T": {"type": "DT_FLOAT"}, "Tshape": {"type": "DT_INT32"}}}, {"name": "StatefulPartitionedCall/model/dense_8/BiasAdd", "op": "BiasAdd", "input": ["StatefulPartitionedCall/model/dense_8/Tensordot", "StatefulPartitionedCall/model/dense_8/BiasAdd/ReadVariableOp"], "attr": {"data_format": {"s": "TkhXQw=="}, "T": {"type": "DT_FLOAT"}}}, {"name": "StatefulPartitionedCall/model/tf.math.softplus_4/Softplus", "op": "Softplus", "input": ["StatefulPartitionedCall/model/dense_8/BiasAdd"], "attr": {"T": {"type": "DT_FLOAT"}}}, {"name": "StatefulPartitionedCall/model/tf.math.tanh_4/Tanh", "op": "Tanh", "input": ["StatefulPartitionedCall/model/tf.math.softplus_4/Softplus"], "attr": {"T": {"type": "DT_FLOAT"}}}, {"name": "StatefulPartitionedCall/model/tf.math.multiply_16/Mul", "op": "Mul", "input": ["StatefulPartitionedCall/model/dense_8/BiasAdd", "StatefulPartitionedCall/model/tf.math.tanh_4/Tanh"], "attr": {"_has_manual_control_dependencies": {"b": true}, "T": {"type": "DT_FLOAT"}}}, {"name": "StatefulPartitionedCall/model/tf.compat.v1.norm_4/norm/ArithmeticOptimizer/ReplaceMulWithSquare_mul", "op": "Square", "input": ["StatefulPartitionedCall/model/tf.math.multiply_16/Mul"], "attr": {"T": {"type": "DT_FLOAT"}}}, {"name": "StatefulPartitionedCall/model/weight_layer_25/StatefulPartitionedCall/Identity", "op": "Const", "input": ["^StatefulPartitionedCall/model/tf.math.multiply_16/Mul"], "attr": {"value": {"tensor": {"dtype": "DT_FLOAT", "tensorShape": {"dim": [{"size": "1"}, {"size": "1"}, {"size": "1"}, {"size": "1280"}]}}}, "dtype": {"type": "DT_FLOAT"}}}, {"name": "StatefulPartitionedCall/model/weight_layer_24/StatefulPartitionedCall/Identity", "op": "Const", "input": ["^StatefulPartitionedCall/model/tf.math.multiply_16/Mul"], "attr": {"value": {"tensor": {"dtype": "DT_FLOAT", "tensorShape": {"dim": [{"size": "1"}, {"size": "1"}, {"size": "1"}, {"size": "1280"}]}}}, "dtype": {"type": "DT_FLOAT"}}}, {"name": "StatefulPartitionedCall/model/tf.compat.v1.norm_4/norm/Sum", "op": "Sum", "input": ["StatefulPartitionedCall/model/tf.compat.v1.norm_4/norm/ArithmeticOptimizer/ReplaceMulWithSquare_mul", "StatefulPartitionedCall/model/tf.compat.v1.norm_4/norm/Sum/reduction_indices"], "attr": {"Tidx": {"type": "DT_INT32"}, "T": {"type": "DT_FLOAT"}, "keep_dims": {"b": true}}}, {"name": "StatefulPartitionedCall/model/tf.compat.v1.norm_4/norm/Sqrt", "op": "Sqrt", "input": ["StatefulPartitionedCall/model/tf.compat.v1.norm_4/norm/Sum"], "attr": {"T": {"type": "DT_FLOAT"}}}, {"name": "StatefulPartitionedCall/model/tf.math.reduce_mean_10/Mean", "op": "Mean", "input": ["StatefulPartitionedCall/model/tf.compat.v1.norm_4/norm/Sqrt", "StatefulPartitionedCall/model/tf.math.reduce_mean_10/Mean/reduction_indices"], "attr": {"T": {"type": "DT_FLOAT"}, "Tidx": {"type": "DT_INT32"}, "keep_dims": {"b": true}}}, {"name": "StatefulPartitionedCall/model/tf.math.add_7/Add", "op": "AddV2", "input": ["StatefulPartitionedCall/model/tf.math.reduce_mean_10/Mean", "unknown_69"], "attr": {"T": {"type": "DT_FLOAT"}}}, {"name": "StatefulPartitionedCall/model/tf.math.truediv_7/truediv", "op": "RealDiv", "input": ["StatefulPartitionedCall/model/tf.compat.v1.norm_4/norm/Sqrt", "StatefulPartitionedCall/model/tf.math.add_7/Add"], "attr": {"T": {"type": "DT_FLOAT"}}}, {"name": "StatefulPartitionedCall/model/tf.math.multiply_17/Mul", "op": "Mul", "input": ["StatefulPartitionedCall/model/weight_layer_24/StatefulPartitionedCall/Identity", "StatefulPartitionedCall/model/tf.math.truediv_7/truediv"], "attr": {"_grappler_ArithmeticOptimizer_MinimizeBroadcasts": {"b": true}, "T": {"type": "DT_FLOAT"}}}, {"name": "StatefulPartitionedCall/model/tf.math.multiply_18/Mul", "op": "Mul", "input": ["StatefulPartitionedCall/model/tf.math.multiply_17/Mul", "StatefulPartitionedCall/model/tf.math.multiply_16/Mul"], "attr": {"_grappler_ArithmeticOptimizer_MinimizeBroadcasts": {"b": true}, "T": {"type": "DT_FLOAT"}}}, {"name": "StatefulPartitionedCall/model/tf.__operators__.add_16/ArithmeticOptimizer/AddOpsRewrite_Leaf_1_Add", "op": "AddN", "input": ["StatefulPartitionedCall/model/tf.math.multiply_18/Mul", "StatefulPartitionedCall/model/tf.math.multiply_16/Mul"], "attr": {"N": {"i": "2"}, "T": {"type": "DT_FLOAT"}, "_grappler_ArithmeticOptimizer_AddOpsRewriteStage": {"b": true}}}, {"name": "StatefulPartitionedCall/model/tf.__operators__.add_16/ArithmeticOptimizer/AddOpsRewrite_Add", "op": "AddV2", "input": ["StatefulPartitionedCall/model/weight_layer_25/StatefulPartitionedCall/Identity", "StatefulPartitionedCall/model/tf.__operators__.add_16/ArithmeticOptimizer/AddOpsRewrite_Leaf_1_Add"], "attr": {"T": {"type": "DT_FLOAT"}, "_grappler_ArithmeticOptimizer_AddOpsRewriteStage": {"b": true}}}, {"name": "StatefulPartitionedCall/model/dense_9/Tensordot/Reshape", "op": "Reshape", "input": ["StatefulPartitionedCall/model/tf.__operators__.add_16/ArithmeticOptimizer/AddOpsRewrite_Add", "StatefulPartitionedCall/model/dense_9/Tensordot/Reshape/shape"], "attr": {"T": {"type": "DT_FLOAT"}, "Tshape": {"type": "DT_INT32"}}}, {"name": "StatefulPartitionedCall/model/dense_9/Tensordot/MatMul", "op": "MatMul", "input": ["StatefulPartitionedCall/model/dense_9/Tensordot/Reshape", "StatefulPartitionedCall/model/dense_9/Tensordot/ReadVariableOp"], "device": "/device:CPU:0", "attr": {"transpose_a": {"b": false}, "T": {"type": "DT_FLOAT"}, "transpose_b": {"b": false}}}, {"name": "StatefulPartitionedCall/model/dense_9/Tensordot", "op": "Reshape", "input": ["StatefulPartitionedCall/model/dense_9/Tensordot/MatMul", "StatefulPartitionedCall/model/dense_9/Tensordot/shape"], "attr": {"T": {"type": "DT_FLOAT"}, "Tshape": {"type": "DT_INT32"}}}, {"name": "StatefulPartitionedCall/model/dense_9/BiasAdd", "op": "BiasAdd", "input": ["StatefulPartitionedCall/model/dense_9/Tensordot", "StatefulPartitionedCall/model/dense_9/BiasAdd/ReadVariableOp"], "attr": {"data_format": {"s": "TkhXQw=="}, "T": {"type": "DT_FLOAT"}}}, {"name": "StatefulPartitionedCall/model/tf.__operators__.add_17/Add", "op": "AddV2", "input": ["StatefulPartitionedCall/model/conv2d_2/BiasAdd", "StatefulPartitionedCall/model/dense_9/BiasAdd"], "attr": {"T": {"type": "DT_FLOAT"}}}, {"name": "StatefulPartitionedCall/model/zero_padding2d_5/Pad", "op": "Pad", "input": ["StatefulPartitionedCall/model/tf.__operators__.add_17/Add", "StatefulPartitionedCall/model/zero_padding2d_5/Pad/paddings"], "attr": {"Tpaddings": {"type": "DT_INT32"}, "T": {"type": "DT_FLOAT"}}}, {"name": "StatefulPartitionedCall/model/depthwise_conv2d_5/depthwise", "op": "FusedDepthwiseConv2dNative", "input": ["StatefulPartitionedCall/model/zero_padding2d_5/Pad", "StatefulPartitionedCall/model/depthwise_conv2d_5/depthwise/ReadVariableOp", "StatefulPartitionedCall/model/depthwise_conv2d_5/BiasAdd/ReadVariableOp"], "attr": {"padding": {"s": "VkFMSUQ="}, "data_format": {"s": "TkhXQw=="}, "strides": {"list": {"i": ["1", "1", "1", "1"]}}, "num_args": {"i": "1"}, "fused_ops": {"list": {"s": ["Qmlhc0FkZA=="]}}, "T": {"type": "DT_FLOAT"}, "explicit_paddings": {"list": {}}, "dilations": {"list": {"i": ["1", "1", "1", "1"]}}}}, {"name": "StatefulPartitionedCall/model/layer_normalization_5/moments/mean", "op": "Mean", "input": ["StatefulPartitionedCall/model/depthwise_conv2d_5/depthwise", "StatefulPartitionedCall/model/layer_normalization_5/moments/mean/reduction_indices"], "attr": {"Tidx": {"type": "DT_INT32"}, "T": {"type": "DT_FLOAT"}, "keep_dims": {"b": true}}}, {"name": "StatefulPartitionedCall/model/layer_normalization_5/moments/SquaredDifference", "op": "SquaredDifference", "input": ["StatefulPartitionedCall/model/depthwise_conv2d_5/depthwise", "StatefulPartitionedCall/model/layer_normalization_5/moments/mean"], "attr": {"T": {"type": "DT_FLOAT"}}}, {"name": "StatefulPartitionedCall/model/layer_normalization_5/moments/variance", "op": "Mean", "input": ["StatefulPartitionedCall/model/layer_normalization_5/moments/SquaredDifference", "StatefulPartitionedCall/model/layer_normalization_5/moments/variance/reduction_indices"], "attr": {"Tidx": {"type": "DT_INT32"}, "T": {"type": "DT_FLOAT"}, "keep_dims": {"b": true}}}, {"name": "StatefulPartitionedCall/model/layer_normalization_5/batchnorm/add", "op": "AddV2", "input": ["StatefulPartitionedCall/model/layer_normalization_5/moments/variance", "StatefulPartitionedCall/model/layer_normalization_5/batchnorm/add/y"], "attr": {"T": {"type": "DT_FLOAT"}}}, {"name": "StatefulPartitionedCall/model/layer_normalization_5/batchnorm/Rsqrt", "op": "Rsqrt", "input": ["StatefulPartitionedCall/model/layer_normalization_5/batchnorm/add"], "attr": {"T": {"type": "DT_FLOAT"}}}, {"name": "StatefulPartitionedCall/model/layer_normalization_5/batchnorm/mul", "op": "Mul", "input": ["StatefulPartitionedCall/model/layer_normalization_5/batchnorm/Rsqrt", "StatefulPartitionedCall/model/layer_normalization_5/batchnorm/mul/ReadVariableOp"], "attr": {"T": {"type": "DT_FLOAT"}}}, {"name": "StatefulPartitionedCall/model/layer_normalization_5/batchnorm/mul_2", "op": "Mul", "input": ["StatefulPartitionedCall/model/layer_normalization_5/moments/mean", "StatefulPartitionedCall/model/layer_normalization_5/batchnorm/mul"], "attr": {"T": {"type": "DT_FLOAT"}}}, {"name": "StatefulPartitionedCall/model/layer_normalization_5/batchnorm/mul_1", "op": "Mul", "input": ["StatefulPartitionedCall/model/depthwise_conv2d_5/depthwise", "StatefulPartitionedCall/model/layer_normalization_5/batchnorm/mul"], "attr": {"T": {"type": "DT_FLOAT"}}}, {"name": "StatefulPartitionedCall/model/layer_normalization_5/batchnorm/sub", "op": "Sub", "input": ["StatefulPartitionedCall/model/layer_normalization_5/batchnorm/ReadVariableOp", "StatefulPartitionedCall/model/layer_normalization_5/batchnorm/mul_2"], "attr": {"T": {"type": "DT_FLOAT"}}}, {"name": "StatefulPartitionedCall/model/layer_normalization_5/batchnorm/add_1", "op": "AddV2", "input": ["StatefulPartitionedCall/model/layer_normalization_5/batchnorm/mul_1", "StatefulPartitionedCall/model/layer_normalization_5/batchnorm/sub"], "attr": {"T": {"type": "DT_FLOAT"}}}, {"name": "StatefulPartitionedCall/model/dense_10/Tensordot/Reshape", "op": "Reshape", "input": ["StatefulPartitionedCall/model/layer_normalization_5/batchnorm/add_1", "StatefulPartitionedCall/model/dense_10/Tensordot/Reshape/shape"], "attr": {"T": {"type": "DT_FLOAT"}, "Tshape": {"type": "DT_INT32"}}}, {"name": "StatefulPartitionedCall/model/dense_10/Tensordot/MatMul", "op": "MatMul", "input": ["StatefulPartitionedCall/model/dense_10/Tensordot/Reshape", "StatefulPartitionedCall/model/dense_10/Tensordot/ReadVariableOp"], "device": "/device:CPU:0", "attr": {"transpose_a": {"b": false}, "T": {"type": "DT_FLOAT"}, "transpose_b": {"b": false}}}, {"name": "StatefulPartitionedCall/model/dense_10/Tensordot", "op": "Reshape", "input": ["StatefulPartitionedCall/model/dense_10/Tensordot/MatMul", "StatefulPartitionedCall/model/dense_10/Tensordot/shape"], "attr": {"T": {"type": "DT_FLOAT"}, "Tshape": {"type": "DT_INT32"}}}, {"name": "StatefulPartitionedCall/model/dense_10/BiasAdd", "op": "BiasAdd", "input": ["StatefulPartitionedCall/model/dense_10/Tensordot", "StatefulPartitionedCall/model/dense_10/BiasAdd/ReadVariableOp"], "attr": {"data_format": {"s": "TkhXQw=="}, "T": {"type": "DT_FLOAT"}}}, {"name": "StatefulPartitionedCall/model/tf.math.softplus_5/Softplus", "op": "Softplus", "input": ["StatefulPartitionedCall/model/dense_10/BiasAdd"], "attr": {"T": {"type": "DT_FLOAT"}}}, {"name": "StatefulPartitionedCall/model/tf.math.tanh_5/Tanh", "op": "Tanh", "input": ["StatefulPartitionedCall/model/tf.math.softplus_5/Softplus"], "attr": {"T": {"type": "DT_FLOAT"}}}, {"name": "StatefulPartitionedCall/model/tf.math.multiply_19/Mul", "op": "Mul", "input": ["StatefulPartitionedCall/model/dense_10/BiasAdd", "StatefulPartitionedCall/model/tf.math.tanh_5/Tanh"], "attr": {"_has_manual_control_dependencies": {"b": true}, "T": {"type": "DT_FLOAT"}}}, {"name": "StatefulPartitionedCall/model/tf.compat.v1.norm_5/norm/ArithmeticOptimizer/ReplaceMulWithSquare_mul", "op": "Square", "input": ["StatefulPartitionedCall/model/tf.math.multiply_19/Mul"], "attr": {"T": {"type": "DT_FLOAT"}}}, {"name": "StatefulPartitionedCall/model/weight_layer_29/StatefulPartitionedCall/Identity", "op": "Const", "input": ["^StatefulPartitionedCall/model/tf.math.multiply_19/Mul"], "attr": {"value": {"tensor": {"dtype": "DT_FLOAT", "tensorShape": {"dim": [{"size": "1"}, {"size": "1"}, {"size": "1"}, {"size": "1280"}]}}}, "dtype": {"type": "DT_FLOAT"}}}, {"name": "StatefulPartitionedCall/model/weight_layer_28/StatefulPartitionedCall/Identity", "op": "Const", "input": ["^StatefulPartitionedCall/model/tf.math.multiply_19/Mul"], "attr": {"value": {"tensor": {"dtype": "DT_FLOAT", "tensorShape": {"dim": [{"size": "1"}, {"size": "1"}, {"size": "1"}, {"size": "1280"}]}}}, "dtype": {"type": "DT_FLOAT"}}}, {"name": "StatefulPartitionedCall/model/tf.compat.v1.norm_5/norm/Sum", "op": "Sum", "input": ["StatefulPartitionedCall/model/tf.compat.v1.norm_5/norm/ArithmeticOptimizer/ReplaceMulWithSquare_mul", "StatefulPartitionedCall/model/tf.compat.v1.norm_5/norm/Sum/reduction_indices"], "attr": {"T": {"type": "DT_FLOAT"}, "Tidx": {"type": "DT_INT32"}, "keep_dims": {"b": true}}}, {"name": "StatefulPartitionedCall/model/tf.compat.v1.norm_5/norm/Sqrt", "op": "Sqrt", "input": ["StatefulPartitionedCall/model/tf.compat.v1.norm_5/norm/Sum"], "attr": {"T": {"type": "DT_FLOAT"}}}, {"name": "StatefulPartitionedCall/model/tf.math.reduce_mean_11/Mean", "op": "Mean", "input": ["StatefulPartitionedCall/model/tf.compat.v1.norm_5/norm/Sqrt", "StatefulPartitionedCall/model/tf.math.reduce_mean_11/Mean/reduction_indices"], "attr": {"Tidx": {"type": "DT_INT32"}, "T": {"type": "DT_FLOAT"}, "keep_dims": {"b": true}}}, {"name": "StatefulPartitionedCall/model/tf.math.add_8/Add", "op": "AddV2", "input": ["StatefulPartitionedCall/model/tf.math.reduce_mean_11/Mean", "unknown_80"], "attr": {"T": {"type": "DT_FLOAT"}}}, {"name": "StatefulPartitionedCall/model/tf.math.truediv_8/truediv", "op": "RealDiv", "input": ["StatefulPartitionedCall/model/tf.compat.v1.norm_5/norm/Sqrt", "StatefulPartitionedCall/model/tf.math.add_8/Add"], "attr": {"T": {"type": "DT_FLOAT"}}}, {"name": "StatefulPartitionedCall/model/tf.math.multiply_20/Mul", "op": "Mul", "input": ["StatefulPartitionedCall/model/weight_layer_28/StatefulPartitionedCall/Identity", "StatefulPartitionedCall/model/tf.math.truediv_8/truediv"], "attr": {"_grappler_ArithmeticOptimizer_MinimizeBroadcasts": {"b": true}, "T": {"type": "DT_FLOAT"}}}, {"name": "StatefulPartitionedCall/model/tf.math.multiply_21/Mul", "op": "Mul", "input": ["StatefulPartitionedCall/model/tf.math.multiply_20/Mul", "StatefulPartitionedCall/model/tf.math.multiply_19/Mul"], "attr": {"_grappler_ArithmeticOptimizer_MinimizeBroadcasts": {"b": true}, "T": {"type": "DT_FLOAT"}}}, {"name": "StatefulPartitionedCall/model/tf.__operators__.add_19/ArithmeticOptimizer/AddOpsRewrite_Leaf_1_Add", "op": "AddN", "input": ["StatefulPartitionedCall/model/tf.math.multiply_21/Mul", "StatefulPartitionedCall/model/tf.math.multiply_19/Mul"], "attr": {"N": {"i": "2"}, "T": {"type": "DT_FLOAT"}, "_grappler_ArithmeticOptimizer_AddOpsRewriteStage": {"b": true}}}, {"name": "StatefulPartitionedCall/model/tf.__operators__.add_19/ArithmeticOptimizer/AddOpsRewrite_Add", "op": "AddV2", "input": ["StatefulPartitionedCall/model/weight_layer_29/StatefulPartitionedCall/Identity", "StatefulPartitionedCall/model/tf.__operators__.add_19/ArithmeticOptimizer/AddOpsRewrite_Leaf_1_Add"], "attr": {"T": {"type": "DT_FLOAT"}, "_grappler_ArithmeticOptimizer_AddOpsRewriteStage": {"b": true}}}, {"name": "StatefulPartitionedCall/model/dense_11/Tensordot/Reshape", "op": "Reshape", "input": ["StatefulPartitionedCall/model/tf.__operators__.add_19/ArithmeticOptimizer/AddOpsRewrite_Add", "StatefulPartitionedCall/model/dense_11/Tensordot/Reshape/shape"], "attr": {"T": {"type": "DT_FLOAT"}, "Tshape": {"type": "DT_INT32"}}}, {"name": "StatefulPartitionedCall/model/dense_11/Tensordot/MatMul", "op": "MatMul", "input": ["StatefulPartitionedCall/model/dense_11/Tensordot/Reshape", "StatefulPartitionedCall/model/dense_11/Tensordot/ReadVariableOp"], "device": "/device:CPU:0", "attr": {"transpose_a": {"b": false}, "T": {"type": "DT_FLOAT"}, "transpose_b": {"b": false}}}, {"name": "StatefulPartitionedCall/model/dense_11/Tensordot", "op": "Reshape", "input": ["StatefulPartitionedCall/model/dense_11/Tensordot/MatMul", "StatefulPartitionedCall/model/dense_11/Tensordot/shape"], "attr": {"T": {"type": "DT_FLOAT"}, "Tshape": {"type": "DT_INT32"}}}, {"name": "StatefulPartitionedCall/model/dense_11/BiasAdd", "op": "BiasAdd", "input": ["StatefulPartitionedCall/model/dense_11/Tensordot", "StatefulPartitionedCall/model/dense_11/BiasAdd/ReadVariableOp"], "attr": {"data_format": {"s": "TkhXQw=="}, "T": {"type": "DT_FLOAT"}}}, {"name": "StatefulPartitionedCall/model/tf.__operators__.add_20/Add", "op": "AddV2", "input": ["StatefulPartitionedCall/model/tf.__operators__.add_17/Add", "StatefulPartitionedCall/model/dense_11/BiasAdd"], "attr": {"T": {"type": "DT_FLOAT"}}}, {"name": "StatefulPartitionedCall/model/zero_padding2d_6/Pad", "op": "Pad", "input": ["StatefulPartitionedCall/model/tf.__operators__.add_20/Add", "StatefulPartitionedCall/model/zero_padding2d_6/Pad/paddings"], "attr": {"Tpaddings": {"type": "DT_INT32"}, "T": {"type": "DT_FLOAT"}}}, {"name": "StatefulPartitionedCall/model/depthwise_conv2d_6/depthwise", "op": "FusedDepthwiseConv2dNative", "input": ["StatefulPartitionedCall/model/zero_padding2d_6/Pad", "StatefulPartitionedCall/model/depthwise_conv2d_6/depthwise/ReadVariableOp", "StatefulPartitionedCall/model/depthwise_conv2d_6/BiasAdd/ReadVariableOp"], "attr": {"padding": {"s": "VkFMSUQ="}, "data_format": {"s": "TkhXQw=="}, "strides": {"list": {"i": ["1", "1", "1", "1"]}}, "num_args": {"i": "1"}, "fused_ops": {"list": {"s": ["Qmlhc0FkZA=="]}}, "T": {"type": "DT_FLOAT"}, "explicit_paddings": {"list": {}}, "dilations": {"list": {"i": ["1", "1", "1", "1"]}}}}, {"name": "StatefulPartitionedCall/model/layer_normalization_6/moments/mean", "op": "Mean", "input": ["StatefulPartitionedCall/model/depthwise_conv2d_6/depthwise", "StatefulPartitionedCall/model/layer_normalization_6/moments/mean/reduction_indices"], "attr": {"T": {"type": "DT_FLOAT"}, "Tidx": {"type": "DT_INT32"}, "keep_dims": {"b": true}}}, {"name": "StatefulPartitionedCall/model/layer_normalization_6/moments/SquaredDifference", "op": "SquaredDifference", "input": ["StatefulPartitionedCall/model/depthwise_conv2d_6/depthwise", "StatefulPartitionedCall/model/layer_normalization_6/moments/mean"], "attr": {"T": {"type": "DT_FLOAT"}}}, {"name": "StatefulPartitionedCall/model/layer_normalization_6/moments/variance", "op": "Mean", "input": ["StatefulPartitionedCall/model/layer_normalization_6/moments/SquaredDifference", "StatefulPartitionedCall/model/layer_normalization_6/moments/variance/reduction_indices"], "attr": {"Tidx": {"type": "DT_INT32"}, "T": {"type": "DT_FLOAT"}, "keep_dims": {"b": true}}}, {"name": "StatefulPartitionedCall/model/layer_normalization_6/batchnorm/add", "op": "AddV2", "input": ["StatefulPartitionedCall/model/layer_normalization_6/moments/variance", "StatefulPartitionedCall/model/layer_normalization_6/batchnorm/add/y"], "attr": {"T": {"type": "DT_FLOAT"}}}, {"name": "StatefulPartitionedCall/model/layer_normalization_6/batchnorm/Rsqrt", "op": "Rsqrt", "input": ["StatefulPartitionedCall/model/layer_normalization_6/batchnorm/add"], "attr": {"T": {"type": "DT_FLOAT"}}}, {"name": "StatefulPartitionedCall/model/layer_normalization_6/b…
l"], "attr": {"value": {"tensor": {"dtype": "DT_FLOAT", "tensorShape": {"dim": [{"size": "1"}, {"size": "1"}, {"size": "1"}, {"size": "2560"}]}}}, "dtype": {"type": "DT_FLOAT"}}}, {"name": "StatefulPartitionedCall/model/weight_layer_62/StatefulPartitionedCall/Identity", "op": "Const", "input": ["^StatefulPartitionedCall/model/tf.math.multiply_44/Mul"], "attr": {"value": {"tensor": {"dtype": "DT_FLOAT", "tensorShape": {"dim": [{"size": "1"}, {"size": "1"}, {"size": "1"}, {"size": "2560"}]}}}, "dtype": {"type": "DT_FLOAT"}}}, {"name": "StatefulPartitionedCall/model/tf.compat.v1.norm_13/norm/Sum", "op": "Sum", "input": ["StatefulPartitionedCall/model/tf.compat.v1.norm_13/norm/ArithmeticOptimizer/ReplaceMulWithSquare_mul", "StatefulPartitionedCall/model/tf.compat.v1.norm_13/norm/Sum/reduction_indices"], "attr": {"Tidx": {"type": "DT_INT32"}, "T": {"type": "DT_FLOAT"}, "keep_dims": {"b": true}}}, {"name": "StatefulPartitionedCall/model/tf.compat.v1.norm_13/norm/Sqrt", "op": "Sqrt", "input": ["StatefulPartitionedCall/model/tf.compat.v1.norm_13/norm/Sum"], "attr": {"T": {"type": "DT_FLOAT"}}}, {"name": "StatefulPartitionedCall/model/tf.math.reduce_mean_21/Mean", "op": "Mean", "input": ["StatefulPartitionedCall/model/tf.compat.v1.norm_13/norm/Sqrt", "StatefulPartitionedCall/model/tf.math.reduce_mean_21/Mean/reduction_indices"], "attr": {"T": {"type": "DT_FLOAT"}, "Tidx": {"type": "DT_INT32"}, "keep_dims": {"b": true}}}, {"name": "StatefulPartitionedCall/model/tf.math.add_17/Add", "op": "AddV2", "input": ["StatefulPartitionedCall/model/tf.math.reduce_mean_21/Mean", "unknown_174"], "attr": {"T": {"type": "DT_FLOAT"}}}, {"name": "StatefulPartitionedCall/model/tf.math.truediv_17/truediv", "op": "RealDiv", "input": ["StatefulPartitionedCall/model/tf.compat.v1.norm_13/norm/Sqrt", "StatefulPartitionedCall/model/tf.math.add_17/Add"], "attr": {"T": {"type": "DT_FLOAT"}}}, {"name": "StatefulPartitionedCall/model/tf.math.multiply_45/Mul", "op": "Mul", "input": ["StatefulPartitionedCall/model/weight_layer_62/StatefulPartitionedCall/Identity", "StatefulPartitionedCall/model/tf.math.truediv_17/truediv"], "attr": {"_grappler_ArithmeticOptimizer_MinimizeBroadcasts": {"b": true}, "T": {"type": "DT_FLOAT"}}}, {"name": "StatefulPartitionedCall/model/tf.math.multiply_46/Mul", "op": "Mul", "input": ["StatefulPartitionedCall/model/tf.math.multiply_45/Mul", "StatefulPartitionedCall/model/tf.math.multiply_44/Mul"], "attr": {"_grappler_ArithmeticOptimizer_MinimizeBroadcasts": {"b": true}, "T": {"type": "DT_FLOAT"}}}, {"name": "StatefulPartitionedCall/model/tf.__operators__.add_44/ArithmeticOptimizer/AddOpsRewrite_Leaf_1_Add", "op": "AddN", "input": ["StatefulPartitionedCall/model/tf.math.multiply_46/Mul", "StatefulPartitionedCall/model/tf.math.multiply_44/Mul"], "attr": {"N": {"i": "2"}, "T": {"type": "DT_FLOAT"}, "_grappler_ArithmeticOptimizer_AddOpsRewriteStage": {"b": true}}}, {"name": "StatefulPartitionedCall/model/tf.__operators__.add_44/ArithmeticOptimizer/AddOpsRewrite_Add", "op": "AddV2", "input": ["StatefulPartitionedCall/model/weight_layer_63/StatefulPartitionedCall/Identity", "StatefulPartitionedCall/model/tf.__operators__.add_44/ArithmeticOptimizer/AddOpsRewrite_Leaf_1_Add"], "attr": {"T": {"type": "DT_FLOAT"}, "_grappler_ArithmeticOptimizer_AddOpsRewriteStage": {"b": true}}}, {"name": "StatefulPartitionedCall/model/dense_27/Tensordot/Reshape", "op": "Reshape", "input": ["StatefulPartitionedCall/model/tf.__operators__.add_44/ArithmeticOptimizer/AddOpsRewrite_Add", "StatefulPartitionedCall/model/dense_27/Tensordot/Reshape/shape"], "attr": {"T": {"type": "DT_FLOAT"}, "Tshape": {"type": "DT_INT32"}}}, {"name": "StatefulPartitionedCall/model/dense_27/Tensordot/MatMul", "op": "MatMul", "input": ["StatefulPartitionedCall/model/dense_27/Tensordot/Reshape", "StatefulPartitionedCall/model/dense_27/Tensordot/ReadVariableOp"], "device": "/device:CPU:0", "attr": {"transpose_a": {"b": false}, "T": {"type": "DT_FLOAT"}, "transpose_b": {"b": false}}}, {"name": "StatefulPartitionedCall/model/dense_27/Tensordot", "op": "Reshape", "input": ["StatefulPartitionedCall/model/dense_27/Tensordot/MatMul", "StatefulPartitionedCall/model/dense_27/Tensordot/shape"], "attr": {"T": {"type": "DT_FLOAT"}, "Tshape": {"type": "DT_INT32"}}}, {"name": "StatefulPartitionedCall/model/dense_27/BiasAdd", "op": "BiasAdd", "input": ["StatefulPartitionedCall/model/dense_27/Tensordot", "StatefulPartitionedCall/model/dense_27/BiasAdd/ReadVariableOp"], "attr": {"data_format": {"s": "TkhXQw=="}, "T": {"type": "DT_FLOAT"}}}, {"name": "StatefulPartitionedCall/model/tf.__operators__.add_45/Add", "op": "AddV2", "input": ["StatefulPartitionedCall/model/tf.__operators__.add_42/Add", "StatefulPartitionedCall/model/dense_27/BiasAdd"], "attr": {"T": {"type": "DT_FLOAT"}}}, {"name": "StatefulPartitionedCall/model/conv2d_4/Conv2D", "op": "Conv2D", "input": ["StatefulPartitionedCall/model/tf.__operators__.add_45/Add", "StatefulPartitionedCall/model/conv2d_4/Conv2D/ReadVariableOp"], "device": "/device:CPU:0", "attr": {"padding": {"s": "VkFMSUQ="}, "data_format": {"s": "TkhXQw=="}, "use_cudnn_on_gpu": {"b": true}, "strides": {"list": {"i": ["1", "1", "1", "1"]}}, "T": {"type": "DT_FLOAT"}, "explicit_paddings": {"list": {}}, "dilations": {"list": {"i": ["1", "1", "1", "1"]}}}}, {"name": "StatefulPartitionedCall/model/conv2d_4/BiasAdd", "op": "BiasAdd", "input": ["StatefulPartitionedCall/model/conv2d_4/Conv2D", "StatefulPartitionedCall/model/conv2d_4/BiasAdd/ReadVariableOp"], "attr": {"_has_manual_control_dependencies": {"b": true}, "T": {"type": "DT_FLOAT"}, "data_format": {"s": "TkhXQw=="}}}, {"name": "StatefulPartitionedCall/model/tf.math.reduce_mean_22/Mean", "op": "Mean", "input": ["StatefulPartitionedCall/model/conv2d_4/BiasAdd", "StatefulPartitionedCall/model/tf.math.reduce_mean_22/Mean/reduction_indices"], "attr": {"Tidx": {"type": "DT_INT32"}, "T": {"type": "DT_FLOAT"}, "keep_dims": {"b": true}}}, {"name": "StatefulPartitionedCall/model/weight_layer_64/StatefulPartitionedCall/Identity", "op": "Const", "input": ["^StatefulPartitionedCall/model/conv2d_4/BiasAdd"], "attr": {"value": {"tensor": {"dtype": "DT_FLOAT", "tensorShape": {"dim": [{"size": "32"}, {"size": "1"}, {"size": "1"}]}}}, "dtype": {"type": "DT_FLOAT"}}}, {"name": "StatefulPartitionedCall/model/weight_layer_65/StatefulPartitionedCall/Identity", "op": "Const", "input": ["^StatefulPartitionedCall/model/conv2d_4/BiasAdd"], "attr": {"value": {"tensor": {"dtype": "DT_FLOAT", "tensorShape": {"dim": [{"size": "32"}, {"size": "1"}, {"size": "1"}]}}}, "dtype": {"type": "DT_FLOAT"}}}, {"name": "StatefulPartitionedCall/model/tf.math.subtract_10/Sub", "op": "Sub", "input": ["StatefulPartitionedCall/model/conv2d_4/BiasAdd", "StatefulPartitionedCall/model/tf.math.reduce_mean_22/Mean"], "attr": {"T": {"type": "DT_FLOAT"}}}, {"name": "StatefulPartitionedCall/model/tf.math.subtract_9/Sub", "op": "SquaredDifference", "input": ["StatefulPartitionedCall/model/conv2d_4/BiasAdd", "StatefulPartitionedCall/model/tf.math.reduce_mean_22/Mean"], "attr": {"T": {"type": "DT_FLOAT"}}}, {"name": "StatefulPartitionedCall/model/tf.math.reduce_mean_23/Mean", "op": "Mean", "input": ["StatefulPartitionedCall/model/tf.math.subtract_9/Sub", "StatefulPartitionedCall/model/tf.math.reduce_mean_23/Mean/reduction_indices"], "attr": {"Tidx": {"type": "DT_INT32"}, "T": {"type": "DT_FLOAT"}, "keep_dims": {"b": true}}}, {"name": "StatefulPartitionedCall/model/tf.math.add_18/Add", "op": "AddV2", "input": ["StatefulPartitionedCall/model/tf.math.reduce_mean_23/Mean", "unknown_182"], "attr": {"T": {"type": "DT_FLOAT"}}}, {"name": "StatefulPartitionedCall/model/tf.math.sqrt_4/Sqrt", "op": "Rsqrt", "input": ["StatefulPartitionedCall/model/tf.math.add_18/Add"], "attr": {"T": {"type": "DT_FLOAT"}}}, {"name": "StatefulPartitionedCall/model/tf.math.truediv_18/truediv", "op": "Mul", "input": ["StatefulPartitionedCall/model/tf.math.subtract_10/Sub", "StatefulPartitionedCall/model/tf.math.sqrt_4/Sqrt"], "attr": {"T": {"type": "DT_FLOAT"}}}, {"name": "StatefulPartitionedCall/model/tf.compat.v1.transpose_9/transpose", "op": "Transpose", "input": ["StatefulPartitionedCall/model/tf.math.truediv_18/truediv", "StatefulPartitionedCall/model/tf.compat.v1.transpose_9/transpose/perm"], "attr": {"Tperm": {"type": "DT_INT32"}, "T": {"type": "DT_FLOAT"}}}, {"name": "StatefulPartitionedCall/model/tf.math.multiply_47/Mul", "op": "Mul", "input": ["StatefulPartitionedCall/model/weight_layer_64/StatefulPartitionedCall/Identity", "StatefulPartitionedCall/model/tf.compat.v1.transpose_9/transpose"], "attr": {"T": {"type": "DT_FLOAT"}}}, {"name": "StatefulPartitionedCall/model/tf.__operators__.add_46/Add", "op": "AddV2", "input": ["StatefulPartitionedCall/model/tf.math.multiply_47/Mul", "StatefulPartitionedCall/model/weight_layer_65/StatefulPartitionedCall/Identity"], "attr": {"T": {"type": "DT_FLOAT"}}}, {"name": "StatefulPartitionedCall/model/tf.reshape/Reshape", "op": "Reshape", "input": ["StatefulPartitionedCall/model/tf.__operators__.add_46/Add", "StatefulPartitionedCall/model/tf.reshape/Reshape/shape"], "attr": {"T": {"type": "DT_FLOAT"}, "Tshape": {"type": "DT_INT32"}}}, {"name": "StatefulPartitionedCall/model/dense_28/BiasAdd", "op": "_FusedMatMul", "input": ["StatefulPartitionedCall/model/tf.reshape/Reshape", "StatefulPartitionedCall/model/dense_28/MatMul/ReadVariableOp", "StatefulPartitionedCall/model/dense_28/BiasAdd/ReadVariableOp"], "device": "/device:CPU:0", "attr": {"transpose_a": {"b": false}, "transpose_b": {"b": false}, "fused_ops": {"list": {"s": ["Qmlhc0FkZA=="]}}, "leakyrelu_alpha": {"f": 0.2}, "num_args": {"i": "1"}, "epsilon": {"f": 0.0}, "T": {"type": "DT_FLOAT"}}}, {"name": "Identity", "op": "Identity", "input": ["StatefulPartitionedCall/model/dense_28/BiasAdd"], "attr": {"T": {"type": "DT_FLOAT"}}}], "library": {}, "versions": {"producer": 1575}}, "weightsManifest": [{"paths": ["group1-shard1of15.bin", "group1-shard2of15.bin", "group1-shard3of15.bin", "group1-shard4of15.bin", "group1-shard5of15.bin", "group1-shard6of15.bin", "group1-shard7of15.bin", "group1-shard8of15.bin", "group1-shard9of15.bin", "group1-shard10of15.bin", "group1-shard11of15.bin", "group1-shard12of15.bin", "group1-shard13of15.bin", "group1-shard14of15.bin", "group1-shard15of15.bin"], "weights": [{"name": "StatefulPartitionedCall/model/tf.math.reduce_mean_22/Mean/reduction_indices", "shape": [1], "dtype": "int32"}, {"name": "StatefulPartitionedCall/model/tf.math.reduce_mean_23/Mean/reduction_indices", "shape": [1], "dtype": "int32"}, {"name": "unknown_182", "shape": [], "dtype": "float32"}, {"name": "StatefulPartitionedCall/model/tf.compat.v1.transpose_9/transpose/perm", "shape": [4], "dtype": "int32"}, {"name": "StatefulPartitionedCall/model/tf.compat.v1.norm_13/norm/Sum/reduction_indices", "shape": [2], "dtype": "int32"}, {"name": "StatefulPartitionedCall/model/tf.math.reduce_mean_21/Mean/reduction_indices", "shape": [1], "dtype": "int32"}, {"name": "unknown_174", "shape": [], "dtype": "float32"}, {"name": "StatefulPartitionedCall/model/layer_normalization_13/batchnorm/ReadVariableOp", "shape": [640], "dtype": "float32"}, {"name": "StatefulPartitionedCall/model/tf.compat.v1.norm_12/norm/Sum/reduction_indices", "shape": [2], "dtype": "int32"}, {"name": "StatefulPartitionedCall/model/tf.math.reduce_mean_20/Mean/reduction_indices", "shape": [1], "dtype": "int32"}, {"name": "unknown_163", "shape": [], "dtype": "float32"}, {"name": "StatefulPartitionedCall/model/layer_normalization_12/batchnorm/ReadVariableOp", "shape": [640], "dtype": "float32"}, {"name": "StatefulPartitionedCall/model/tf.math.reduce_mean_18/Mean/reduction_indices", "shape": [1], "dtype": "int32"}, {"name": "StatefulPartitionedCall/model/tf.math.reduce_mean_19/Mean/reduction_indices", "shape": [1], "dtype": "int32"}, {"name": "unknown_152", "shape": [], "dtype": "float32"}, {"name": "StatefulPartitionedCall/model/tf.compat.v1.transpose_7/transpose/perm", "shape": [4], "dtype": "int32"}, {"name": "StatefulPartitionedCall/model/tf.compat.v1.norm_11/norm/Sum/reduction_indices", "shape": [2], "dtype": "int32"}, {"name": "StatefulPartitionedCall/model/tf.math.reduce_mean_17/Mean/reduction_indices", "shape": [1], "dtype": "int32"}, {"name": "unknown_146", "shape": [], "dtype": "float32"}, {"name": "StatefulPartitionedCall/model/layer_normalization_11/batchnorm/ReadVariableOp", "shape": [320], "dtype": "float32"}, {"name": "StatefulPartitionedCall/model/tf.compat.v1.norm_10/norm/Sum/reduction_indices", "shape": [2], "dtype": "int32"}, {"name": "StatefulPartitionedCall/model/tf.math.reduce_mean_16/Mean/reduction_indices", "shape": [1], "dtype": "int32"}, {"name": "unknown_135", "shape": [], "dtype": "float32"}, {"name": "StatefulPartitionedCall/model/layer_normalization_10/batchnorm/ReadVariableOp", "shape": [320], "dtype": "float32"}, {"name": "StatefulPartitionedCall/model/tf.compat.v1.norm_9/norm/Sum/reduction_indices", "shape": [2], "dtype": "int32"}, {"name": "StatefulPartitionedCall/model/tf.math.reduce_mean_15/Mean/reduction_indices", "shape": [1], "dtype": "int32"}, {"name": "unknown_124", "shape": [], "dtype": "float32"}, {"name": "StatefulPartitionedCall/model/layer_normalization_9/batchnorm/ReadVariableOp", "shape": [320], "dtype": "float32"}, {"name": "StatefulPartitionedCall/model/tf.compat.v1.norm_8/norm/Sum/reduction_indices", "shape": [2], "dtype": "int32"}, {"name": "StatefulPartitionedCall/model/tf.math.reduce_mean_14/Mean/reduction_indices", "shape": [1], "dtype": "int32"}, {"name": "unknown_113", "shape": [], "dtype": "float32"}, {"name": "StatefulPartitionedCall/model/layer_normalization_8/batchnorm/ReadVariableOp", "shape": [320], "dtype": "float32"}, {"name": "StatefulPartitionedCall/model/tf.compat.v1.norm_7/norm/Sum/reduction_indices", "shape": [2], "dtype": "int32"}, {"name": "StatefulPartitionedCall/model/tf.math.reduce_mean_13/Mean/reduction_indices", "shape": [1], "dtype": "int32"}, {"name": "unknown_102", "shape": [], "dtype": "float32"}, {"name": "StatefulPartitionedCall/model/layer_normalization_7/batchnorm/ReadVariableOp", "shape": [320], "dtype": "float32"}, {"name": "StatefulPartitionedCall/model/tf.compat.v1.norm_6/norm/Sum/reduction_indices", "shape": [2], "dtype": "int32"}, {"name": "StatefulPartitionedCall/model/tf.math.reduce_mean_12/Mean/reduction_indices", "shape": [1], "dtype": "int32"}, {"name": "unknown_91", "shape": [], "dtype": "float32"}, {"name": "StatefulPartitionedCall/model/layer_normalization_6/batchnorm/ReadVariableOp", "shape": [320], "dtype": "float32"}, {"name": "StatefulPartitionedCall/model/tf.compat.v1.norm_5/norm/Sum/reduction_indices", "shape": [2], "dtype": "int32"}, {"name": "StatefulPartitionedCall/model/tf.math.reduce_mean_11/Mean/reduction_indices", "shape": [1], "dtype": "int32"}, {"name": "unknown_80", "shape": [], "dtype": "float32"}, {"name": "StatefulPartitionedCall/model/layer_normalization_5/batchnorm/ReadVariableOp", "shape": [320], "dtype": "float32"}, {"name": "StatefulPartitionedCall/model/tf.compat.v1.norm_4/norm/Sum/reduction_indices", "shape": [2], "dtype": "int32"}, {"name": "StatefulPartitionedCall/model/tf.math.reduce_mean_10/Mean/reduction_indices", "shape": [1], "dtype": "int32"}, {"name": "unknown_69", "shape": [], "dtype": "float32"}, {"name": "StatefulPartitionedCall/model/layer_normalization_4/batchnorm/ReadVariableOp", "shape": [320], "dtype": "float32"}, {"name": "StatefulPartitionedCall/model/tf.math.reduce_mean_8/Mean/reduction_indices", "shape": [1], "dtype": "int32"}, {"name": "StatefulPartitionedCall/model/tf.math.reduce_mean_9/Mean/reduction_indices", "shape": [1], "dtype": "int32"}, {"name": "unknown_58", "shape": [], "dtype": "float32"}, {"name": "StatefulPartitionedCall/model/tf.compat.v1.transpose_5/transpose/perm", "shape": [4], "dtype": "int32"}, {"name": "StatefulPartitionedCall/model/tf.compat.v1.norm_3/norm/Sum/reduction_indices", "shape": [2], "dtype": "int32"}, {"name": "StatefulPartitionedCall/model/tf.math.reduce_mean_7/Mean/reduction_indices", "shape": [1], "dtype": "int32"}, {"name": "unknown_52", "shape": [], "dtype": "float32"}, {"name": "StatefulPartitionedCall/model/layer_normalization_3/batchnorm/ReadVariableOp", "shape": [160], "dtype": "float32"}, {"name": "StatefulPartitionedCall/model/tf.compat.v1.norm_2/norm/Sum/reduction_indices", "shape": [2], "dtype": "int32"}, {"name": "StatefulPartitionedCall/model/tf.math.reduce_mean_6/Mean/reduction_indices", "shape": [1], "dtype": "int32"}, {"name": "unknown_41", "shape": [], "dtype": "float32"}, {"name": "StatefulPartitionedCall/model/layer_normalization_2/batchnorm/ReadVariableOp", "shape": [160], "dtype": "float32"}, {"name": "StatefulPartitionedCall/model/tf.math.reduce_mean_4/Mean/reduction_indices", "shape": [1], "dtype": "int32"}, {"name": "StatefulPartitionedCall/model/tf.math.reduce_mean_5/Mean/reduction_indices", "shape": [1], "dtype": "int32"}, {"name": "unknown_30", "shape": [], "dtype": "float32"}, {"name": "StatefulPartitionedCall/model/tf.compat.v1.transpose_3/transpose/perm", "shape": [4], "dtype": "int32"}, {"name": "StatefulPartitionedCall/model/tf.compat.v1.norm_1/norm/Sum/reduction_indices", "shape": [2], "dtype": "int32"}, {"name": "StatefulPartitionedCall/model/tf.math.reduce_mean_3/Mean/reduction_indices", "shape": [1], "dtype": "int32"}, {"name": "unknown_24", "shape": [], "dtype": "float32"}, {"name": "StatefulPartitionedCall/model/layer_normalization_1/batchnorm/ReadVariableOp", "shape": [80], "dtype": "float32"}, {"name": "StatefulPartitionedCall/model/tf.compat.v1.transpose_2/transpose/perm", "shape": [4], "dtype": "int32"}, {"name": "StatefulPartitionedCall/model/tf.compat.v1.norm/norm/Sum/reduction_indices", "shape": [2], "dtype": "int32"}, {"name": "StatefulPartitionedCall/model/tf.math.reduce_mean_2/Mean/reduction_indices", "shape": [1], "dtype": "int32"}, {"name": "unknown_13", "shape": [], "dtype": "float32"}, {"name": "StatefulPartitionedCall/model/layer_normalization/batchnorm/ReadVariableOp", "shape": [80], "dtype": "float32"}, {"name": "StatefulPartitionedCall/model/tf.math.reduce_mean/Mean/reduction_indices", "shape": [1], "dtype": "int32"}, {"name": "StatefulPartitionedCall/model/tf.math.reduce_mean_1/Mean/reduction_indices", "shape": [1], "dtype": "int32"}, {"name": "unknown_4", "shape": [], "dtype": "float32"}, {"name": "StatefulPartitionedCall/model/tf.compat.v1.transpose/transpose/perm", "shape": [4], "dtype": "int32"}, {"name": "unknown", "shape": [], "dtype": "float32"}, {"name": "unknown_0", "shape": [], "dtype": "float32"}, {"name": "StatefulPartitionedCall/model/conv2d/Conv2D/ReadVariableOp", "shape": [4, 4, 3, 80], "dtype": "float32"}, {"name": "StatefulPartitionedCall/model/conv2d/BiasAdd/ReadVariableOp", "shape": [80], "dtype": "float32"}, {"name": "StatefulPartitionedCall/model/tf.compat.v1.transpose_1/transpose/perm", "shape": [4], "dtype": "int32"}, {"name": "StatefulPartitionedCall/model/zero_padding2d/Pad/paddings", "shape": [4, 2], "dtype": "int32"}, {"name": "StatefulPartitionedCall/model/depthwise_conv2d/depthwise/ReadVariableOp", "shape": [7, 7, 80, 1], "dtype": "float32"}, {"name": "StatefulPartitionedCall/model/depthwise_conv2d/BiasAdd/ReadVariableOp", "shape": [80], "dtype": "float32"}, {"name": "StatefulPartitionedCall/model/layer_normalization/moments/mean/reduction_indices", "shape": [1], "dtype": "int32"}, {"name": "StatefulPartitionedCall/model/layer_normalization/moments/variance/reduction_indices", "shape": [1], "dtype": "int32"}, {"name": "StatefulPartitionedCall/model/layer_normalization/batchnorm/add/y", "shape": [], "dtype": "float32"}, {"name": "StatefulPartitionedCall/model/layer_normalization/batchnorm/mul/ReadVariableOp", "shape": [80], "dtype": "float32"}, {"name": "StatefulPartitionedCall/model/dense/Tensordot/Reshape/shape", "shape": [2], "dtype": "int32"}, {"name": "StatefulPartitionedCall/model/dense/Tensordot/ReadVariableOp", "shape": [80, 320], "dtype": "float32"}, {"name": "StatefulPartitionedCall/model/dense/Tensordot/shape", "shape": [4], "dtype": "int32"}, {"name": "StatefulPartitionedCall/model/dense/BiasAdd/ReadVariableOp", "shape": [320], "dtype": "float32"}, {"name": "StatefulPartitionedCall/model/dense_1/Tensordot/Reshape/shape", "shape": [2], "dtype": "int32"}, {"name": "StatefulPartitionedCall/model/dense_1/Tensordot/ReadVariableOp", "shape": [320, 80], "dtype": "float32"}, {"name": "StatefulPartitionedCall/model/dense_1/Tensordot/shape", "shape": [4], "dtype": "int32"}, {"name": "StatefulPartitionedCall/model/dense_1/BiasAdd/ReadVariableOp", "shape": [80], "dtype": "float32"}, {"name": "StatefulPartitionedCall/model/zero_padding2d_1/Pad/paddings", "shape": [4, 2], "dtype": "int32"}, {"name": "StatefulPartitionedCall/model/depthwise_conv2d_1/depthwise/ReadVariableOp", "shape": [7, 7, 80, 1], "dtype": "float32"}, {"name": "StatefulPartitionedCall/model/depthwise_conv2d_1/BiasAdd/ReadVariableOp", "shape": [80], "dtype": "float32"}, {"name": "StatefulPartitionedCall/model/layer_normalization_1/moments/mean/reduction_indices", "shape": [1], "dtype": "int32"}, {"name": "StatefulPartitionedCall/model/layer_normalization_1/moments/variance/reduction_indices", "shape": [1], "dtype": "int32"}, {"name": "StatefulPartitionedCall/model/layer_normalization_1/batchnorm/add/y", "shape": [], "dtype": "float32"}, {"name": "StatefulPartitionedCall/model/layer_normalization_1/batchnorm/mul/ReadVariableOp", "shape": [80], "dtype": "float32"}, {"name": "StatefulPartitionedCall/model/dense_2/Tensordot/Reshape/shape", "shape": [2], "dtype": "int32"}, {"name": "StatefulPartitionedCall/model/dense_2/Tensordot/ReadVariableOp", "shape": [80, 320], "dtype": "float32"}, {"name": "StatefulPartitionedCall/model/dense_2/Tensordot/shape", "shape": [4], "dtype": "int32"}, {"name": "StatefulPartitionedCall/model/dense_2/BiasAdd/ReadVariableOp", "shape": [320], "dtype": "float32"}, {"name": "StatefulPartitionedCall/model/dense_3/Tensordot/Reshape/shape", "shape": [2], "dtype": "int32"}, {"name": "StatefulPartitionedCall/model/dense_3/Tensordot/ReadVariableOp", "shape": [320, 80], "dtype": "float32"}, {"name": "StatefulPartitionedCall/model/dense_3/Tensordot/shape", "shape": [4], "dtype": "int32"}, {"name": "StatefulPartitionedCall/model/dense_3/BiasAdd/ReadVariableOp", "shape": [80], "dtype": "float32"}, {"name": "StatefulPartitionedCall/model/tf.compat.v1.transpose_4/transpose/perm", "shape": [4], "dtype": "int32"}, {"name": "StatefulPartitionedCall/model/conv2d_1/Conv2D/ReadVariableOp", "shape": [2, 2, 80, 160], "dtype": "float32"}, {"name": "StatefulPartitionedCall/model/conv2d_1/BiasAdd/ReadVariableOp", "shape": [160], "dtype": "float32"}, {"name": "StatefulPartitionedCall/model/zero_padding2d_2/Pad/paddings", "shape": [4, 2], "dtype": "int32"}, {"name": "StatefulPartitionedCall/model/depthwise_conv2d_2/depthwise/ReadVariableOp", "shape": [7, 7, 160, 1], "dtype": "float32"}, {"name": "StatefulPartitionedCall/model/depthwise_conv2d_2/BiasAdd/ReadVariableOp", "shape": [160], "dtype": "float32"}, {"name": "StatefulPartitionedCall/model/layer_normalization_2/moments/mean/reduction_indices", "shape": [1], "dtype": "int32"}, {"name": "StatefulPartitionedCall/model/layer_normalization_2/moments/variance/reduction_indices", "shape": [1], "dtype": "int32"}, {"name": "StatefulPartitionedCall/model/layer_normalization_2/batchnorm/add/y", "shape": [], "dtype": "float32"}, {"name": "StatefulPartitionedCall/model/layer_normalization_2/batchnorm/mul/ReadVariableOp", "shape": [160], "dtype": "float32"}, {"name": "StatefulPartitionedCall/model/dense_4/Tensordot/Reshape/shape", "shape": [2], "dtype": "int32"}, {"name": "StatefulPartitionedCall/model/dense_4/Tensordot/ReadVariableOp", "shape": [160, 640], "dtype": "float32"}, {"name": "StatefulPartitionedCall/model/dense_4/Tensordot/shape", "shape": [4], "dtype": "int32"}, {"name": "StatefulPartitionedCall/model/dense_4/BiasAdd/ReadVariableOp", "shape": [640], "dtype": "float32"}, {"name": "StatefulPartitionedCall/model/dense_5/Tensordot/Reshape/shape", "shape": [2], "dtype": "int32"}, {"name": "StatefulPartitionedCall/model/dense_5/Tensordot/ReadVariableOp", "shape": [640, 160], "dtype": "float32"}, {"name": "StatefulPartitionedCall/model/dense_5/Tensordot/shape", "shape": [4], "dtype": "int32"}, {"name": "StatefulPartitionedCall/model/dense_5/BiasAdd/ReadVariableOp", "shape": [160], "dtype": "float32"}, {"name": "StatefulPartitionedCall/model/zero_padding2d_3/Pad/paddings", "shape": [4, 2], "dtype": "int32"}, {"name": "StatefulPartitionedCall/model/depthwise_conv2d_3/depthwise/ReadVariableOp", "shape": [7, 7, 160, 1], "dtype": "float32"}, {"name": "StatefulPartitionedCall/model/depthwise_conv2d_3/BiasAdd/ReadVariableOp", "shape": [160], "dtype": "float32"}, {"name": "StatefulPartitionedCall/model/layer_normalization_3/moments/mean/reduction_indices", "shape": [1], "dtype": "int32"}, {"name": "StatefulPartitionedCall/model/layer_normalization_3/moments/variance/reduction_indices", "shape": [1], "dtype": "int32"}, {"name": "StatefulPartitionedCall/model/layer_normalization_3/batchnorm/add/y", "shape": [], "dtype": "float32"}, {"name": "StatefulPartitionedCall/model/layer_normalization_3/batchnorm/mul/ReadVariableOp", "shape": [160], "dtype": "float32"}, {"name": "StatefulPartitionedCall/model/dense_6/Tensordot/Reshape/shape", "shape": [2], "dtype": "int32"}, {"name": "StatefulPartitionedCall/model/dense_6/Tensordot/ReadVariableOp", "shape": [160, 640], "dtype": "float32"}, {"name": "StatefulPartitionedCall/model/dense_6/Tensordot/shape", "shape": [4], "dtype": "int32"}, {"name": "StatefulPartitionedCall/model/dense_6/BiasAdd/ReadVariableOp", "shape": [640], "dtype": "float32"}, {"name": "StatefulPartitionedCall/model/dense_7/Tensordot/Reshape/shape", "shape": [2], "dtype": "int32"}, {"name": "StatefulPartitionedCall/model/dense_7/Tensordot/ReadVariableOp", "shape": [640, 160], "dtype": "float32"}, {"name": "StatefulPartitionedCall/model/dense_7/Tensordot/shape", "shape": [4], "dtype": "int32"}, {"name": "StatefulPartitionedCall/model/dense_7/BiasAdd/ReadVariableOp", "shape": [160], "dtype": "float32"}, {"name": "StatefulPartitionedCall/model/tf.compat.v1.transpose_6/transpose/perm", "shape": [4], "dtype": "int32"}, {"name": "StatefulPartitionedCall/model/conv2d_2/Conv2D/ReadVariableOp", "shape": [2, 2, 160, 320], "dtype": "float32"}, {"name": "StatefulPartitionedCall/model/conv2d_2/BiasAdd/ReadVariableOp", "shape": [320], "dtype": "float32"}, {"name": "StatefulPartitionedCall/model/zero_padding2d_4/Pad/paddings", "shape": [4, 2], "dtype": "int32"}, {"name": "StatefulPartitionedCall/model/depthwise_conv2d_4/depthwise/ReadVariableOp", "shape": [7, 7, 320, 1], "dtype": "float32"}, {"name": "StatefulPartitionedCall/model/depthwise_conv2d_4/BiasAdd/ReadVariableOp", "shape": [320], "dtype": "float32"}, {"name": "StatefulPartitionedCall/model/layer_normalization_4/moments/mean/reduction_indices", "shape": [1], "dtype": "int32"}, {"name": "StatefulPartitionedCall/model/layer_normalization_4/moments/variance/reduction_indices", "shape": [1], "dtype": "int32"}, {"name": "StatefulPartitionedCall/model/layer_normalization_4/batchnorm/add/y", "shape": [], "dtype": "float32"}, {"name": "StatefulPartitionedCall/model/layer_normalization_4/batchnorm/mul/ReadVariableOp", "shape": [320], "dtype": "float32"}, {"name": "StatefulPartitionedCall/model/dense_8/Tensordot/Reshape/shape", "shape": [2], "dtype": "int32"}, {"name": "StatefulPartitionedCall/model/dense_8/Tensordot/ReadVariableOp", "shape": [320, 1280], "dtype": "float32"}, {"name": "StatefulPartitionedCall/model/dense_8/Tensordot/shape", "shape": [4], "dtype": "int32"}, {"name": "StatefulPartitionedCall/model/dense_8/BiasAdd/ReadVariableOp", "shape": [1280], "dtype": "float32"}, {"name": "StatefulPartitionedCall/model/dense_9/Tensordot/Reshape/shape", "shape": [2], "dtype": "int32"}, {"name": "StatefulPartitionedCall/model/dense_9/Tensordot/ReadVariableOp", "shape": [1280, 320], "dtype": "float32"}, {"name": "StatefulPartitionedCall/model/dense_9/Tensordot/shape", "shape": [4], "dtype": "int32"}, {"name": "StatefulPartitionedCall/model/dense_9/BiasAdd/ReadVariableOp", "shape": [320], "dtype": "float32"}, {"name": "StatefulPartitionedCall/model/zero_padding2d_5/Pad/paddings", "shape": [4, 2], "dtype": "int32"}, {"name": "StatefulPartitionedCall/model/depthwise_conv2d_5/depthwise/ReadVariableOp", "shape": [7, 7, 320, 1], "dtype": "float32"}, {"name": "StatefulPartitionedCall/model/depthwise_conv2d_5/BiasAdd/ReadVariableOp", "shape": [320], "dtype": "float32"}, {"name": "StatefulPartitionedCall/model/layer_normalization_5/moments/mean/reduction_indices", "shape": [1], "dtype": "int32"}, {"name": "StatefulPartitionedCall/model/layer_normalization_5/moments/variance/reduction_indices", "shape": [1], "dtype": "int32"}, {"name": "StatefulPartitionedCall/model/layer_normalization_5/batchnorm/add/y", "shape": [], "dtype": "float32"}, {"name": "StatefulPartitionedCall/model/layer_normalization_5/batchnorm/mul/ReadVariableOp", "shape": [320], "dtype": "float32"}, {"name": "StatefulPartitionedCall/model/dense_10/Tensordot/Reshape/shape", "shape": [2], "dtype": "int32"}, {"name": "StatefulPartitionedCall/model/dense_10/Tensordot/ReadVariableOp", "shape": [320, 1280], "dtype": "float32"}, {"name": "StatefulPartitionedCall/model/dense_10/Tensordot/shape", "shape": [4], "dtype": "int32"}, {"name": "StatefulPartitionedCall/model/dense_10/BiasAdd/ReadVariableOp", "shape": [1280], "dtype": "float32"}, {"name": "StatefulPartitionedCall/model/dense_11/Tensordot/Reshape/shape", "shape": [2], "dtype": "int32"}, {"name": "StatefulPartitionedCall/model/dense_11/Tensordot/ReadVariableOp", "shape": [1280, 320], "dtype": "float32"}, {"name": "StatefulPartitionedCall/model/dense_11/Tensordot/shape", "shape": [4], "dtype": "int32"}, {"name": "StatefulPartitionedCall/model/dense_11/BiasAdd/ReadVariableOp", "shape": [320], "dtype": "float32"}, {"name": "StatefulPartitionedCall/model/zero_padding2d_6/Pad/paddings", "shape": [4, 2], "dtype": "int32"}, {"name": "StatefulPartitionedCall/model/depthwise_conv2d_6/depthwise/ReadVariableOp", "shape": [7, 7, 320, 1], "dtype": "float32"}, {"name": "StatefulPartitionedCall/model/depthwise_conv2d_6/BiasAdd/ReadVariableOp", "shape": [320], "dtype": "float32"}, {"name": "StatefulPartitionedCall/model/layer_normalization_6/moments/mean/reduction_indices", "shape": [1], "dtype": "int32"}, {"name": "StatefulPartitionedCall/model/layer_normalization_6/moments/variance/reduction_indices", "shape": [1], "dtype": "int32"}, {"name": "StatefulPartitionedCall/model/layer_normalization_6/batchnorm/add/y", "shape": [], "dtype": "float32"}, {"name": "StatefulPartitionedCall/model/layer_normalization_6/batchnorm/mul/ReadVariableOp", "shape": [320], "dtype": "float32"}, {"name": "StatefulPartitionedCall/model/dense_12/Tensordot/Reshape/shape", "shape": [2], "dtype": "int32"}, {"name": "StatefulPartitionedCall/model/dense_12/Tensordot/ReadVariableOp", "shape": [320, 1280], "dtype": "float32"}, {"name": "StatefulPartitionedCall/model/dense_12/Tensordot/shape", "shape": [4], "dtype": "int32"}, {"name": "StatefulPartitionedCall/model/dense_12/BiasAdd/ReadVariableOp", "shape": [1280], "dtype": "float32"}, {"name": "StatefulPartitionedCall/model/dense_13/Tensordot/Reshape/shape", "shape": [2], "dtype": "int32"}, {"name": "StatefulPartitionedCall/model/dense_13/Tensordot/ReadVariableOp", "shape": [1280, 320], "dtype": "float32"}, {"name": "StatefulPartitionedCall/model/dense_13/Tensordot/shape", "shape": [4], "dtype": "int32"}, {"name": "StatefulPartitionedCall/model/dense_13/BiasAdd/ReadVariableOp", "shape": [320], "dtype": "float32"}, {"name": "StatefulPartitionedCall/model/zero_padding2d_7/Pad/paddings", "shape": [4, 2], "dtype": "int32"}, {"name": "StatefulPartitionedCall/model/depthwise_conv2d_7/depthwise/ReadVariableOp", "shape": [7, 7, 320, 1], "dtype": "float32"}, {"name": "StatefulPartitionedCall/model/depthwise_conv2d_7/BiasAdd/ReadVariableOp", "shape": [320], "dtype": "float32"}, {"name": "StatefulPartitionedCall/model/layer_normalization_7/moments/mean/reduction_indices", "shape": [1], "dtype": "int32"}, {"name": "StatefulPartitionedCall/model/layer_normalization_7/moments/variance/reduction_indices", "shape": [1], "dtype": "int32"}, {"name": "StatefulPartitionedCall/model/layer_normalization_7/batchnorm/add/y", "shape": [], "dtype": "float32"}, {"name": "StatefulPartitionedCall/model/layer_normalization_7/batchnorm/mul/ReadVariableOp", "shape": [320], "dtype": "float32"}, {"name": "StatefulPartitionedCall/model/dense_14/Tensordot/Reshape/shape", "shape": [2], "dtype": "int32"}, {"name": "StatefulPartitionedCall/model/dense_14/Tensordot/ReadVariableOp", "shape": [320, 1280], "dtype": "float32"}, {"name": "StatefulPartitionedCall/model/dense_14/Tensordot/shape", "shape": [4], "dtype": "int32"}, {"name": "StatefulPartitionedCall/model/dense_14/BiasAdd/ReadVariableOp", "shape": [1280], "dtype": "float32"}, {"name": "StatefulPartitionedCall/model/dense_15/Tensordot/Reshape/shape", "shape": [2], "dtype": "int32"}, {"name": "StatefulPartitionedCall/model/dense_15/Tensordot/ReadVariableOp", "shape": [1280, 320], "dtype": "float32"}, {"name": "StatefulPartitionedCall/model/dense_15/Tensordot/shape", "shape": [4], "dtype": "int32"}, {"name": "StatefulPartitionedCall/model/dense_15/BiasAdd/ReadVariableOp", "shape": [320], "dtype": "float32"}, {"name": "StatefulPartitionedCall/model/zero_padding2d_8/Pad/paddings", "shape": [4, 2], "dtype": "int32"}, {"name": "StatefulPartitionedCall/model/depthwise_conv2d_8/depthwise/ReadVariableOp", "shape": [7, 7, 320, 1], "dtype": "float32"}, {"name": "StatefulPartitionedCall/model/depthwise_conv2d_8/BiasAdd/ReadVariableOp", "shape": [320], "dtype": "float32"}, {"name": "StatefulPartitionedCall/model/layer_normalization_8/moments/mean/reduction_indices", "shape": [1], "dtype": "int32"}, {"name": "StatefulPartitionedCall/model/layer_normalization_8/moments/variance/reduction_indices", "shape": [1], "dtype": "int32"}, {"name": "StatefulPartitionedCall/model/layer_normalization_8/batchnorm/add/y", "shape": [], "dtype": "float32"}, {"name": "StatefulPartitionedCall/model/layer_normalization_8/batchnorm/mul/ReadVariableOp", "shape": [320], "dtype": "float32"}, {"name": "StatefulPartitionedCall/model/dense_16/Tensordot/Reshape/shape", "shape": [2], "dtype": "int32"}, {"name": "StatefulPartitionedCall/model/dense_16/Tensordot/ReadVariableOp", "shape": [320, 1280], "dtype": "float32"}, {"name": "StatefulPartitionedCall/model/dense_16/Tensordot/shape", "shape": [4], "dtype": "int32"}, {"name": "StatefulPartitionedCall/model/dense_16/BiasAdd/ReadVariableOp", "shape": [1280], "dtype": "float32"}, {"name": "StatefulPartitionedCall/model/dense_17/Tensordot/Reshape/shape", "shape": [2], "dtype": "int32"}, {"name": "StatefulPartitionedCall/model/dense_17/Tensordot/ReadVariableOp", "shape": [1280, 320], "dtype": "float32"}, {"name": "StatefulPartitionedCall/model/dense_17/Tensordot/shape", "shape": [4], "dtype": "int32"}, {"name": "StatefulPartitionedCall/model/dense_17/BiasAdd/ReadVariableOp", "shape": [320], "dtype": "float32"}, {"name": "StatefulPartitionedCall/model/zero_padding2d_9/Pad/paddings", "shape": [4, 2], "dtype": "int32"}, {"name": "StatefulPartitionedCall/model/depthwise_conv2d_9/depthwise/ReadVariableOp", "shape": [7, 7, 320, 1], "dtype": "float32"}, {"name": "StatefulPartitionedCall/model/depthwise_conv2d_9/BiasAdd/ReadVariableOp", "shape": [320], "dtype": "float32"}, {"name": "StatefulPartitionedCall/model/layer_normalization_9/moments/mean/reduction_indices", "shape": [1], "dtype": "int32"}, {"name": "StatefulPartitionedCall/model/layer_normalization_9/moments/variance/reduction_indices", "shape": [1], "dtype": "int32"}, {"name": "StatefulPartitionedCall/model/layer_normalization_9/batchnorm/add/y", "shape": [], "dtype": "float32"}, {"name": "StatefulPartitionedCall/model/layer_normalization_9/batchnorm/mul/ReadVariableOp", "shape": [320], "dtype": "float32"}, {"name": "StatefulPartitionedCall/model/dense_18/Tensordot/Reshape/shape", "shape": [2], "dtype": "int32"}, {"name": "StatefulPartitionedCall/model/dense_18/Tensordot/ReadVariableOp", "shape": [320, 1280], "dtype": "float32"}, {"name": "StatefulPartitionedCall/model/dense_18/Tensordot/shape", "shape": [4], "dtype": "int32"}, {"name": "StatefulPartitionedCall/model/dense_18/BiasAdd/ReadVariableOp", "shape": [1280], "dtype": "float32"}, {"name": "StatefulPartitionedCall/model/dense_19/Tensordot/Reshape/shape", "shape": [2], "dtype": "int32"}, {"name": "StatefulPartitionedCall/model/dense_19/Tensordot/ReadVariableOp", "shape": [1280, 320], "dtype": "float32"}, {"name": "StatefulPartitionedCall/model/dense_19/Tensordot/shape", "shape": [4], "dtype": "int32"}, {"name": "StatefulPartitionedCall/model/dense_19/BiasAdd/ReadVariableOp", "shape": [320], "dtype": "float32"}, {"name": "StatefulPartitionedCall/model/zero_padding2d_10/Pad/paddings", "shape": [4, 2], "dtype": "int32"}, {"name": "StatefulPartitionedCall/model/depthwise_conv2d_10/depthwise/ReadVariableOp", "shape": [7, 7, 320, 1], "dtype": "float32"}, {"name": "StatefulPartitionedCall/model/depthwise_conv2d_10/BiasAdd/ReadVariableOp", "shape": [320], "dtype": "float32"}, {"name": "StatefulPartitionedCall/model/layer_normalization_10/moments/mean/reduction_indices", "shape": [1], "dtype": "int32"}, {"name": "StatefulPartitionedCall/model/layer_normalization_10/moments/variance/reduction_indices", "shape": [1], "dtype": "int32"}, {"name": "StatefulPartitionedCall/model/layer_normalization_10/batchnorm/add/y", "shape": [], "dtype": "float32"}, {"name": "StatefulPartitionedCall/model/layer_normalization_10/batchnorm/mul/ReadVariableOp", "shape": [320], "dtype": "float32"}, {"name": "StatefulPartitionedCall/model/dense_20/Tensordot/Reshape/shape", "shape": [2], "dtype": "int32"}, {"name": "StatefulPartitionedCall/model/dense_20/Tensordot/ReadVariableOp", "shape": [320, 1280], "dtype": "float32"}, {"name": "StatefulPartitionedCall/model/dense_20/Tensordot/shape", "shape": [4], "dtype": "int32"}, {"name": "StatefulPartitionedCall/model/dense_20/BiasAdd/ReadVariableOp", "shape": [1280], "dtype": "float32"}, {"name": "StatefulPartitionedCall/model/dense_21/Tensordot/Reshape/shape", "shape": [2], "dtype": "int32"}, {"name": "StatefulPartitionedCall/model/dense_21/Tensordot/ReadVariableOp", "shape": [1280, 320], "dtype": "float32"}, {"name": "StatefulPartitionedCall/model/dense_21/Tensordot/shape", "shape": [4], "dtype": "int32"}, {"name": "StatefulPartitionedCall/model/dense_21/BiasAdd/ReadVariableOp", "shape": [320], "dtype": "float32"}, {"name": "StatefulPartitionedCall/model/zero_padding2d_11/Pad/paddings", "shape": [4, 2], "dtype": "int32"}, {"name": "StatefulPartitionedCall/model/depthwise_conv2d_11/depthwise/ReadVariableOp", "shape": [7, 7, 320, 1], "dtype": "float32"}, {"name": "StatefulPartitionedCall/model/depthwise_conv2d_11/BiasAdd/ReadVariableOp", "shape": [320], "dtype": "float32"}, {"name": "StatefulPartitionedCall/model/layer_normalization_11/moments/mean/reduction_indices", "shape": [1], "dtype": "int32"}, {"name": "StatefulPartitionedCall/model/layer_normalization_11/moments/variance/reduction_indices", "shape": [1], "dtype": "int32"}, {"name": "StatefulPartitionedCall/model/layer_normalization_11/batchnorm/add/y", "shape": [], "dtype": "float32"}, {"name": "StatefulPartitionedCall/model/layer_normalization_11/batchnorm/mul/ReadVariableOp", "shape": [320], "dtype": "float32"}, {"name": "StatefulPartitionedCall/model/dense_22/Tensordot/Reshape/shape", "shape": [2], "dtype": "int32"}, {"name": "StatefulPartitionedCall/model/dense_22/Tensordot/ReadVariableOp", "shape": [320, 1280], "dtype": "float32"}, {"name": "StatefulPartitionedCall/model/dense_22/Tensordot/shape", "shape": [4], "dtype": "int32"}, {"name": "StatefulPartitionedCall/model/dense_22/BiasAdd/ReadVariableOp", "shape": [1280], "dtype": "float32"}, {"name": "StatefulPartitionedCall/model/dense_23/Tensordot/Reshape/shape", "shape": [2], "dtype": "int32"}, {"name": "StatefulPartitionedCall/model/dense_23/Tensordot/ReadVariableOp", "shape": [1280, 320], "dtype": "float32"}, {"name": "StatefulPartitionedCall/model/dense_23/Tensordot/shape", "shape": [4], "dtype": "int32"}, {"name": "StatefulPartitionedCall/model/dense_23/BiasAdd/ReadVariableOp", "shape": [320], "dtype": "float32"}, {"name": "StatefulPartitionedCall/model/tf.compat.v1.transpose_8/transpose/perm", "shape": [4], "dtype": "int32"}, {"name": "StatefulPartitionedCall/model/conv2d_3/Conv2D/ReadVariableOp", "shape": [2, 2, 320, 640], "dtype": "float32"}, {"name": "StatefulPartitionedCall/model/conv2d_3/BiasAdd/ReadVariableOp", "shape": [640], "dtype": "float32"}, {"name": "StatefulPartitionedCall/model/zero_padding2d_12/Pad/paddings", "shape": [4, 2], "dtype": "int32"}, {"name": "StatefulPartitionedCall/model/depthwise_conv2d_12/depthwise/ReadVariableOp", "shape": [7, 7, 640, 1], "dtype": "float32"}, {"name": "StatefulPartitionedCall/model/depthwise_conv2d_12/BiasAdd/ReadVariableOp", "shape": [640], "dtype": "float32"}, {"name": "StatefulPartitionedCall/model/layer_normalization_12/moments/mean/reduction_indices", "shape": [1], "dtype": "int32"}, {"name": "StatefulPartitionedCall/model/layer_normalization_12/moments/variance/reduction_indices", "shape": [1], "dtype": "int32"}, {"name": "StatefulPartitionedCall/model/layer_normalization_12/batchnorm/add/y", "shape": [], "dtype": "float32"}, {"name": "StatefulPartitionedCall/model/layer_normalization_12/batchnorm/mul/ReadVariableOp", "shape": [640], "dtype": "float32"}, {"name": "StatefulPartitionedCall/model/dense_24/Tensordot/Reshape/shape", "shape": [2], "dtype": "int32"}, {"name": "StatefulPartitionedCall/model/dense_24/Tensordot/ReadVariableOp", "shape": [640, 2560], "dtype": "float32"}, {"name": "StatefulPartitionedCall/model/dense_24/Tensordot/shape", "shape": [4], "dtype": "int32"}, {"name": "StatefulPartitionedCall/model/dense_24/BiasAdd/ReadVariableOp", "shape": [2560], "dtype": "float32"}, {"name": "StatefulPartitionedCall/model/dense_25/Tensordot/Reshape/shape", "shape": [2], "dtype": "int32"}, {"name": "StatefulPartitionedCall/model/dense_25/Tensordot/ReadVariableOp", "shape": [2560, 640], "dtype": "float32"}, {"name": "StatefulPartitionedCall/model/dense_25/Tensordot/shape", "shape": [4], "dtype": "int32"}, {"name": "StatefulPartitionedCall/model/dense_25/BiasAdd/ReadVariableOp", "shape": [640], "dtype": "float32"}, {"name": "StatefulPartitionedCall/model/zero_padding2d_13/Pad/paddings", "shape": [4, 2], "dtype": "int32"}, {"name": "StatefulPartitionedCall/model/depthwise_conv2d_13/depthwise/ReadVariableOp", "shape": [7, 7, 640, 1], "dtype": "float32"}, {"name": "StatefulPartitionedCall/model/depthwise_conv2d_13/BiasAdd/ReadVariableOp", "shape": [640], "dtype": "float32"}, {"name": "StatefulPartitionedCall/model/layer_normalization_13/moments/mean/reduction_indices", "shape": [1], "dtype": "int32"}, {"name": "StatefulPartitionedCall/model/layer_normalization_13/moments/variance/reduction_indices", "shape": [1], "dtype": "int32"}, {"name": "StatefulPartitionedCall/model/layer_normalization_13/batchnorm/add/y", "shape": [], "dtype": "float32"}, {"name": "StatefulPartitionedCall/model/layer_normalization_13/batchnorm/mul/ReadVariableOp", "shape": [640], "dtype": "float32"}, {"name": "StatefulPartitionedCall/model/dense_26/Tensordot/Reshape/shape", "shape": [2], "dtype": "int32"}, {"name": "StatefulPartitionedCall/model/dense_26/Tensordot/ReadVariableOp", "shape": [640, 2560], "dtype": "float32"}, {"name": "StatefulPartitionedCall/model/dense_26/Tensordot/shape", "shape": [4], "dtype": "int32"}, {"name": "StatefulPartitionedCall/model/dense_26/BiasAdd/ReadVariableOp", "shape": [2560], "dtype": "float32"}, {"name": "StatefulPartitionedCall/model/dense_27/Tensordot/Reshape/shape", "shape": [2], "dtype": "int32"}, {"name": "StatefulPartitionedCall/model/dense_27/Tensordot/ReadVariableOp", "shape": [2560, 640], "dtype": "float32"}, {"name": "StatefulPartitionedCall/model/dense_27/Tensordot/shape", "shape": [4], "dtype": "int32"}, {"name": "StatefulPartitionedCall/model/dense_27/BiasAdd/ReadVariableOp", "shape": [640], "dtype": "float32"}, {"name": "StatefulPartitionedCall/model/conv2d_4/Conv2D/ReadVariableOp", "shape": [1, 1, 640, 32], "dtype": "float32"}, {"name": "StatefulPartitionedCall/model/conv2d_4/BiasAdd/ReadVariableOp", "shape": [32], "dtype": "float32"}, {"name": "StatefulPartitionedCall/model/tf.reshape/Reshape/shape", "shape": [2], "dtype": "int32"}, {"name": "StatefulPartitionedCall/model/dense_28/MatMul/ReadVariableOp", "shape": [768, 768], "dtype": "float32"}, {"name": "StatefulPartitionedCall/model/dense_28/BiasAdd/ReadVariableOp", "shape": [768], "dtype": "float32"}, {"name": "StatefulPartitionedCall/model/weight_layer/StatefulPartitionedCall/Identity", "shape": [80, 1, 1], "dtype": "float32"}, {"name": "StatefulPartitionedCall/model/weight_layer_1/StatefulPartitionedCall/Identity", "shape": [80, 1, 1], "dtype": "float32"}, {"name": "StatefulPartitionedCall/model/weight_layer_5/StatefulPartitionedCall/Identity", "shape": [1, 1, 1, 320], "dtype": "float32"}, {"name": "StatefulPartitionedCall/model/weight_layer_4/StatefulPartitionedCall/Identity", "shape": [1, 1, 1, 320], "dtype": "float32"}, {"name": "StatefulPartitionedCall/model/weight_layer_9/StatefulPartitionedCall/Identity", "shape": [1, 1, 1, 320], "dtype": "float32"}, {"name": "StatefulPartitionedCall/model/weight_layer_8/StatefulPartitionedCall/Identity", "shape": [1, 1, 1, 320], "dtype": "float32"}, {"name": "StatefulPartitionedCall/model/weight_layer_10/StatefulPartitionedCall/Identity", "shape": [80, 1, 1], "dtype": "float32"}, {"name": "StatefulPartitionedCall/model/weight_layer_11/StatefulPartitionedCall/Identity", "shape": [80, 1, 1], "dtype": "float32"}, {"name": "StatefulPartitionedCall/model/weight_layer_15/StatefulPartitionedCall/Identity", "shape": [1, 1, 1, 640], "dtype": "float32"}, {"name": "StatefulPartitionedCall/model/weight_layer_14/StatefulPartitionedCall/Identity", "shape": [1, 1, 1, 640], "dtype": "float32"}, {"name": "StatefulPartitionedCall/model/weight_layer_19/StatefulPartitionedCall/Identity", "shape": [1, 1, 1, 640], "dtype": "float32"}, {"name": "StatefulPartitionedCall/model/weight_layer_18/StatefulPartitionedCall/Identity", "shape": [1, 1, 1, 640], "dtype": "float32"}, {"name": "StatefulPartitionedCall/model/weight_layer_20/StatefulPartitionedCall/Identity", "shape": [160, 1, 1], "dtype": "float32"}, {"name": "StatefulPartitionedCall/model/weight_layer_21/StatefulPartitionedCall/Identity", "shape": [160, 1, 1], "dtype": "float32"}, {"name": "StatefulPartitionedCall/model/weight_layer_25/StatefulPartitionedCall/Identity", "shape": [1, 1, 1, 1280], "dtype": "float32"}, {"name": "StatefulPartitionedCall/model/weight_layer_24/StatefulPartitionedCall/Identity", "shape": [1, 1, 1, 1280], "dtype": "float32"}, {"name": "StatefulPartitionedCall/model/weight_layer_29/StatefulPartitionedCall/Identity", "shape": [1, 1, 1, 1280], "dtype": "float32"}, {"name": "StatefulPartitionedCall/model/weight_layer_28/StatefulPartitionedCall/Identity", "shape": [1, 1, 1, 1280], "dtype": "float32"}, {"name": "StatefulPartitionedCall/model/weight_layer_33/StatefulPartitionedCall/Identity", "shape": [1, 1, 1, 1280], "dtype": "float32"}, {"name": "StatefulPartitionedCall/model/weight_layer_32/StatefulPartitionedCall/Identity", "shape": [1, 1, 1, 1280], "dtype": "float32"}, {"name": "StatefulPartitionedCall/model/weight_layer_37/StatefulPartitionedCall/Identity", "shape": [1, 1, 1, 1280], "dtype": "float32"}, {"name": "StatefulPartitionedCall/model/weight_layer_36/StatefulPartitionedCall/Identity", "shape": [1, 1, 1, 1280], "dtype": "float32"}, {"name": "StatefulPartitionedCall/model/weight_layer_41/StatefulPartitionedCall/Identity", "shape": [1, 1, 1, 1280], "dtype": "float32"}, {"name": "StatefulPartitionedCall/model/weight_layer_40/StatefulPartitionedCall/Identity", "shape": [1, 1, 1, 1280], "dtype": "float32"}, {"name": "StatefulPartitionedCall/model/weight_layer_45/StatefulPartitionedCall/Identity", "shape": [1, 1, 1, 1280], "dtype": "float32"}, {"name": "StatefulPartitionedCall/model/weight_layer_44/StatefulPartitionedCall/Identity", "shape": [1, 1, 1, 1280], "dtype": "float32"}, {"name": "StatefulPartitionedCall/model/weight_layer_49/StatefulPartitionedCall/Identity", "shape": [1, 1, 1, 1280], "dtype": "float32"}, {"name": "StatefulPartitionedCall/model/weight_layer_48/StatefulPartitionedCall/Identity", "shape": [1, 1, 1, 1280], "dtype": "float32"}, {"name": "StatefulPartitionedCall/model/weight_layer_53/StatefulPartitionedCall/Identity", "shape": [1, 1, 1, 1280], "dtype": "float32"}, {"name": "StatefulPartitionedCall/model/weight_layer_52/StatefulPartitionedCall/Identity", "shape": [1, 1, 1, 1280], "dtype": "float32"}, {"name": "StatefulPartitionedCall/model/weight_layer_54/StatefulPartitionedCall/Identity", "shape": [320, 1, 1], "dtype": "float32"}, {"name": "StatefulPartitionedCall/model/weight_layer_55/StatefulPartitionedCall/Identity", "shape": [320, 1, 1], "dtype": "float32"}, {"name": "StatefulPartitionedCall/model/weight_layer_59/StatefulPartitionedCall/Identity", "shape": [1, 1, 1, 2560], "dtype": "float32"}, {"name": "StatefulPartitionedCall/model/weight_layer_58/StatefulPartitionedCall/Identity", "shape": [1, 1, 1, 2560], "dtype": "float32"}, {"name": "StatefulPartitionedCall/model/weight_layer_63/StatefulPartitionedCall/Identity", "shape": [1, 1, 1, 2560], "dtype": "float32"}, {"name": "StatefulPartitionedCall/model/weight_layer_62/StatefulPartitionedCall/Identity", "shape": [1, 1, 1, 2560], "dtype": "float32"}, {"name": "StatefulPartitionedCall/model/weight_layer_64/StatefulPartitionedCall/Identity", "shape": [32, 1, 1], "dtype": "float32"}, {"name": "StatefulPartitionedCall/model/weight_layer_65/StatefulPartitionedCall/Identity", "shape": [32, 1, 1], "dtype": "float32"}]}]}
