{"format": "graph-model", "generatedBy": "2.18.0", "convertedBy": "TensorFlow.js Converter v4.22.0", "signature": {"outputs": {"Identity:0": {"name": "Identity:0"}, "model_36/tf.math.top_k/TopKV2:0": {"name": "model_36/tf.math.top_k/TopKV2:0"}, "Identity_1:0": {"name": "Identity_1:0"}}}, "modelTopology": {"node": [{"name": "model_36/49933", "op": "Const", "attr": {"value": {"tensor": {"dtype": "DT_FLOAT", "tensorShape": {"dim": [{"size": "1"}, {"size": "300"}, {"size": "38"}]}}}, "dtype": {"type": "DT_FLOAT"}}}, {"name": "model_36/tf.tensor_scatter_nd_update_2/TensorScatterUpdate/indices", "op": "Const", "attr": {"value": {"tensor": {"dtype": "DT_INT64", "tensorShape": {"dim": [{"size": "1"}, {"size": "1"}]}}}, "dtype": {"type": "DT_INT64"}}}, {"name": "model_36/tf.math.less_4/Less/y", "op": "Const", "attr": {"value": {"tensor": {"dtype": "DT_INT64", "tensorShape": {}}}, "dtype": {"type": "DT_INT64"}}}, {"name": "model_36/tf.__operators__.getitem_10/strided_slice", "op": "Const", "attr": {"value": {"tensor": {"dtype": "DT_INT64", "tensorShape": {}}}, "dtype": {"type": "DT_INT64"}}}, {"name": "model_36/tf.compat.v1.gather_9/GatherV2/axis", "op": "Const", "attr": {"value": {"tensor": {"dtype": "DT_INT32", "tensorShape": {}}}, "dtype": {"type": "DT_INT32"}}}, {"name": "model_36/tf.math.less_5/Less/y", "op": "Const", "attr": {"value": {"tensor": {"dtype": "DT_INT64", "tensorShape": {}}}, "dtype": {"type": "DT_INT64"}}}, {"name": "model_36/tf.__operators__.getitem_11/strided_slice", "op": "Const", "attr": {"value": {"tensor": {"dtype": "DT_INT64", "tensorShape": {}}}, "dtype": {"type": "DT_INT64"}}}, {"name": "model_36/tf.compat.v1.gather_10/GatherV2/axis", "op": "Const", "attr": {"value": {"tensor": {"dtype": "DT_INT32", "tensorShape": {}}}, "dtype": {"type": "DT_INT32"}}}, {"name": "model_36/tf.reshape_36/Reshape/shape", "op": "Const", "attr": {"value": {"tensor": {"dtype": "DT_INT32", "tensorShape": {"dim": [{"size": "2"}]}}}, "dtype": {"type": "DT_INT32"}}}, {"name": "model_36/tf.math.less_6/Less/y", "op": "Const", "attr": {"value": {"tensor": {"dtype": "DT_INT64", "tensorShape": {}}}, "dtype": {"type": "DT_INT64"}}}, {"name": "model_36/tf.__operators__.getitem_12/strided_slice", "op": "Const", "attr": {"value": {"tensor": {"dtype": "DT_INT64", "tensorShape": {}}}, "dtype": {"type": "DT_INT64"}}}, {"name": "model_36/tf.compat.v1.gather_11/GatherV2/axis", "op": "Const", "attr": {"value": {"tensor": {"dtype": "DT_INT32", "tensorShape": {}}}, "dtype": {"type": "DT_INT32"}}}, {"name": "model_36/tf.reshape_37/Reshape/shape", "op": "Const", "attr": {"value": {"tensor": {"dtype": "DT_INT32", "tensorShape": {"dim": [{"size": "2"}]}}}, "dtype": {"type": "DT_INT32"}}}, {"name": "model_36/tf.strided_slice_27/ones_like/tensor", "op": "Const", "attr": {"value": {"tensor": {"dtype": "DT_INT64", "tensorShape": {"dim": [{"size": "3"}]}}}, "dtype": {"type": "DT_INT64"}}}, {"name": "model_36/tf.strided_slice_27/StridedSlice/end", "op": "Const", "attr": {"value": {"tensor": {"dtype": "DT_INT64", "tensorShape": {"dim": [{"size": "3"}]}}}, "dtype": {"type": "DT_INT64"}}}, {"name": "model_36/tf.strided_slice_27/ones_like", "op": "Const", "attr": {"value": {"tensor": {"dtype": "DT_INT64", "tensorShape": {"dim": [{"size": "3"}]}}}, "dtype": {"type": "DT_INT64"}}}, {"name": "model_36/tf.compat.v1.gather_1/GatherV2/indices", "op": "Const", "attr": {"value": {"tensor": {"dtype": "DT_INT32", "tensorShape": {}}}, "dtype": {"type": "DT_INT32"}}}, {"name": "model_36/tf.compat.v1.gather_1/GatherV2/axis", "op": "Const", "attr": {"value": {"tensor": {"dtype": "DT_INT32", "tensorShape": {}}}, "dtype": {"type": "DT_INT32"}}}, {"name": "model_36/tf.math.less_3/Less/y", "op": "Const", "attr": {"value": {"tensor": {"dtype": "DT_INT64", "tensorShape": {}}}, "dtype": {"type": "DT_INT64"}}}, {"name": "model_36/tf.__operators__.getitem_7/strided_slice", "op": "Const", "attr": {"value": {"tensor": {"dtype": "DT_INT64", "tensorShape": {}}}, "dtype": {"type": "DT_INT64"}}}, {"name": "model_36/tf.compat.v1.gather_7/GatherV2/axis", "op": "Const", "attr": {"value": {"tensor": {"dtype": "DT_INT32", "tensorShape": {}}}, "dtype": {"type": "DT_INT32"}}}, {"name": "model_36/tf.math.argmax/ArgMax/dimension", "op": "Const", "attr": {"value": {"tensor": {"dtype": "DT_INT32", "tensorShape": {}}}, "dtype": {"type": "DT_INT32"}}}, {"name": "model_36/tf.compat.v1.gather_2/GatherV2/indices", "op": "Const", "attr": {"value": {"tensor": {"dtype": "DT_INT32", "tensorShape": {}}}, "dtype": {"type": "DT_INT32"}}}, {"name": "model_36/tf.compat.v1.gather_2/GatherV2/axis", "op": "Const", "attr": {"value": {"tensor": {"dtype": "DT_INT32", "tensorShape": {}}}, "dtype": {"type": "DT_INT32"}}}, {"name": "model_36/tf.math.less_2/Less/y", "op": "Const", "attr": {"value": {"tensor": {"dtype": "DT_INT64", "tensorShape": {}}}, "dtype": {"type": "DT_INT64"}}}, {"name": "model_36/tf.__operators__.getitem_6/strided_slice", "op": "Const", "attr": {"value": {"tensor": {"dtype": "DT_INT64", "tensorShape": {}}}, "dtype": {"type": "DT_INT64"}}}, {"name": "model_36/tf.compat.v1.gather_6/GatherV2/axis", "op": "Const", "attr": {"value": {"tensor": {"dtype": "DT_INT32", "tensorShape": {}}}, "dtype": {"type": "DT_INT32"}}}, {"name": "model_36/tf.reshape_33/Reshape/shape", "op": "Const", "attr": {"value": {"tensor": {"dtype": "DT_INT32", "tensorShape": {"dim": [{"size": "2"}]}}}, "dtype": {"type": "DT_INT32"}}}, {"name": "ConstantFolding/model_36/tf.math.multiply_401/Mul-broadcastto_shape-0", "op": "Const", "attr": {"value": {"tensor": {"dtype": "DT_INT32", "tensorShape": {"dim": [{"size": "2"}]}}}, "dtype": {"type": "DT_INT32"}}}, {"name": "model_36/49690", "op": "Const", "attr": {"value": {"tensor": {"dtype": "DT_FLOAT", "tensorShape": {"dim": [{"size": "1500"}, {"size": "4"}]}}}, "dtype": {"type": "DT_FLOAT"}}}, {"name": "model_36/tf.tensor_scatter_nd_update/TensorScatterUpdate/indices", "op": "Const", "attr": {"value": {"tensor": {"dtype": "DT_INT64", "tensorShape": {"dim": [{"size": "1500"}, {"size": "2"}, {"size": "2"}]}}}, "dtype": {"type": "DT_INT64"}}}, {"name": "model_36/tf.tensor_scatter_nd_update_1/TensorScatterUpdate/indices", "op": "Const", "attr": {"value": {"tensor": {"dtype": "DT_INT64", "tensorShape": {"dim": [{"size": "1500"}, {"size": "2"}, {"size": "2"}]}}}, "dtype": {"type": "DT_INT64"}}}, {"name": "model_36/tf.strided_slice_28/StridedSlice/begin", "op": "Const", "attr": {"value": {"tensor": {"dtype": "DT_INT64", "tensorShape": {"dim": [{"size": "2"}]}}}, "dtype": {"type": "DT_INT64"}}}, {"name": "model_36/tf.strided_slice_28/StridedSlice/end", "op": "Const", "attr": {"value": {"tensor": {"dtype": "DT_INT64", "tensorShape": {"dim": [{"size": "2"}]}}}, "dtype": {"type": "DT_INT64"}}}, {"name": "model_36/tf.strided_slice_28/StridedSlice/strides", "op": "Const", "attr": {"value": {"tensor": {"dtype": "DT_INT64", "tensorShape": {"dim": [{"size": "2"}]}}}, "dtype": {"type": "DT_INT64"}}}, {"name": "model_36/tf.strided_slice_25/ones_like/tensor", "op": "Const", "attr": {"value": {"tensor": {"dtype": "DT_INT64", "tensorShape": {"dim": [{"size": "3"}]}}}, "dtype": {"type": "DT_INT64"}}}, {"name": "model_36/tf.strided_slice_25/StridedSlice/end", "op": "Const", "attr": {"value": {"tensor": {"dtype": "DT_INT64", "tensorShape": {"dim": [{"size": "3"}]}}}, "dtype": {"type": "DT_INT64"}}}, {"name": "model_36/tf.strided_slice_25/ones_like", "op": "Const", "attr": {"value": {"tensor": {"dtype": "DT_INT64", "tensorShape": {"dim": [{"size": "3"}]}}}, "dtype": {"type": "DT_INT64"}}}, {"name": "model_36/tf.compat.v1.gather/GatherV2/indices", "op": "Const", "attr": {"value": {"tensor": {"dtype": "DT_INT32", "tensorShape": {}}}, "dtype": {"type": "DT_INT32"}}}, {"name": "model_36/tf.compat.v1.gather/GatherV2/axis", "op": "Const", "attr": {"value": {"tensor": {"dtype": "DT_INT32", "tensorShape": {}}}, "dtype": {"type": "DT_INT32"}}}, {"name": "model_36/tf.math.less/Less/y", "op": "Const", "attr": {"value": {"tensor": {"dtype": "DT_INT64", "tensorShape": {}}}, "dtype": {"type": "DT_INT64"}}}, {"name": "model_36/tf.__operators__.getitem_4/strided_slice", "op": "Const", "attr": {"value": {"tensor": {"dtype": "DT_INT64", "tensorShape": {}}}, "dtype": {"type": "DT_INT64"}}}, {"name": "model_36/tf.compat.v1.gather_4/GatherV2/axis", "op": "Const", "attr": {"value": {"tensor": {"dtype": "DT_INT32", "tensorShape": {}}}, "dtype": {"type": "DT_INT32"}}}, {"name": "model_36/tf.strided_slice_29/StridedSlice/begin", "op": "Const", "attr": {"value": {"tensor": {"dtype": "DT_INT64", "tensorShape": {"dim": [{"size": "2"}]}}}, "dtype": {"type": "DT_INT64"}}}, {"name": "model_36/tf.strided_slice_29/StridedSlice/end", "op": "Const", "attr": {"value": {"tensor": {"dtype": "DT_INT64", "tensorShape": {"dim": [{"size": "2"}]}}}, "dtype": {"type": "DT_INT64"}}}, {"name": "model_36/tf.strided_slice_29/StridedSlice/strides", "op": "Const", "attr": {"value": {"tensor": {"dtype": "DT_INT64", "tensorShape": {"dim": [{"size": "2"}]}}}, "dtype": {"type": "DT_INT64"}}}, {"name": "ConstantFolding/model_36/tf.math.divide_1/truediv_recip", "op": "Const", "attr": {"value": {"tensor": {"dtype": "DT_FLOAT", "tensorShape": {}}}, "dtype": {"type": "DT_FLOAT"}}}, {"name": "ConstantFolding/model_36/tf.math.divide_2/truediv_recip", "op": "Const", "attr": {"value": {"tensor": {"dtype": "DT_FLOAT", "tensorShape": {}}}, "dtype": {"type": "DT_FLOAT"}}}, {"name": "model_36/tf.strided_slice_31/StridedSlice/begin", "op": "Const", "attr": {"value": {"tensor": {"dtype": "DT_INT64", "tensorShape": {"dim": [{"size": "2"}]}}}, "dtype": {"type": "DT_INT64"}}}, {"name": "model_36/tf.strided_slice_31/StridedSlice/end", "op": "Const", "attr": {"value": {"tensor": {"dtype": "DT_INT64", "tensorShape": {"dim": [{"size": "2"}]}}}, "dtype": {"type": "DT_INT64"}}}, {"name": "model_36/tf.strided_slice_31/StridedSlice/strides", "op": "Const", "attr": {"value": {"tensor": {"dtype": "DT_INT64", "tensorShape": {"dim": [{"size": "2"}]}}}, "dtype": {"type": "DT_INT64"}}}, {"name": "model_36/tf.concat_28/concat/axis", "op": "Const", "attr": {"value": {"tensor": {"dtype": "DT_INT32", "tensorShape": {}}}, "dtype": {"type": "DT_INT32"}}}, {"name": "model_36/tf.reshape_35/Reshape/shape", "op": "Const", "attr": {"value": {"tensor": {"dtype": "DT_INT32", "tensorShape": {"dim": [{"size": "3"}]}}}, "dtype": {"type": "DT_INT32"}}}, {"name": "model_36/tf.math.less_1/Less/y", "op": "Const", "attr": {"value": {"tensor": {"dtype": "DT_INT64", "tensorShape": {}}}, "dtype": {"type": "DT_INT64"}}}, {"name": "model_36/tf.__operators__.getitem_5/strided_slice", "op": "Const", "attr": {"value": {"tensor": {"dtype": "DT_INT64", "tensorShape": {}}}, "dtype": {"type": "DT_INT64"}}}, {"name": "model_36/tf.compat.v1.gather_5/GatherV2/axis", "op": "Const", "attr": {"value": {"tensor": {"dtype": "DT_INT32", "tensorShape": {}}}, "dtype": {"type": "DT_INT32"}}}, {"name": "model_36/tf.reshape_34/Reshape/shape", "op": "Const", "attr": {"value": {"tensor": {"dtype": "DT_INT32", "tensorShape": {"dim": [{"size": "3"}]}}}, "dtype": {"type": "DT_INT32"}}}, {"name": "model_36/tf.compat.v1.squeeze_17/Squeeze", "op": "Const", "attr": {"value": {"tensor": {"dtype": "DT_INT32", "tensorShape": {}}}, "dtype": {"type": "DT_INT32"}}}, {"name": "model_36/nms_layer/non_max_suppression/NonMaxSuppressionV4/iou_threshold", "op": "Const", "attr": {"value": {"tensor": {"dtype": "DT_FLOAT", "tensorShape": {}}}, "dtype": {"type": "DT_FLOAT"}}}, {"name": "model_36/nms_layer/non_max_suppression/NonMaxSuppressionV4/score_threshold", "op": "Const", "attr": {"value": {"tensor": {"dtype": "DT_FLOAT", "tensorShape": {}}}, "dtype": {"type": "DT_FLOAT"}}}, {"name": "model_36/tf.compat.v1.transpose_164/transpose/perm", "op": "Const", "attr": {"value": {"tensor": {"dtype": "DT_INT32", "tensorShape": {"dim": [{"size": "2"}]}}}, "dtype": {"type": "DT_INT32"}}}, {"name": "model_36/tf.compat.v1.pad_7/PadV2/constant_values", "op": "Const", "attr": {"value": {"tensor": {"dtype": "DT_INT64", "tensorShape": {}}}, "dtype": {"type": "DT_INT64"}}}, {"name": "model_36/tf.compat.v1.pad_7/PadV2/paddings", "op": "Const", "attr": {"value": {"tensor": {"dtype": "DT_INT32", "tensorShape": {"dim": [{"size": "2"}, {"size": "2"}]}}}, "dtype": {"type": "DT_INT32"}}}, {"name": "model_36/tf.compat.v1.pad_8/PadV2/constant_values", "op": "Const", "attr": {"value": {"tensor": {"dtype": "DT_INT64", "tensorShape": {}}}, "dtype": {"type": "DT_INT64"}}}, {"name": "model_36/tf.compat.v1.gather_8/GatherV2/indices", "op": "Const", "attr": {"value": {"tensor": {"dtype": "DT_INT64", "tensorShape": {"dim": [{"size": "1"}]}}}, "dtype": {"type": "DT_INT64"}}}, {"name": "model_36/tf.compat.v1.gather_8/GatherV2/axis", "op": "Const", "attr": {"value": {"tensor": {"dtype": "DT_INT32", "tensorShape": {}}}, "dtype": {"type": "DT_INT32"}}}, {"name": "model_36/tf.strided_slice_35/StridedSlice/begin", "op": "Const", "attr": {"value": {"tensor": {"dtype": "DT_INT64", "tensorShape": {"dim": [{"size": "1"}]}}}, "dtype": {"type": "DT_INT64"}}}, {"name": "model_36/tf.strided_slice_35/StridedSlice/end", "op": "Const", "attr": {"value": {"tensor": {"dtype": "DT_INT64", "tensorShape": {"dim": [{"size": "1"}]}}}, "dtype": {"type": "DT_INT64"}}}, {"name": "model_36/tf.strided_slice_35/StridedSlice/strides", "op": "Const", "attr": {"value": {"tensor": {"dtype": "DT_INT64", "tensorShape": {"dim": [{"size": "1"}]}}}, "dtype": {"type": "DT_INT64"}}}, {"name": "model_36/tf.math.less_7/Less/y", "op": "Const", "attr": {"value": {"tensor": {"dtype": "DT_INT64", "tensorShape": {}}}, "dtype": {"type": "DT_INT64"}}}, {"name": "model_36/tf.__operators__.getitem_13/strided_slice", "op": "Const", "attr": {"value": {"tensor": {"dtype": "DT_INT64", "tensorShape": {}}}, "dtype": {"type": "DT_INT64"}}}, {"name": "model_36/tf.compat.v1.gather_12/GatherV2/axis", "op": "Const", "attr": {"value": {"tensor": {"dtype": "DT_INT32", "tensorShape": {}}}, "dtype": {"type": "DT_INT32"}}}, {"name": "model_36/tf.concat_29/concat/axis", "op": "Const", "attr": {"value": {"tensor": {"dtype": "DT_INT32", "tensorShape": {}}}, "dtype": {"type": "DT_INT32"}}}, {"name": "model_36/tf.reshape_42/Reshape/shape", "op": "Const", "attr": {"value": {"tensor": {"dtype": "DT_INT32", "tensorShape": {"dim": [{"size": "3"}]}}}, "dtype": {"type": "DT_INT32"}}}, {"name": "model_36/tf.nn.conv2d_transpose/conv2d_transpose/input_sizes", "op": "Const", "attr": {"value": {"tensor": {"dtype": "DT_INT32", "tensorShape": {"dim": [{"size": "4"}]}}}, "dtype": {"type": "DT_INT32"}}}, {"name": "model_36/tf.nn.conv2d_transpose/conv2d_transpose/filter", "op": "Const", "attr": {"value": {"tensor": {"dtype": "DT_FLOAT", "tensorShape": {"dim": [{"size": "2"}, {"size": "2"}, {"size": "128"}, {"size": "128"}]}}}, "dtype": {"type": "DT_FLOAT"}}}, {"name": "model_36/tf.nn.convolution_304/convolution/filter", "op": "Const", "attr": {"value": {"tensor": {"dtype": "DT_FLOAT", "tensorShape": {"dim": [{"size": "3"}, {"size": "3"}, {"size": "128"}, {"size": "128"}]}}}, "dtype": {"type": "DT_FLOAT"}}}, {"name": "model_36/tf.math.add_71/Add/y", "op": "Const", "attr": {"value": {"tensor": {"dtype": "DT_FLOAT", "tensorShape": {"dim": [{"size": "128"}]}}}, "dtype": {"type": "DT_FLOAT"}}}, {"name": "model_36/tf.math.add_75/Add/y", "op": "Const", "attr": {"value": {"tensor": {"dtype": "DT_FLOAT", "tensorShape": {"dim": [{"size": "128"}]}}}, "dtype": {"type": "DT_FLOAT"}}}, {"name": "model_36/tf.nn.convolution_311/convolution/filter", "op": "Const", "attr": {"value": {"tensor": {"dtype": "DT_FLOAT", "tensorShape": {"dim": [{"size": "3"}, {"size": "3"}, {"size": "128"}, {"size": "128"}]}}}, "dtype": {"type": "DT_FLOAT"}}}, {"name": "model_36/tf.math.add_80/Add/y", "op": "Const", "attr": {"value": {"tensor": {"dtype": "DT_FLOAT", "tensorShape": {"dim": [{"size": "128"}]}}}, "dtype": {"type": "DT_FLOAT"}}}, {"name": "model_36/tf.nn.convolution_314/convolution/filter", "op": "Const", "attr": {"value": {"tensor": {"dtype": "DT_FLOAT", "tensorShape": {"dim": [{"size": "1"}, {"size": "1"}, {"size": "128"}, {"size": "32"}]}}}, "dtype": {"type": "DT_FLOAT"}}}, {"name": "model_36/tf.math.add_84/Add/y", "op": "Const", "attr": {"value": {"tensor": {"dtype": "DT_FLOAT", "tensorShape": {"dim": [{"size": "32"}]}}}, "dtype": {"type": "DT_FLOAT"}}}, {"name": "ConstantFolding/model_36/tf.math.divide/truediv_recip", "op": "Const", "attr": {"value": {"tensor": {"dtype": "DT_FLOAT", "tensorShape": {}}}, "dtype": {"type": "DT_FLOAT"}}}, {"name": "model_36/tf.strided_slice_24/ones_like/tensor", "op": "Const", "attr": {"value": {"tensor": {"dtype": "DT_INT64", "tensorShape": {"dim": [{"size": "3"}]}}}, "dtype": {"type": "DT_INT64"}}}, {"name": "model_36/tf.strided_slice_24/StridedSlice/end", "op": "Const", "attr": {"value": {"tensor": {"dtype": "DT_INT64", "tensorShape": {"dim": [{"size": "3"}]}}}, "dtype": {"type": "DT_INT64"}}}, {"name": "model_36/tf.strided_slice_24/ones_like", "op": "Const", "attr": {"value": {"tensor": {"dtype": "DT_INT64", "tensorShape": {"dim": [{"size": "3"}]}}}, "dtype": {"type": "DT_INT64"}}}, {"name": "model_36/tf.math.add_128/Add/y", "op": "Const", "attr": {"value": {"tensor": {"dtype": "DT_FLOAT", "tensorShape": {"dim": [{"size": "1"}, {"size": "2"}, {"size": "8400"}]}}}, "dtype": {"type": "DT_FLOAT"}}}, {"name": "model_36/49582", "op": "Const", "attr": {"value": {"tensor": {"dtype": "DT_FLOAT", "tensorShape": {"dim": [{"size": "1"}, {"size": "2"}, {"size": "8400"}]}}}, "dtype": {"type": "DT_FLOAT"}}}, {"name": "model_36/tf.strided_slice_21/StridedSlice/begin", "op": "Const", "attr": {"value": {"tensor": {"dtype": "DT_INT64", "tensorShape": {"dim": [{"size": "3"}]}}}, "dtype": {"type": "DT_INT64"}}}, {"name": "model_36/tf.strided_slice_21/StridedSlice/end", "op": "Const", "attr": {"value": {"tensor": {"dtype": "DT_INT64", "tensorShape": {"dim": [{"size": "3"}]}}}, "dtype": {"type": "DT_INT64"}}}, {"name": "model_36/tf.strided_slice_21/StridedSlice/strides", "op": "Const", "attr": {"value": {"tensor": {"dtype": "DT_INT64", "tensorShape": {"dim": [{"size": "3"}]}}}, "dtype": {"type": "DT_INT64"}}}, {"name": "model_36/tf.reshape_29/Reshape/shape", "op": "Const", "attr": {"value": {"tensor": {"dtype": "DT_INT32", "tensorShape": {"dim": [{"size": "4"}]}}}, "dtype": {"type": "DT_INT32"}}}, {"name": "model_36/tf.compat.v1.transpose_152/transpose/perm", "op": "Const", "attr": {"value": {"tensor": {"dtype": "DT_INT32", "tensorShape": {"dim": [{"size": "4"}]}}}, "dtype": {"type": "DT_INT32"}}}, {"name": "model_36/tf.compat.v1.transpose_153/transpose/perm", "op": "Const", "attr": {"value": {"tensor": {"dtype": "DT_INT32", "tensorShape": {"dim": [{"size": "4"}]}}}, "dtype": {"type": "DT_INT32"}}}, {"name": "model_36/tf.nn.convolution_348/convolution/filter", "op": "Const", "attr": {"value": {"tensor": {"dtype": "DT_FLOAT", "tensorShape": {"dim": [{"size": "1"}, {"size": "1"}, {"size": "16"}, {"size": "1"}]}}}, "dtype": {"type": "DT_FLOAT"}}}, {"name": "model_36/tf.compat.v1.transpose_158/transpose/perm", "op": "Const", "attr": {"value": {"tensor": {"dtype": "DT_INT32", "tensorShape": {"dim": [{"size": "4"}]}}}, "dtype": {"type": "DT_INT32"}}}, {"name": "model_36/tf.reshape_32/Reshape/shape", "op": "Const", "attr": {"value": {"tensor": {"dtype": "DT_INT32", "tensorShape": {"dim": [{"size": "3"}]}}}, "dtype": {"type": "DT_INT32"}}}, {"name": "model_36/tf.strided_slice_23/ones_like/tensor", "op": "Const", "attr": {"value": {"tensor": {"dtype": "DT_INT64", "tensorShape": {"dim": [{"size": "3"}]}}}, "dtype": {"type": "DT_INT64"}}}, {"name": "model_36/tf.strided_slice_23/StridedSlice/end", "op": "Const", "attr": {"value": {"tensor": {"dtype": "DT_INT64", "tensorShape": {"dim": [{"size": "3"}]}}}, "dtype": {"type": "DT_INT64"}}}, {"name": "model_36/tf.strided_slice_23/ones_like", "op": "Const", "attr": {"value": {"tensor": {"dtype": "DT_INT64", "tensorShape": {"dim": [{"size": "3"}]}}}, "dtype": {"type": "DT_INT64"}}}, {"name": "model_36/tf.concat_26/concat/axis", "op": "Const", "attr": {"value": {"tensor": {"dtype": "DT_INT32", "tensorShape": {}}}, "dtype": {"type": "DT_INT32"}}}, {"name": "model_36/tf.math.multiply_387/Mul/y", "op": "Const", "attr": {"value": {"tensor": {"dtype": "DT_FLOAT", "tensorShape": {"dim": [{"size": "1"}, {"size": "1"}, {"size": "8400"}]}}}, "dtype": {"type": "DT_FLOAT"}}}, {"name": "model_36/tf.nn.convolution_306/convolution/filter", "op": "Const", "attr": {"value": {"tensor": {"dtype": "DT_FLOAT", "tensorShape": {"dim": [{"size": "3"}, {"size": "3"}, {"size": "128"}, {"size": "64"}]}}}, "dtype": {"type": "DT_FLOAT"}}}, {"name": "model_36/tf.math.add_73/Add/y", "op": "Const", "attr": {"value": {"tensor": {"dtype": "DT_FLOAT", "tensorShape": {"dim": [{"size": "64"}]}}}, "dtype": {"type": "DT_FLOAT"}}}, {"name": "model_36/tf.nn.convolution_308/convolution/filter", "op": "Const", "attr": {"value": {"tensor": {"dtype": "DT_FLOAT", "tensorShape": {"dim": [{"size": "3"}, {"size": "3"}, {"size": "64"}, {"size": "64"}]}}}, "dtype": {"type": "DT_FLOAT"}}}, {"name": "model_36/tf.math.add_77/Add/y", "op": "Const", "attr": {"value": {"tensor": {"dtype": "DT_FLOAT", "tensorShape": {"dim": [{"size": "64"}]}}}, "dtype": {"type": "DT_FLOAT"}}}, {"name": "model_36/tf.nn.convolution_313/convolution/filter", "op": "Const", "attr": {"value": {"tensor": {"dtype": "DT_FLOAT", "tensorShape": {"dim": [{"size": "1"}, {"size": "1"}, {"size": "64"}, {"size": "64"}]}}}, "dtype": {"type": "DT_FLOAT"}}}, {"name": "model_36/tf.math.add_82/Add/y", "op": "Const", "attr": {"value": {"tensor": {"dtype": "DT_FLOAT", "tensorShape": {"dim": [{"size": "64"}]}}}, "dtype": {"type": "DT_FLOAT"}}}, {"name": "model_36/tf.compat.v1.nn.depthwise_conv2d/depthwise/filter_in", "op": "Const", "attr": {"value": {"tensor": {"dtype": "DT_FLOAT", "tensorShape": {"dim": [{"size": "3"}, {"size": "3"}, {"size": "128"}, {"size": "1"}]}}}, "dtype": {"type": "DT_FLOAT"}}}, {"name": "model_36/tf.math.add_74/Add/y", "op": "Const", "attr": {"value": {"tensor": {"dtype": "DT_FLOAT", "tensorShape": {"dim": [{"size": "128"}]}}}, "dtype": {"type": "DT_FLOAT"}}}, {"name": "model_36/tf.nn.convolution_309/convolution/filter", "op": "Const", "attr": {"value": {"tensor": {"dtype": "DT_FLOAT", "tensorShape": {"dim": [{"size": "1"}, {"size": "1"}, {"size": "128"}, {"size": "128"}]}}}, "dtype": {"type": "DT_FLOAT"}}}, {"name": "model_36/tf.math.add_78/Add/y", "op": "Const", "attr": {"value": {"tensor": {"dtype": "DT_FLOAT", "tensorShape": {"dim": [{"size": "128"}]}}}, "dtype": {"type": "DT_FLOAT"}}}, {"name": "model_36/tf.compat.v1.nn.depthwise_conv2d_1/depthwise/filter_in", "op": "Const", "attr": {"value": {"tensor": {"dtype": "DT_FLOAT", "tensorShape": {"dim": [{"size": "3"}, {"size": "3"}, {"size": "128"}, {"size": "1"}]}}}, "dtype": {"type": "DT_FLOAT"}}}, {"name": "model_36/tf.math.add_83/Add/y", "op": "Const", "attr": {"value": {"tensor": {"dtype": "DT_FLOAT", "tensorShape": {"dim": [{"size": "128"}]}}}, "dtype": {"type": "DT_FLOAT"}}}, {"name": "model_36/tf.nn.convolution_316/convolution/filter", "op": "Const", "attr": {"value": {"tensor": {"dtype": "DT_FLOAT", "tensorShape": {"dim": [{"size": "1"}, {"size": "1"}, {"size": "128"}, {"size": "128"}]}}}, "dtype": {"type": "DT_FLOAT"}}}, {"name": "model_36/tf.math.add_86/Add/y", "op": "Const", "attr": {"value": {"tensor": {"dtype": "DT_FLOAT", "tensorShape": {"dim": [{"size": "128"}]}}}, "dtype": {"type": "DT_FLOAT"}}}, {"name": "model_36/tf.nn.convolution_318/convolution/filter", "op": "Const", "attr": {"value": {"tensor": {"dtype": "DT_FLOAT", "tensorShape": {"dim": [{"size": "1"}, {"size": "1"}, {"size": "128"}, {"size": "3"}]}}}, "dtype": {"type": "DT_FLOAT"}}}, {"name": "model_36/tf.math.add_88/Add/y", "op": "Const", "attr": {"value": {"tensor": {"dtype": "DT_FLOAT", "tensorShape": {"dim": [{"size": "3"}]}}}, "dtype": {"type": "DT_FLOAT"}}}, {"name": "model_36/tf.concat_14/concat/axis", "op": "Const", "attr": {"value": {"tensor": {"dtype": "DT_INT32", "tensorShape": {}}}, "dtype": {"type": "DT_INT32"}}}, {"name": "model_36/tf.compat.v1.transpose_95/transpose/perm", "op": "Const", "attr": {"value": {"tensor": {"dtype": "DT_INT32", "tensorShape": {"dim": [{"size": "4"}]}}}, "dtype": {"type": "DT_INT32"}}}, {"name": "model_36/tf.reshape_14/Reshape/shape", "op": "Const", "attr": {"value": {"tensor": {"dtype": "DT_INT32", "tensorShape": {"dim": [{"size": "3"}]}}}, "dtype": {"type": "DT_INT32"}}}, {"name": "model_36/tf.nn.convolution_322/convolution/filter", "op": "Const", "attr": {"value": {"tensor": {"dtype": "DT_FLOAT", "tensorShape": {"dim": [{"size": "3"}, {"size": "3"}, {"size": "256"}, {"size": "64"}]}}}, "dtype": {"type": "DT_FLOAT"}}}, {"name": "model_36/tf.math.add_94/Add/y", "op": "Const", "attr": {"value": {"tensor": {"dtype": "DT_FLOAT", "tensorShape": {"dim": [{"size": "64"}]}}}, "dtype": {"type": "DT_FLOAT"}}}, {"name": "model_36/tf.nn.convolution_324/convolution/filter", "op": "Const", "attr": {"value": {"tensor": {"dtype": "DT_FLOAT", "tensorShape": {"dim": [{"size": "3"}, {"size": "3"}, {"size": "64"}, {"size": "64"}]}}}, "dtype": {"type": "DT_FLOAT"}}}, {"name": "model_36/tf.math.add_97/Add/y", "op": "Const", "attr": {"value": {"tensor": {"dtype": "DT_FLOAT", "tensorShape": {"dim": [{"size": "64"}]}}}, "dtype": {"type": "DT_FLOAT"}}}, {"name": "model_36/tf.nn.convolution_328/convolution/filter", "op": "Const", "attr": {"value": {"tensor": {"dtype": "DT_FLOAT", "tensorShape": {"dim": [{"size": "1"}, {"size": "1"}, {"size": "64"}, {"size": "64"}]}}}, "dtype": {"type": "DT_FLOAT"}}}, {"name": "model_36/tf.math.add_101/Add/y", "op": "Const", "attr": {"value": {"tensor": {"dtype": "DT_FLOAT", "tensorShape": {"dim": [{"size": "64"}]}}}, "dtype": {"type": "DT_FLOAT"}}}, {"name": "model_36/tf.compat.v1.nn.depthwise_conv2d_2/depthwise/filter_in", "op": "Const", "attr": {"value": {"tensor": {"dtype": "DT_FLOAT", "tensorShape": {"dim": [{"size": "3"}, {"size": "3"}, {"size": "256"}, {"size": "1"}]}}}, "dtype": {"type": "DT_FLOAT"}}}, {"name": "model_36/tf.math.add_95/Add/y", "op": "Const", "attr": {"value": {"tensor": {"dtype": "DT_FLOAT", "tensorShape": {"dim": [{"size": "256"}]}}}, "dtype": {"type": "DT_FLOAT"}}}, {"name": "model_36/tf.nn.convolution_325/convolution/filter", "op": "Const", "attr": {"value": {"tensor": {"dtype": "DT_FLOAT", "tensorShape": {"dim": [{"size": "1"}, {"size": "1"}, {"size": "256"}, {"size": "128"}]}}}, "dtype": {"type": "DT_FLOAT"}}}, {"name": "model_36/tf.math.add_98/Add/y", "op": "Const", "attr": {"value": {"tensor": {"dtype": "DT_FLOAT", "tensorShape": {"dim": [{"size": "128"}]}}}, "dtype": {"type": "DT_FLOAT"}}}, {"name": "model_36/tf.compat.v1.nn.depthwise_conv2d_3/depthwise/filter_in", "op": "Const", "attr": {"value": {"tensor": {"dtype": "DT_FLOAT", "tensorShape": {"dim": [{"size": "3"}, {"size": "3"}, {"size": "128"}, {"size": "1"}]}}}, "dtype": {"type": "DT_FLOAT"}}}, {"name": "model_36/tf.math.add_102/Add/y", "op": "Const", "attr": {"value": {"tensor": {"dtype": "DT_FLOAT", "tensorShape": {"dim": [{"size": "128"}]}}}, "dtype": {"type": "DT_FLOAT"}}}, {"name": "model_36/tf.nn.convolution_331/convolution/filter", "op": "Const", "attr": {"value": {"tensor": {"dtype": "DT_FLOAT", "tensorShape": {"dim": [{"size": "1"}, {"size": "1"}, {"size": "128"}, {"size": "128"}]}}}, "dtype": {"type": "DT_FLOAT"}}}, {"name": "model_36/tf.math.add_105/Add/y", "op": "Const", "attr": {"value": {"tensor": {"dtype": "DT_FLOAT", "tensorShape": {"dim": [{"size": "128"}]}}}, "dtype": {"type": "DT_FLOAT"}}}, {"name": "model_36/tf.nn.convolution_333/convolution/filter", "op": "Const", "attr": {"value": {"tensor": {"dtype": "DT_FLOAT", "tensorShape": {"dim": [{"size": "1"}, {"size": "1"}, {"size": "128"}, {"size": "3"}]}}}, "dtype": {"type": "DT_FLOAT"}}}, {"name": "model_36/tf.math.add_107/Add/y", "op": "Const", "attr": {"value": {"tensor": {"dtype": "DT_FLOAT", "tensorShape": {"dim": [{"size": "3"}]}}}, "dtype": {"type": "DT_FLOAT"}}}, {"name": "model_36/tf.concat_17/concat/axis", "op": "Const", "attr": {"value": {"tensor": {"dtype": "DT_INT32", "tensorShape": {}}}, "dtype": {"type": "DT_INT32"}}}, {"name": "model_36/tf.compat.v1.transpose_120/transpose/perm", "op": "Const", "attr": {"value": {"tensor": {"dtype": "DT_INT32", "tensorShape": {"dim": [{"size": "4"}]}}}, "dtype": {"type": "DT_INT32"}}}, {"name": "model_36/tf.reshape_20/Reshape/shape", "op": "Const", "attr": {"value": {"tensor": {"dtype": "DT_INT32", "tensorShape": {"dim": [{"size": "3"}]}}}, "dtype": {"type": "DT_INT32"}}}, {"name": "model_36/tf.nn.convolution_340/convolution/filter", "op": "Const", "attr": {"value": {"tensor": {"dtype": "DT_FLOAT", "tensorShape": {"dim": [{"size": "3"}, {"size": "3"}, {"size": "512"}, {"size": "64"}]}}}, "dtype": {"type": "DT_FLOAT"}}}, {"name": "model_36/tf.math.add_118/Add/y", "op": "Const", "attr": {"value": {"tensor": {"dtype": "DT_FLOAT", "tensorShape": {"dim": [{"size": "64"}]}}}, "dtype": {"type": "DT_FLOAT"}}}, {"name": "model_36/tf.nn.convolution_342/convolution/filter", "op": "Const", "attr": {"value": {"tensor": {"dtype": "DT_FLOAT", "tensorShape": {"dim": [{"size": "3"}, {"size": "3"}, {"size": "64"}, {"size": "64"}]}}}, "dtype": {"type": "DT_FLOAT"}}}, {"name": "model_36/tf.math.add_121/Add/y", "op": "Const", "attr": {"value": {"tensor": {"dtype": "DT_FLOAT", "tensorShape": {"dim": [{"size": "64"}]}}}, "dtype": {"type": "DT_FLOAT"}}}, {"name": "model_36/tf.nn.convolution_345/convolution/filter", "op": "Const", "attr": {"value": {"tensor": {"dtype": "DT_FLOAT", "tensorShape": {"dim": [{"size": "1"}, {"size": "1"}, {"size": "64"}, {"size": "64"}]}}}, "dtype": {"type": "DT_FLOAT"}}}, {"name": "model_36/tf.math.add_124/Add/y", "op": "Const", "attr": {"value": {"tensor": {"dtype": "DT_FLOAT", "tensorShape": {"dim": [{"size": "64"}]}}}, "dtype": {"type": "DT_FLOAT"}}}, {"name": "model_36/tf.compat.v1.nn.depthwise_conv2d_4/depthwise/filter_in", "op": "Const", "attr": {"value": {"tensor": {"dtype": "DT_FLOAT", "tensorShape": {"dim": [{"size": "3"}, {"size": "3"}, {"size": "512"}, {"size": "1"}]}}}, "dtype": {"type": "DT_FLOAT"}}}, {"name": "model_36/tf.math.add_119/Add/y", "op": "Const", "attr": {"value": {"tensor": {"dtype": "DT_FLOAT", "tensorShape": {"dim": [{"size": "512"}]}}}, "dtype": {"type": "DT_FLOAT"}}}, {"name": "model_36/tf.nn.convolution_343/convolution/filter", "op": "Const", "attr": {"value": {"tensor": {"dtype": "DT_FLOAT", "tensorShape": {"dim": [{"size": "1"}, {"size": "1"}, {"size": "512"}, {"size": "128"}]}}}, "dtype": {"type": "DT_FLOAT"}}}, {"name": "model_36/tf.math.add_122/Add/y", "op": "Const", "attr": {"value": {"tensor": {"dtype": "DT_FLOAT", "tensorShape": {"dim": [{"size": "128"}]}}}, "dtype": {"type": "DT_FLOAT"}}}, {"name": "model_36/tf.compat.v1.nn.depthwise_conv2d_5/depthwise/filter_in", "op": "Const", "attr": {"value": {"tensor": {"dtype": "DT_FLOAT", "tensorShape": {"dim": [{"size": "3"}, {"size": "3"}, {"size": "128"}, {"size": "1"}]}}}, "dtype": {"type": "DT_FLOAT"}}}, {"name": "model_36/tf.math.add_125/Add/y", "op": "Const", "attr": {"value": {"tensor": {"dtype": "DT_FLOAT", "tensorShape": {"dim": [{"size": "128"}]}}}, "dtype": {"type": "DT_FLOAT"}}}, {"name": "model_36/tf.nn.convolution_346/convolution/filter", "op": "Const", "attr": {"value": {"tensor": {"dtype": "DT_FLOAT", "tensorShape": {"dim": [{"size": "1"}, {"size": "1"}, {"size": "128"}, {"size": "128"}]}}}, "dtype": {"type": "DT_FLOAT"}}}, {"name": "model_36/tf.math.add_126/Add/y", "op": "Const", "attr": {"value": {"tensor": {"dtype": "DT_FLOAT", "tensorShape": {"dim": [{"size": "128"}]}}}, "dtype": {"type": "DT_FLOAT"}}}, {"name": "model_36/tf.nn.convolution_347/convolution/filter", "op": "Const", "attr": {"value": {"tensor": {"dtype": "DT_FLOAT", "tensorShape": {"dim": [{"size": "1"}, {"size": "1"}, {"size": "128"}, {"size": "3"}]}}}, "dtype": {"type": "DT_FLOAT"}}}, {"name": "model_36/tf.math.add_127/Add/y", "op": "Const", "attr": {"value": {"tensor": {"dtype": "DT_FLOAT", "tensorShape": {"dim": [{"size": "3"}]}}}, "dtype": {"type": "DT_FLOAT"}}}, {"name": "model_36/tf.concat_21/concat/axis", "op": "Const", "attr": {"value": {"tensor": {"dtype": "DT_INT32", "tensorShape": {}}}, "dtype": {"type": "DT_INT32"}}}, {"name": "model_36/tf.compat.v1.transpose_145/transpose/perm", "op": "Const", "attr": {"value": {"tensor": {"dtype": "DT_INT32", "tensorShape": {"dim": [{"size": "4"}]}}}, "dtype": {"type": "DT_INT32"}}}, {"name": "model_36/tf.reshape_26/Reshape/shape", "op": "Const", "attr": {"value": {"tensor": {"dtype": "DT_INT32", "tensorShape": {"dim": [{"size": "3"}]}}}, "dtype": {"type": "DT_INT32"}}}, {"name": "model_36/tf.concat_22/concat/axis", "op": "Const", "attr": {"value": {"tensor": {"dtype": "DT_INT32", "tensorShape": {}}}, "dtype": {"type": "DT_INT32"}}}, {"name": "model_36/tf.strided_slice_22/StridedSlice/begin", "op": "Const", "attr": {"value": {"tensor": {"dtype": "DT_INT64", "tensorShape": {"dim": [{"size": "3"}]}}}, "dtype": {"type": "DT_INT64"}}}, {"name": "model_36/tf.strided_slice_22/StridedSlice/end", "op": "Const", "attr": {"value": {"tensor": {"dtype": "DT_INT64", "tensorShape": {"dim": [{"size": "3"}]}}}, "dtype": {"type": "DT_INT64"}}}, {"name": "model_36/tf.strided_slice_22/StridedSlice/strides", "op": "Const", "attr": {"value": {"tensor": {"dtype": "DT_INT64", "tensorShape": {"dim": [{"size": "3"}]}}}, "dtype": {"type": "DT_INT64"}}}, {"name": "model_36/tf.nn.convolution_305/convolution/filter", "op": "Const", "attr": {"value": {"tensor": {"dtype": "DT_FLOAT", "tensorShape": {"dim": [{"size": "3"}, {"size": "3"}, {"size": "128"}, {"size": "32"}]}}}, "dtype": {"type": "DT_FLOAT"}}}, {"name": "model_36/tf.math.add_72/Add/y", "op": "Const", "attr": {"value": {"tensor": {"dtype": "DT_FLOAT", "tensorShape": {"dim": [{"size": "32"}]}}}, "dtype": {"type": "DT_FLOAT"}}}, {"name": "model_36/tf.nn.convolution_307/convolution/filter", "op": "Const", "attr": {"value": {"tensor": {"dtype": "DT_FLOAT", "tensorShape": {"dim": [{"size": "3"}, {"size": "3"}, {"size": "32"}, {"size": "32"}]}}}, "dtype": {"type": "DT_FLOAT"}}}, {"name": "model_36/tf.math.add_76/Add/y", "op": "Const", "attr": {"value": {"tensor": {"dtype": "DT_FLOAT", "tensorShape": {"dim": [{"size": "32"}]}}}, "dtype": {"type": "DT_FLOAT"}}}, {"name": "model_36/tf.nn.convolution_312/convolution/filter", "op": "Const", "attr": {"value": {"tensor": {"dtype": "DT_FLOAT", "tensorShape": {"dim": [{"size": "1"}, {"size": "1"}, {"size": "32"}, {"size": "32"}]}}}, "dtype": {"type": "DT_FLOAT"}}}, {"name": "model_36/tf.math.add_81/Add/y", "op": "Const", "attr": {"value": {"tensor": {"dtype": "DT_FLOAT", "tensorShape": {"dim": [{"size": "32"}]}}}, "dtype": {"type": "DT_FLOAT"}}}, {"name": "model_36/tf.compat.v1.transpose_85/transpose/perm", "op": "Const", "attr": {"value": {"tensor": {"dtype": "DT_INT32", "tensorShape": {"dim": [{"size": "4"}]}}}, "dtype": {"type": "DT_INT32"}}}, {"name": "model_36/tf.reshape_11/Reshape/shape", "op": "Const", "attr": {"value": {"tensor": {"dtype": "DT_INT32", "tensorShape": {"dim": [{"size": "3"}]}}}, "dtype": {"type": "DT_INT32"}}}, {"name": "model_36/tf.nn.convolution_321/convolution/filter", "op": "Const", "attr": {"value": {"tensor": {"dtype": "DT_FLOAT", "tensorShape": {"dim": [{"size": "3"}, {"size": "3"}, {"size": "256"}, {"size": "32"}]}}}, "dtype": {"type": "DT_FLOAT"}}}, {"name": "model_36/tf.math.add_93/Add/y", "op": "Const", "attr": {"value": {"tensor": {"dtype": "DT_FLOAT", "tensorShape": {"dim": [{"size": "32"}]}}}, "dtype": {"type": "DT_FLOAT"}}}, {"name": "model_36/tf.nn.convolution_323/convolution/filter", "op": "Const", "attr": {"value": {"tensor": {"dtype": "DT_FLOAT", "tensorShape": {"dim": [{"size": "3"}, {"size": "3"}, {"size": "32"}, {"size": "32"}]}}}, "dtype": {"type": "DT_FLOAT"}}}, {"name": "model_36/tf.math.add_96/Add/y", "op": "Const", "attr": {"value": {"tensor": {"dtype": "DT_FLOAT", "tensorShape": {"dim": [{"size": "32"}]}}}, "dtype": {"type": "DT_FLOAT"}}}, {"name": "model_36/tf.nn.convolution_327/convolution/filter", "op": "Const", "attr": {"value": {"tensor": {"dtype": "DT_FLOAT", "tensorShape": {"dim": [{"size": "1"}, {"size": "1"}, {"size": "32"}, {"size": "32"}]}}}, "dtype": {"type": "DT_FLOAT"}}}, {"name": "model_36/tf.math.add_100/Add/y", "op": "Const", "attr": {"value": {"tensor": {"dtype": "DT_FLOAT", "tensorShape": {"dim": [{"size": "32"}]}}}, "dtype": {"type": "DT_FLOAT"}}}, {"name": "model_36/tf.compat.v1.transpose_110/transpose/perm", "op": "Const", "attr": {"value": {"tensor": {"dtype": "DT_INT32", "tensorShape": {"dim": [{"size": "4"}]}}}, "dtype": {"type": "DT_INT32"}}}, {"name": "model_36/tf.reshape_17/Reshape/shape", "op": "Const", "attr": {"value": {"tensor": {"dtype": "DT_INT32", "tensorShape": {"dim": [{"size": "3"}]}}}, "dtype": {"type": "DT_INT32"}}}, {"name": "model_36/tf.strided_slice_19/ones_like/tensor", "op": "Const", "attr": {"value": {"tensor": {"dtype": "DT_INT64", "tensorShape": {"dim": [{"size": "4"}]}}}, "dtype": {"type": "DT_INT64"}}}, {"name": "model_36/tf.strided_slice_19/StridedSlice/end", "op": "Const", "attr": {"value": {"tensor": {"dtype": "DT_INT64", "tensorShape": {"dim": [{"size": "4"}]}}}, "dtype": {"type": "DT_INT64"}}}, {"name": "model_36/tf.strided_slice_19/ones_like", "op": "Const", "attr": {"value": {"tensor": {"dtype": "DT_INT64", "tensorShape": {"dim": [{"size": "4"}]}}}, "dtype": {"type": "DT_INT64"}}}, {"name": "model_36/tf.nn.convolution_329/convolution/filter", "op": "Const", "attr": {"value": {"tensor": {"dtype": "DT_FLOAT", "tensorShape": {"dim": [{"size": "1"}, {"size": "1"}, {"size": "256"}, {"size": "128"}]}}}, "dtype": {"type": "DT_FLOAT"}}}, {"name": "model_36/tf.math.add_103/Add/y", "op": "Const", "attr": {"value": {"tensor": {"dtype": "DT_FLOAT", "tensorShape": {"dim": [{"size": "128"}]}}}, "dtype": {"type": "DT_FLOAT"}}}, {"name": "model_36/tf.nn.convolution_332/convolution/filter", "op": "Const", "attr": {"value": {"tensor": {"dtype": "DT_FLOAT", "tensorShape": {"dim": [{"size": "3"}, {"size": "3"}, {"size": "128"}, {"size": "128"}]}}}, "dtype": {"type": "DT_FLOAT"}}}, {"name": "model_36/tf.math.add_106/Add/y", "op": "Const", "attr": {"value": {"tensor": {"dtype": "DT_FLOAT", "tensorShape": {"dim": [{"size": "128"}]}}}, "dtype": {"type": "DT_FLOAT"}}}, {"name": "model_36/tf.nn.convolution_334/convolution/filter", "op": "Const", "attr": {"value": {"tensor": {"dtype": "DT_FLOAT", "tensorShape": {"dim": [{"size": "3"}, {"size": "3"}, {"size": "128"}, {"size": "128"}]}}}, "dtype": {"type": "DT_FLOAT"}}}, {"name": "model_36/tf.math.add_108/Add/y", "op": "Const", "attr": {"value": {"tensor": {"dtype": "DT_FLOAT", "tensorShape": {"dim": [{"size": "128"}]}}}, "dtype": {"type": "DT_FLOAT"}}}, {"name": "model_36/tf.nn.convolution_335/convolution/filter", "op": "Const", "attr": {"value": {"tensor": {"dtype": "DT_FLOAT", "tensorShape": {"dim": [{"size": "3"}, {"size": "3"}, {"size": "128"}, {"size": "128"}]}}}, "dtype": {"type": "DT_FLOAT"}}}, {"name": "model_36/tf.math.add_111/Add/y", "op": "Const", "attr": {"value": {"tensor": {"dtype": "DT_FLOAT", "tensorShape": {"dim": [{"size": "128"}]}}}, "dtype": {"type": "DT_FLOAT"}}}, {"name": "model_36/tf.nn.convolution_336/convolution/filter", "op": "Const", "attr": {"value": {"tensor": {"dtype": "DT_FLOAT", "tensorShape": {"dim": [{"size": "3"}, {"size": "3"}, {"size": "128"}, {"size": "128"}]}}}, "dtype": {"type": "DT_FLOAT"}}}, {"name": "model_36/tf.math.add_112/Add/y", "op": "Const", "attr": {"value": {"tensor": {"dtype": "DT_FLOAT", "tensorShape": {"dim": [{"size": "128"}]}}}, "dtype": {"type": "DT_FLOAT"}}}, {"name": "model_36/tf.strided_slice_17/ones_like/tensor", "op": "Const", "attr": {"value": {"tensor": {"dtype": "DT_INT64", "tensorShape": {"dim": [{"size": "4"}]}}}, "dtype": {"type": "DT_INT64"}}}, {"name": "model_36/tf.strided_slice_17/StridedSlice/end", "op": "Const", "attr": {"value": {"tensor": {"dtype": "DT_INT64", "tensorShape": {"dim": [{"size": "4"}]}}}, "dtype": {"type": "DT_INT64"}}}, {"name": "model_36/tf.strided_slice_17/ones_like", "op": "Const", "attr": {"value": {"tensor": {"dtype": "DT_INT64", "tensorShape": {"dim": [{"size": "4"}]}}}, "dtype": {"type": "DT_INT64"}}}, {"name": "model_36/tf.strided_slice_15/ones_like/tensor", "op": "Const", "attr": {"value": {"tensor": {"dtype": "DT_INT64", "tensorShape": {"dim": [{"size": "4"}]}}}, "dtype": {"type": "DT_INT64"}}}, {"name": "model_36/tf.strided_slice_15/StridedSlice/end", "op": "Const", "attr": {"value": {"tensor": {"dtype": "DT_INT64", "tensorShape": {"dim": [{"size": "4"}]}}}, "dtype": {"type": "DT_INT64"}}}, {"name": "model_36/tf.strided_slice_15/ones_like", "op": "Const", "attr": {"value": {"tensor": {"dtype": "DT_INT64", "tensorShape": {"dim": [{"size": "4"}]}}}, "dtype": {"type": "DT_INT64"}}}, {"name": "model_36/tf.image.resize_1/resize/size", "op": "Const", "attr": {"value": {"tensor": {"dtype": "DT_INT32", "tensorShape": {"dim": [{"size": "2"}]}}}, "dtype": {"type": "DT_INT32"}}}, {"name": "model_36/tf.concat_11/concat/axis", "op": "Const", "attr": {"value": {"tensor": {"dtype": "DT_INT32", "tensorShape": {}}}, "dtype": {"type": "DT_INT32"}}}, {"name": "model_36/tf.nn.convolution_299/convolution/filter", "op": "Const", "attr": {"value": {"tensor": {"dtype": "DT_FLOAT", "tensorShape": {"dim": [{"size": "1"}, {"size": "1"}, {"size": "512"}, {"size": "128"}]}}}, "dtype": {"type": "DT_FLOAT"}}}, {"name": "model_36/tf.math.add_64/Add/y", "op": "Const", "attr": {"value": {"tensor": {"dtype": "DT_FLOAT", "tensorShape": {"dim": [{"size": "128"}]}}}, "dtype": {"type": "DT_FLOAT"}}}, {"name": "model_36/tf.strided_slice_16/ones_like/tensor", "op": "Const", "attr": {"value": {"tensor": {"dtype": "DT_INT64", "tensorShape": {"dim": [{"size": "4"}]}}}, "dtype": {"type": "DT_INT64"}}}, {"name": "model_36/tf.strided_slice_16/StridedSlice/end", "op": "Const", "attr": {"value": {"tensor": {"dtype": "DT_INT64", "tensorShape": {"dim": [{"size": "4"}]}}}, "dtype": {"type": "DT_INT64"}}}, {"name": "model_36/tf.strided_slice_16/ones_like", "op": "Const", "attr": {"value": {"tensor": {"dtype": "DT_INT64", "tensorShape": {"dim": [{"size": "4"}]}}}, "dtype": {"type": "DT_INT64"}}}, {"name": "model_36/tf.nn.convolution_300/convolution/filter", "op": "Const", "attr": {"value": {"tensor": {"dtype": "DT_FLOAT", "tensorShape": {"dim": [{"size": "3"}, {"size": "3"}, {"size": "64"}, {"size": "32"}]}}}, "dtype": {"type": "DT_FLOAT"}}}, {"name": "model_36/tf.math.add_65/Add/y", "op": "Const", "attr": {"value": {"tensor": {"dtype": "DT_FLOAT", "tensorShape": {"dim": [{"size": "32"}]}}}, "dtype": {"type": "DT_FLOAT"}}}, {"name": "model_36/tf.nn.convolution_301/convolution/filter", "op": "Const", "attr": {"value": {"tensor": {"dtype": "DT_FLOAT", "tensorShape": {"dim": [{"size": "3"}, {"size": "3"}, {"size": "32"}, {"size": "64"}]}}}, "dtype": {"type": "DT_FLOAT"}}}, {"name": "model_36/tf.math.add_66/Add/y", "op": "Const", "attr": {"value": {"tensor": {"dtype": "DT_FLOAT", "tensorShape": {"dim": [{"size": "64"}]}}}, "dtype": {"type": "DT_FLOAT"}}}, {"name": "model_36/tf.concat_12/concat/axis", "op": "Const", "attr": {"value": {"tensor": {"dtype": "DT_INT32", "tensorShape": {}}}, "dtype": {"type": "DT_INT32"}}}, {"name": "model_36/tf.nn.convolution_302/convolution/filter", "op": "Const", "attr": {"value": {"tensor": {"dtype": "DT_FLOAT", "tensorShape": {"dim": [{"size": "1"}, {"size": "1"}, {"size": "192"}, {"size": "128"}]}}}, "dtype": {"type": "DT_FLOAT"}}}, {"name": "model_36/tf.math.add_69/Add/y", "op": "Const", "attr": {"value": {"tensor": {"dtype": "DT_FLOAT", "tensorShape": {"dim": [{"size": "128"}]}}}, "dtype": {"type": "DT_FLOAT"}}}, {"name": "model_36/tf.compat.v1.pad_5/Pad/paddings", "op": "Const", "attr": {"value": {"tensor": {"dtype": "DT_INT32", "tensorShape": {"dim": [{"size": "4"}, {"size": "2"}]}}}, "dtype": {"type": "DT_INT32"}}}, {"name": "model_36/tf.nn.convolution_303/convolution/filter", "op": "Const", "attr": {"value": {"tensor": {"dtype": "DT_FLOAT", "tensorShape": {"dim": [{"size": "3"}, {"size": "3"}, {"size": "128"}, {"size": "128"}]}}}, "dtype": {"type": "DT_FLOAT"}}}, {"name": "model_36/tf.math.add_70/Add/y", "op": "Const", "attr": {"value": {"tensor": {"dtype": "DT_FLOAT", "tensorShape": {"dim": [{"size": "128"}]}}}, "dtype": {"type": "DT_FLOAT"}}}, {"name": "model_36/tf.strided_slice_13/ones_like/tensor", "op": "Const", "attr": {"value": {"tensor": {"dtype": "DT_INT64", "tensorShape": {"dim": [{"size": "4"}]}}}, "dtype": {"type": "DT_INT64"}}}, {"name": "model_36/tf.strided_slice_13/StridedSlice/end", "op": "Const", "attr": {"value": {"tensor": {"dtype": "DT_INT64", "tensorShape": {"dim": [{"size": "4"}]}}}, "dtype": {"type": "DT_INT64"}}}, {"name": "model_36/tf.strided_slice_13/ones_like", "op": "Const", "attr": {"value": {"tensor": {"dtype": "DT_INT64", "tensorShape": {"dim": [{"size": "4"}]}}}, "dtype": {"type": "DT_INT64"}}}, {"name": "model_36/tf.image.resize/resize/size", "op": "Const", "attr": {"value": {"tensor": {"dtype": "DT_INT32", "tensorShape": {"dim": [{"size": "2"}]}}}, "dtype": {"type": "DT_INT32"}}}, {"name": "model_36/tf.concat_9/concat/axis", "op": "Const", "attr": {"value": {"tensor": {"dtype": "DT_INT32", "tensorShape": {}}}, "dtype": {"type": "DT_INT32"}}}, {"name": "model_36/tf.nn.convolution_295/convolution/filter", "op": "Const", "attr": {"value": {"tensor": {"dtype": "DT_FLOAT", "tensorShape": {"dim": [{"size": "1"}, {"size": "1"}, {"size": "768"}, {"size": "256"}]}}}, "dtype": {"type": "DT_FLOAT"}}}, {"name": "model_36/tf.math.add_58/Add/y", "op": "Const", "attr": {"value": {"tensor": {"dtype": "DT_FLOAT", "tensorShape": {"dim": [{"size": "256"}]}}}, "dtype": {"type": "DT_FLOAT"}}}, {"name": "model_36/tf.strided_slice_14/ones_like/tensor", "op": "Const", "attr": {"value": {"tensor": {"dtype": "DT_INT64", "tensorShape": {"dim": [{"size": "4"}]}}}, "dtype": {"type": "DT_INT64"}}}, {"name": "model_36/tf.strided_slice_14/StridedSlice/end", "op": "Const", "attr": {"value": {"tensor": {"dtype": "DT_INT64", "tensorShape": {"dim": [{"size": "4"}]}}}, "dtype": {"type": "DT_INT64"}}}, {"name": "model_36/tf.strided_slice_14/ones_like", "op": "Const", "attr": {"value": {"tensor": {"dtype": "DT_INT64", "tensorShape": {"dim": [{"size": "4"}]}}}, "dtype": {"type": "DT_INT64"}}}, {"name": "model_36/tf.nn.convolution_296/convolution/filter", "op": "Const", "attr": {"value": {"tensor": {"dtype": "DT_FLOAT", "tensorShape": {"dim": [{"size": "3"}, {"size": "3"}, {"size": "128"}, {"size": "64"}]}}}, "dtype": {"type": "DT_FLOAT"}}}, {"name": "model_36/tf.math.add_59/Add/y", "op": "Const", "attr": {"value": {"tensor": {"dtype": "DT_FLOAT", "tensorShape": {"dim": [{"size": "64"}]}}}, "dtype": {"type": "DT_FLOAT"}}}, {"name": "model_36/tf.nn.convolution_297/convolution/filter", "op": "Const", "attr": {"value": {"tensor": {"dtype": "DT_FLOAT", "tensorShape": {"dim": [{"size": "3"}, {"size": "3"}, {"size": "64"}, {"size": "128"}]}}}, "dtype": {"type": "DT_FLOAT"}}}, {"name": "model_36/tf.math.add_60/Add/y", "op": "Const", "attr": {"value": {"tensor": {"dtype": "DT_FLOAT", "tensorShape": {"dim": [{"size": "128"}]}}}, "dtype": {"type": "DT_FLOAT"}}}, {"name": "model_36/tf.concat_10/concat/axis", "op": "Const", "attr": {"value": {"tensor": {"dtype": "DT_INT32", "tensorShape": {}}}, "dtype": {"type": "DT_INT32"}}}, {"name": "model_36/tf.nn.convolution_298/convolution/filter", "op": "Const", "attr": {"value": {"tensor": {"dtype": "DT_FLOAT", "tensorShape": {"dim": [{"size": "1"}, {"size": "1"}, {"size": "384"}, {"size": "256"}]}}}, "dtype": {"type": "DT_FLOAT"}}}, {"name": "model_36/tf.math.add_63/Add/y", "op": "Const", "attr": {"value": {"tensor": {"dtype": "DT_FLOAT", "tensorShape": {"dim": [{"size": "256"}]}}}, "dtype": {"type": "DT_FLOAT"}}}, {"name": "model_36/tf.concat_13/concat/axis", "op": "Const", "attr": {"value": {"tensor": {"dtype": "DT_INT32", "tensorShape": {}}}, "dtype": {"type": "DT_INT32"}}}, {"name": "model_36/tf.nn.convolution_310/convolution/filter", "op": "Const", "attr": {"value": {"tensor": {"dtype": "DT_FLOAT", "tensorShape": {"dim": [{"size": "1"}, {"size": "1"}, {"size": "384"}, {"size": "256"}]}}}, "dtype": {"type": "DT_FLOAT"}}}, {"name": "model_36/tf.math.add_79/Add/y", "op": "Const", "attr": {"value": {"tensor": {"dtype": "DT_FLOAT", "tensorShape": {"dim": [{"size": "256"}]}}}, "dtype": {"type": "DT_FLOAT"}}}, {"name": "model_36/tf.strided_slice_18/ones_like/tensor", "op": "Const", "attr": {"value": {"tensor": {"dtype": "DT_INT64", "tensorShape": {"dim": [{"size": "4"}]}}}, "dtype": {"type": "DT_INT64"}}}, {"name": "model_36/tf.strided_slice_18/StridedSlice/end", "op": "Const", "attr": {"value": {"tensor": {"dtype": "DT_INT64", "tensorShape": {"dim": [{"size": "4"}]}}}, "dtype": {"type": "DT_INT64"}}}, {"name": "model_36/tf.strided_slice_18/ones_like", "op": "Const", "attr": {"value": {"tensor": {"dtype": "DT_INT64", "tensorShape": {"dim": [{"size": "4"}]}}}, "dtype": {"type": "DT_INT64"}}}, {"name": "model_36/tf.nn.convolution_315/convolution/filter", "op": "Const", "attr": {"value": {"tensor": {"dtype": "DT_FLOAT", "tensorShape": {"dim": [{"size": "3"}, {"size": "3"}, {"size": "128"}, {"size": "64"}]}}}, "dtype": {"type": "DT_FLOAT"}}}, {"name": "model_36/tf.math.add_85/Add/y", "op": "Const", "attr": {"value": {"tensor": {"dtype": "DT_FLOAT", "tensorShape": {"dim": [{"size": "64"}]}}}, "dtype": {"type": "DT_FLOAT"}}}, {"name": "model_36/tf.nn.convolution_317/convolution/filter", "op": "Const", "attr": {"value": {"tensor": {"dtype": "DT_FLOAT", "tensorShape": {"dim": [{"size": "3"}, {"size": "3"}, {"size": "64"}, {"size": "128"}]}}}, "dtype": {"type": "DT_FLOAT"}}}, {"name": "model_36/tf.math.add_87/Add/y", "op": "Const", "attr": {"value": {"tensor": {"dtype": "DT_FLOAT", "tensorShape": {"dim": [{"size": "128"}]}}}, "dtype": {"type": "DT_FLOAT"}}}, {"name": "model_36/tf.concat_15/concat/axis", "op": "Const", "attr": {"value": {"tensor": {"dtype": "DT_INT32", "tensorShape": {}}}, "dtype": {"type": "DT_INT32"}}}, {"name": "model_36/tf.nn.convolution_319/convolution/filter", "op": "Const", "attr": {"value": {"tensor": {"dtype": "DT_FLOAT", "tensorShape": {"dim": [{"size": "1"}, {"size": "1"}, {"size": "384"}, {"size": "256"}]}}}, "dtype": {"type": "DT_FLOAT"}}}, {"name": "model_36/tf.math.add_91/Add/y", "op": "Const", "attr": {"value": {"tensor": {"dtype": "DT_FLOAT", "tensorShape": {"dim": [{"size": "256"}]}}}, "dtype": {"type": "DT_FLOAT"}}}, {"name": "model_36/tf.compat.v1.pad_6/Pad/paddings", "op": "Const", "attr": {"value": {"tensor": {"dtype": "DT_INT32", "tensorShape": {"dim": [{"size": "4"}, {"size": "2"}]}}}, "dtype": {"type": "DT_INT32"}}}, {"name": "model_36/tf.nn.convolution_320/convolution/filter", "op": "Const", "attr": {"value": {"tensor": {"dtype": "DT_FLOAT", "tensorShape": {"dim": [{"size": "3"}, {"size": "3"}, {"size": "256"}, {"size": "256"}]}}}, "dtype": {"type": "DT_FLOAT"}}}, {"name": "model_36/tf.math.add_92/Add/y", "op": "Const", "attr": {"value": {"tensor": {"dtype": "DT_FLOAT", "tensorShape": {"dim": [{"size": "256"}]}}}, "dtype": {"type": "DT_FLOAT"}}}, {"name": "model_36/tf.strided_slice_8/StridedSlice/begin", "op": "Const", "attr": {"value": {"tensor": {"dtype": "DT_INT32", "tensorShape": {"dim": [{"size": "4"}]}}}, "dtype": {"type": "DT_INT32"}}}, {"name": "model_36/tf.strided_slice_8/StridedSlice/end", "op": "Const", "attr": {"value": {"tensor": {"dtype": "DT_INT32", "tensorShape": {"dim": [{"size": "4"}]}}}, "dtype": {"type": "DT_INT32"}}}, {"name": "model_36/tf.strided_slice_8/ones_like", "op": "Const", "attr": {"value": {"tensor": {"dtype": "DT_INT32", "tensorShape": {"dim": [{"size": "4"}]}}}, "dtype": {"type": "DT_INT32"}}}, {"name": "model_36/tf.math.add_54/Add/y", "op": "Const", "attr": {"value": {"tensor": {"dtype": "DT_FLOAT", "tensorShape": {"dim": [{"size": "256"}]}}}, "dtype": {"type": "DT_FLOAT"}}}, {"name": "model_36/tf.math.add_47/Add/y", "op": "Const", "attr": {"value": {"tensor": {"dtype": "DT_FLOAT", "tensorShape": {"dim": [{"size": "256"}]}}}, "dtype": {"type": "DT_FLOAT"}}}, {"name": "model_36/tf.strided_slice_10/StridedSlice/begin", "op": "Const", "attr": {"value": {"tensor": {"dtype": "DT_INT32", "tensorShape": {"dim": [{"size": "4"}]}}}, "dtype": {"type": "DT_INT32"}}}, {"name": "model_36/tf.strided_slice_10/StridedSlice/end", "op": "Const", "attr": {"value": {"tensor": {"dtype": "DT_INT32", "tensorShape": {"dim": [{"size": "4"}]}}}, "dtype": {"type": "DT_INT32"}}}, {"name": "model_36/tf.strided_slice_10/ones_like", "op": "Const", "attr": {"value": {"tensor": {"dtype": "DT_INT32", "tensorShape": {"dim": [{"size": "4"}]}}}, "dtype": {"type": "DT_INT32"}}}, {"name": "model_36/tf.strided_slice_11/StridedSlice/begin", "op": "Const", "attr": {"value": {"tensor": {"dtype": "DT_INT32", "tensorShape": {"dim": [{"size": "4"}]}}}, "dtype": {"type": "DT_INT32"}}}, {"name": "model_36/tf.strided_slice_11/StridedSlice/end", "op": "Const", "attr": {"value": {"tensor": {"dtype": "DT_INT32", "tensorShape": {"dim": [{"size": "4"}]}}}, "dtype": {"type": "DT_INT32"}}}, {"name": "model_36/tf.strided_slice_11/ones_like", "op": "Const", "attr": {"value": {"tensor": {"dtype": "DT_INT32", "tensorShape": {"dim": [{"size": "4"}]}}}, "dtype": {"type": "DT_INT32"}}}, {"name": "model_36/tf.math.multiply_150/Mul/y", "op": "Const", "attr": {"value": {"tensor": {"dtype": "DT_FLOAT", "tensorShape": {}}}, "dtype": {"type": "DT_FLOAT"}}}, {"name": "model_36/tf.reshape_8/Reshape/shape", "op": "Const", "attr": {"value": {"tensor": {"dtype": "DT_INT32", "tensorShape": {"dim": [{"size": "4"}]}}}, "dtype": {"type": "DT_INT32"}}}, {"name": "model_36/tf.compat.v1.transpose_57/transpose/perm", "op": "Const", "attr": {"value": {"tensor": {"dtype": "DT_INT32", "tensorShape": {"dim": [{"size": "4"}]}}}, "dtype": {"type": "DT_INT32"}}}, {"name": "model_36/tf.nn.convolution_35/convolution/filter", "op": "Const", "attr": {"value": {"tensor": {"dtype": "DT_FLOAT", "tensorShape": {"dim": [{"size": "3"}, {"size": "3"}, {"size": "1"}, {"size": "1"}]}}}, "dtype": {"type": "DT_FLOAT"}}}, {"name": "model_36/tf.nn.convolution_36/convolution/filter", "op": "Const", "attr": {"value": {"tensor": {"dtype": "DT_FLOAT", "tensorShape": {"dim": [{"size": "3"}, {"size": "3"}, {"size": "1"}, {"size": "1"}]}}}, "dtype": {"type": "DT_FLOAT"}}}, {"name": "model_36/tf.nn.convolution_37/convolution/filter", "op": "Const", "attr": {"value": {"tensor": {"dtype": "DT_FLOAT", "tensorShape": {"dim": [{"size": "3"}, {"size": "3"}, {"size": "1"}, {"size": "1"}]}}}, "dtype": {"type": "DT_FLOAT"}}}, {"name": "model_36/tf.nn.convolution_38/convolution/filter", "op": "Const", "attr": {"value": {"tensor": {"dtype": "DT_FLOAT", "tensorShape": {"dim": [{"size": "3"}, {"size": "3"}, {"size": "1"}, {"size": "1"}]}}}, "dtype": {"type": "DT_FLOAT"}}}, {"name": "model_36/tf.nn.convolution_39/convolution/filter", "op": "Const", "attr": {"value": {"tensor": {"dtype": "DT_FLOAT", "tensorShape": {"dim": [{"size": "3"}, {"size": "3"}, {"size": "1"}, {"size": "1"}]}}}, "dtype": {"type": "DT_FLOAT"}}}, {"name": "model_36/tf.nn.convolution_40/convolution/filter", "op": "Const", "attr": {"value": {"tensor": {"dtype": "DT_FLOAT", "tensorShape": {"dim": [{"size": "3"}, {"size": "3"}, {"size": "1"}, {"size": "1"}]}}}, "dtype": {"type": "DT_FLOAT"}}}, {"name": "model_36/tf.nn.convolution_41/convolution/filter", "op": "Const", "attr": {"value": {"tensor": {"dtype": "DT_FLOAT", "tensorShape": {"dim": [{"size": "3"}, {"size": "3"}, {"size": "1"}, {"size": "1"}]}}}, "dtype": {"type": "DT_FLOAT"}}}, {"name": "model_36/tf.nn.convolution_42/convolution/filter", "op": "Const", "attr": {"value": {"tensor": {"dtype": "DT_FLOAT", "tensorShape": {"dim": [{"size": "3"}, {"size": "3"}, {"size": "1"}, {"size": "1"}]}}}, "dtype": {"type": "DT_FLOAT"}}}, {"name": "model_36/tf.nn.convolution_43/convolution/filter", "op": "Const", "attr": {"value": {"tensor": {"dtype": "DT_FLOAT", "tensorShape": {"dim": [{"size": "3"}, {"size": "3"}, {"size": "1"}, {"size": "1"}]}}}, "dtype": {"type": "DT_FLOAT"}}}, {"name": "model_36/tf.nn.convolution_44/convolution/filter", "op": "Const", "attr": {"value": {"tensor": {"dtype": "DT_FLOAT", "tensorShape": {"dim": [{"size": "3"}, {"size": "3"}, {"size": "1"}, {"size": "1"}]}}}, "dtype": {"type": "DT_FLOAT"}}}, {"name": "model_36/tf.nn.convolution_45/convolution/filter", "op": "Const", "attr": {"value": {"tensor": {"dtype": "DT_FLOAT", "tensorShape": {"dim": [{"size": "3"}, {"size": "3"}, {"size": "1"}, {"size": "1"}]}}}, "dtype": {"type": "DT_FLOAT"}}}, {"name": "model_36/tf.nn.convolution_46/convolution/filter", "op": "Const", "attr": {"value": {"tensor": {"dtype": "DT_FLOAT", "tensorShape": {"dim": [{"size": "3"}, {"size": "3"}, {"size": "1"}, {"size": "1"}]}}}, "dtype": {"type": "DT_FLOAT"}}}, {"name": "model_36/tf.nn.convolution_47/convolution/filter", "op": "Const", "attr": {"value": {"tensor": {"dtype": "DT_FLOAT", "tensorShape": {"dim": [{"size": "3"}, {"size": "3"}, {"size": "1"}, {"size": "1"}]}}}, "dtype": {"type": "DT_FLOAT"}}}, {"name": "model_36/tf.nn.convolution_48/convolution/filter", "op": "Const", "attr": {"value": {"tensor": {"dtype": "DT_FLOAT", "tensorShape": {"dim": [{"size": "3"}, {"size": "3"}, {"size": "1"}, {"size": "1"}]}}}, "dtype": {"type": "DT_FLOAT"}}}, {"name": "model_36/tf.nn.convolution_49/convolution/filter", "op": "Const", "attr": {"value": {"tensor": {"dtype": "DT_FLOAT", "tensorShape": {"dim": [{"size": "3"}, {"size": "3"}, {"size": "1"}, {"size": "1"}]}}}, "dtype": {"type": "DT_FLOAT"}}}, {"name": "model_36/tf.nn.convolution_50/convolution/filter", "op": "Const", "attr": {"value": {"tensor": {"dtype": "DT_FLOAT", "tensorShape": {"dim": [{"size": "3"}, {"size": "3"}, {"size": "1"}, {"size": "1"}]}}}, "dtype": {"type": "DT_FLOAT"}}}, {"name": "model_36/tf.nn.convolution_51/convolution/filter", "op": "Const", "attr": {"value": {"tensor": {"dtype": "DT_FLOAT", "tensorShape": {"dim": [{"size": "3"}, {"size": "3"}, {"size": "1"}, {"size": "1"}]}}}, "dtype": {"type": "DT_FLOAT"}}}, {"name": "model_36/tf.nn.convolution_52/convolution/filter", "op": "Const", "attr": {"value": {"tensor": {"dtype": "DT_FLOAT", "tensorShape": {"dim": [{"size": "3"}, {"size": "3"}, {"size": "1"}, {"size": "1"}]}}}, "dtype": {"type": "DT_FLOAT"}}}, {"name": "model_36/tf.nn.convolution_53/convolution/filter", "op": "Const", "attr": {"value": {"tensor": {"dtype": "DT_FLOAT", "tensorShape": {"dim": [{"size": "3"}, {"size": "3"}, {"size": "1"}, {"size": "1"}]}}}, "dtype": {"type": "DT_FLOAT"}}}, {"name": "model_36/tf.nn.convolution_54/convolution/filter", "op": "Const", "attr": {"value": {"tensor": {"dtype": "DT_FLOAT", "tensorShape": {"dim": [{"size": "3"}, {"size": "3"}, {"size": "1"}, {"size": "1"}]}}}, "dtype": {"type": "DT_FLOAT"}}}, {"name": "model_36/tf.nn.convolution_55/convolution/filter", "op": "Const", "attr": {"value": {"tensor": {"dtype": "DT_FLOAT", "tensorShape": {"dim": [{"size": "3"}, {"size": "3"}, {"size": "1"}, {"size": "1"}]}}}, "dtype": {"type": "DT_FLOAT"}}}, {"name": "model_36/tf.nn.convolution_56/convolution/filter", "op": "Const", "attr": {"value": {"tensor": {"dtype": "DT_FLOAT", "tensorShape": {"dim": [{"size": "3"}, {"size": "3"}, {"size": "1"}, {"size": "1"}]}}}, "dtype": {"type": "DT_FLOAT"}}}, {"name": "model_36/tf.nn.convolution_57/convolution/filter", "op": "Const", "attr": {"value": {"tensor": {"dtype": "DT_FLOAT", "tensorShape": {"dim": [{"size": "3"}, {"size": "3"}, {"size": "1"}, {"size": "1"}]}}}, "dtype": {"type": "DT_FLOAT"}}}, {"name": "model_36/tf.nn.convolution_58/convolution/filter", "op": "Const", "attr": {"value": {"tensor": {"dtype": "DT_FLOAT", "tensorShape": {"dim": [{"size": "3"}, {"size": "3"}, {"size": "1"}, {"size": "1"}]}}}, "dtype": {"type": "DT_FLOAT"}}}, {"name": "model_36/tf.nn.convolution_59/convolution/filter", "op": "Const", "attr": {"value": {"tensor": {"dtype": "DT_FLOAT", "tensorShape": {"dim": [{"size": "3"}, {"size": "3"}, {"size": "1"}, {"size": "1"}]}}}, "dtype": {"type": "DT_FLOAT"}}}, {"name": "model_36/tf.nn.convolution_60/convolution/filter", "op": "Const", "attr": {"value": {"tensor": {"dtype": "DT_FLOAT", "tensorShape": {"dim": [{"size": "3"}, {"size": "3"}, {"size": "1"}, {"size": "1"}]}}}, "dtype": {"type": "DT_FLOAT"}}}, {"name": "model_36/tf.nn.convolution_61/convolution/filter", "op": "Const", "attr": {"value": {"tensor": {"dtype": "DT_FLOAT", "tensorShape": {"dim": [{"size": "3"}, {"size": "3"}, {"size": "1"}, {"size": "1"}]}}}, "dtype": {"type": "DT_FLOAT"}}}, {"name": "model_36/tf.nn.convolution_62/convolution/filter", "op": "Const", "attr": {"value": {"tensor": {"dtype": "DT_FLOAT", "tensorShape": {"dim": [{"size": "3"}, {"size": "3"}, {"size": "1"}, {"size": "1"}]}}}, "dtype": {"type": "DT_FLOAT"}}}, {"name": "model_36/tf.nn.convolution_63/convolution/filter", "op": "Const", "attr": {"value": {"tensor": {"dtype": "DT_FLOAT", "tensorShape": {"dim": [{"size": "3"}, {"size": "3"}, {"size": "1"}, {"size": "1"}]}}}, "dtype": {"type": "DT_FLOAT"}}}, {"name": "model_36/tf.nn.convolution_64/convolution/filter", "op": "Const", "attr": {"value": {"tensor": {"dtype": "DT_FLOAT", "tensorShape": {"dim": [{"size": "3"}, {"size": "3"}, {"size": "1"}, {"size": "1"}]}}}, "dtype": {"type": "DT_FLOAT"}}}, {"name": "model_36/tf.nn.convolution_65/convolution/filter", "op": "Const", "attr": {"value": {"tensor": {"dtype": "DT_FLOAT", "tensorShape": {"dim": [{"size": "3"}, {"size": "3"}, {"size": "1"}, {"size": "1"}]}}}, "dtype": {"type": "DT_FLOAT"}}}, {"name": "model_36/tf.nn.convolution_66/convolution/filter", "op": "Const", "attr": {"value": {"tensor": {"dtype": "DT_FLOAT", "tensorShape": {"dim": [{"size": "3"}, {"size": "3"}, {"size": "1"}, {"size": "1"}]}}}, "dtype": {"type": "DT_FLOAT"}}}, {"name": "model_36/tf.nn.convolution_67/convolution/filter", "op": "Const", "attr": {"value": {"tensor": {"dtype": "DT_FLOAT", "tensorShape": {"dim": [{"size": "3"}, {"size": "3"}, {"size": "1"}, {"size": "1"}]}}}, "dtype": {"type": "DT_FLOAT"}}}, {"name": "model_36/tf.nn.convolution_68/convolution/filter", "op": "Const", "attr": {"value": {"tensor": {"dtype": "DT_FLOAT", "tensorShape": {"dim": [{"size": "3"}, {"size": "3"}, {"size": "1"}, {"size": "1"}]}}}, "dtype": {"type": "DT_FLOAT"}}}, {"name": "model_36/tf.nn.convolution_69/convolution/filter", "op": "Const", "attr": {"value": {"tensor": {"dtype": "DT_FLOAT", "tensorShape": {"dim": [{"size": "3"}, {"size": "3"}, {"size": "1"}, {"size": "1"}]}}}, "dtype": {"type": "DT_FLOAT"}}}, {"name": "model_36/tf.nn.convolution_70/convolution/filter", "op": "Const", "attr": {"value": {"tensor": {"dtype": "DT_FLOAT", "tensorShape": {"dim": [{"size": "3"}, {"size": "3"}, {"size": "1"}, {"size": "1"}]}}}, "dtype": {"type": "DT_FLOAT"}}}, {"name": "model_36/tf.nn.convolution_71/convolution/filter", "op": "Const", "attr": {"value": {"tensor": {"dtype": "DT_FLOAT", "tensorShape": {"dim": [{"size": "3"}, {"size": "3"}, {"size": "1"}, {"size": "1"}]}}}, "dtype": {"type": "DT_FLOAT"}}}, {"name": "model_36/tf.nn.convolution_72/convolution/filter", "op": "Const", "attr": {"value": {"tensor": {"dtype": "DT_FLOAT", "tensorShape": {"dim": [{"size": "3"}, {"size": "3"}, {"size": "1"}, {"size": "1"}]}}}, "dtype": {"type": "DT_FLOAT"}}}, {"name": "model_36/tf.nn.convolution_73/convolution/filter", "op": "Const", "attr": {"value": {"tensor": {"dtype": "DT_FLOAT", "tensorShape": {"dim": [{"size": "3"}, {"size": "3"}, {"size": "1"}, {"size": "1"}]}}}, "dtype": {"type": "DT_FLOAT"}}}, {"name": "model_36/tf.nn.convolution_74/convolution/filter", "op": "Const", "attr": {"value": {"tensor": {"dtype": "DT_FLOAT", "tensorShape": {"dim": [{"size": "3"}, {"size": "3"}, {"size": "1"}, {"size": "1"}]}}}, "dtype": {"type": "DT_FLOAT"}}}, {"name": "model_36/tf.nn.convolution_75/convolution/filter", "op": "Const", "attr": {"value": {"tensor": {"dtype": "DT_FLOAT", "tensorShape": {"dim": [{"size": "3"}, {"size": "3"}, {"size": "1"}, {"size": "1"}]}}}, "dtype": {"type": "DT_FLOAT"}}}, {"name": "model_36/tf.nn.convolution_76/convolution/filter", "op": "Const", "attr": {"value": {"tensor": {"dtype": "DT_FLOAT", "tensorShape": {"dim": [{"size": "3"}, {"size": "3"}, {"size": "1"}, {"size": "1"}]}}}, "dtype": {"type": "DT_FLOAT"}}}, {"name": "model_36/tf.nn.convolution_77/convolution/filter", "op": "Const", "attr": {"value": {"tensor": {"dtype": "DT_FLOAT", "tensorShape": {"dim": [{"size": "3"}, {"size": "3"}, {"size": "1"}, {"size": "1"}]}}}, "dtype": {"type": "DT_FLOAT"}}}, {"name": "model_36/tf.nn.convolution_78/convolution/filter", "op": "Const", "attr": {"value": {"tensor": {"dtype": "DT_FLOAT", "tensorShape": {"dim": [{"size": "3"}, {"size": "3"}, {"size": "1"}, {"size": "1"}]}}}, "dtype": {"type": "DT_FLOAT"}}}, {"name": "model_36/tf.nn.convolution_79/convolution/filter", "op": "Const", "attr": {"value": {"tensor": {"dtype": "DT_FLOAT", "tensorShape": {"dim": [{"size": "3"}, {"size": "3"}, {"size": "1"}, {"size": "1"}]}}}, "dtype": {"type": "DT_FLOAT"}}}, {"name": "model_36/tf.nn.convolution_80/convolution/filter", "op": "Const", "attr": {"value": {"tensor": {"dtype": "DT_FLOAT", "tensorShape": {"dim": [{"size": "3"}, {"size": "3"}, {"size": "1"}, {"size": "1"}]}}}, "dtype": {"type": "DT_FLOAT"}}}, {"name": "model_36/tf.nn.convolution_81/convolution/filter", "op": "Const", "attr": {"value": {"tensor": {"dtype": "DT_FLOAT", "tensorShape": {"dim": [{"size": "3"}, {"size": "3"}, {"size": "1"}, {"size": "1"}]}}}, "dtype": {"type": "DT_FLOAT"}}}, {"name": "model_36/tf.nn.convolution_82/convolution/filter", "op": "Const", "attr": {"value": {"tensor": {"dtype": "DT_FLOAT", "tensorShape": {"dim": [{"size": "3"}, {"size": "3"}, {"size": "1"}, {"size": "1"}]}}}, "dtype": {"type": "DT_FLOAT"}}}, {"name": "model_36/tf.nn.convolution_83/convolution/filter", "op": "Const", "attr": {"value": {"tensor": {"dtype": "DT_FLOAT", "tensorShape": {"dim": [{"size": "3"}, {"size": "3"}, {"size": "1"}, {"size": "1"}]}}}, "dtype": {"type": "DT_FLOAT"}}}, {"name": "model_36/tf.nn.convolution_84/convolution/filter", "op": "Const", "attr": {"value": {"tensor": {"dtype": "DT_FLOAT", "tensorShape": {"dim": [{"size": "3"}, {"size": "3"}, {"size": "1"}, {"size": "1"}]}}}, "dtype": {"type": "DT_FLOAT"}}}, {"name": "model_36/tf.nn.convolution_85/convolution/filter", "op": "Const", "attr": {"value": {"tensor": {"dtype": "DT_FLOAT", "tensorShape": {"dim": [{"size": "3"}, {"size": "3"}, {"size": "1"}, {"size": "1"}]}}}, "dtype": {"type": "DT_FLOAT"}}}, {"name": "model_36/tf.nn.convolution_86/convolution/filter", "op": "Const", "attr": {"value": {"tensor": {"dtype": "DT_FLOAT", "tensorShape": {"dim": [{"size": "3"}, {"size": "3"}, {"size": "1"}, {"size": "1"}]}}}, "dtype": {"type": "DT_FLOAT"}}}, {"name": "model_36/tf.nn.convolution_87/convolution/filter", "op": "Const", "attr": {"value": {"tensor": {"dtype": "DT_FLOAT", "tensorShape": {"dim": [{"size": "3"}, {"size": "3"}, {"size": "1"}, {"size": "1"}]}}}, "dtype": {"type": "DT_FLOAT"}}}, {"name": "model_36/tf.nn.convolution_88/convolution/filter", "op": "Const", "attr": {"value": {"tensor": {"dtype": "DT_FLOAT", "tensorShape": {"dim": [{"size": "3"}, {"size": "3"}, {"size": "1"}, {"size": "1"}]}}}, "dtype": {"type": "DT_FLOAT"}}}, {"name": "model_36/tf.nn.convolution_89/convolution/filter", "op": "Const", "attr": {"value": {"tensor": {"dtype": "DT_FLOAT", "tensorShape": {"dim": [{"size": "3"}, {"size": "3"}, {"size": "1"}, {"size": "1"}]}}}, "dtype": {"type": "DT_FLOAT"}}}, {"name": "model_36/tf.nn.convolution_90/convolution/filter", "op": "Const", "attr": {"value": {"tensor": {"dtype": "DT_FLOAT", "tensorShape": {"dim": [{"size": "3"}, {"size": "3"}, {"size": "1"}, {"size": "1"}]}}}, "dtype": {"type": "DT_FLOAT"}}}, {"name": "model_36/tf.nn.convolution_91/convolution/filter", "op": "Const", "attr": {"value": {"tensor": {"dtype": "DT_FLOAT", "tensorShape": {"dim": [{"size": "3"}, {"size": "3"}, {"size": "1"}, {"size": "1"}]}}}, "dtype": {"type": "DT_FLOAT"}}}, {"name": "model_36/tf.nn.convolution_92/convolution/filter", "op": "Const", "attr": {"value": {"tensor": {"dtype": "DT_FLOAT", "tensorShape": {"dim": [{"size": "3"}, {"size": "3"}, {"size": "1"}, {"size": "1"}]}}}, "dtype": {"type": "DT_FLOAT"}}}, {"name": "model_36/tf.nn.convolution_93/convolution/filter", "op": "Const", "attr": {"value": {"tensor": {"dtype": "DT_FLOAT", "tensorShape": {"dim": [{"size": "3"}, {"size": "3"}, {"size": "1"}, {"size": "1"}]}}}, "dtype": {"type": "DT_FLOAT"}}}, {"name": "model_36/tf.nn.convolution_94/convolution/filter", "op": "Const", "attr": {"value": {"tensor": {"dtype": "DT_FLOAT", "tensorShape": {"dim": [{"size": "3"}, {"size": "3"}, {"size": "1"}, {"size": "1"}]}}}, "dtype": {"type": "DT_FLOAT"}}}, {"name": "model_36/tf.nn.convolution_95/convolution/filter", "op": "Const", "attr": {"value": {"tensor": {"dtype": "DT_FLOAT", "tensorShape": {"dim": [{"size": "3"}, {"size": "3"}, {"size": "1"}, {"size": "1"}]}}}, "dtype": {"type": "DT_FLOAT"}}}, {"name": "model_36/tf.nn.convolution_96/convolution/filter", "op": "Const", "attr": {"value": {"tensor": {"dtype": "DT_FLOAT", "tensorShape": {"dim": [{"size": "3"}, {"size": "3"}, {"size": "1"}, {"size": "1"}]}}}, "dtype": {"type": "DT_FLOAT"}}}, {"name": "model_36/tf.nn.convolution_97/convolution/filter", "op": "Const", "attr": {"value": {"tensor": {"dtype": "DT_FLOAT", "tensorShape": {"dim": [{"size": "3"}, {"size": "3"}, {"size": "1"}, {"size": "1"}]}}}, "dtype": {"type": "DT_FLOAT"}}}, {"name": "model_36/tf.nn.convolution_98/convolution/filter", "op": "Const", "attr": {"value": {"tensor": {"dtype": "DT_FLOAT", "tensorShape": {"dim": [{"size": "3"}, {"size": "3"}, {"size": "1"}, {"size": "1"}]}}}, "dtype": {"type": "DT_FLOAT"}}}, {"name": "model_36/tf.nn.convolution_99/convolution/filter", "op": "Const", "attr": {"value": {"tensor": {"dtype": "DT_FLOAT", "tensorShape": {"dim": [{"size": "3"}, {"size": "3"}, {"size": "1"}, {"size": "1"}]}}}, "dtype": {"type": "DT_FLOAT"}}}, {"name": "model_36/tf.nn.convolution_100/convolution/filter", "op": "Const", "attr": {"value": {"tensor": {"dtype": "DT_FLOAT", "tensorShape": {"dim": [{"size": "3"}, {"size": "3"}, {"size": "1"}, {"size": "1"}]}}}, "dtype": {"type": "DT_FLOAT"}}}, {"name": "model_36/tf.nn.convolution_101/convolution/filter", "op": "Const", "attr": {"value": {"tensor": {"dtype": "DT_FLOAT", "tensorShape": {"dim": [{"size": "3"}, {"size": "3"}, {"size": "1"}, {"size": "1"}]}}}, "dtype": {"type": "DT_FLOAT"}}}, {"name": "model_36/tf.nn.convolution_102/convolution/filter", "op": "Const", "attr": {"value": {"tensor": {"dtype": "DT_FLOAT", "tensorShape": {"dim": [{"size": "3"}, {"size": "3"}, {"size": "1"}, {"size": "1"}]}}}, "dtype": {"type": "DT_FLOAT"}}}, {"name": "model_36/tf.nn.convolution_103/convolution/filter", "op": "Const", "attr": {"value": {"tensor": {"dtype": "DT_FLOAT", "tensorShape": {"dim": [{"size": "3"}, {"size": "3"}, {"size": "1"}, {"size": "1"}]}}}, "dtype": {"type": "DT_FLOAT"}}}, {"name": "model_36/tf.nn.convolution_104/convolution/filter", "op": "Const", "attr": {"value": {"tensor": {"dtype": "DT_FLOAT", "tensorShape": {"dim": [{"size": "3"}, {"size": "3"}, {"size": "1"}, {"size": "1"}]}}}, "dtype": {"type": "DT_FLOAT"}}}, {"name": "model_36/tf.nn.convolution_105/convolution/filter", "op": "Const", "attr": {"value": {"tensor": {"dtype": "DT_FLOAT", "tensorShape": {"dim": [{"size": "3"}, {"size": "3"}, {"size": "1"}, {"size": "1"}]}}}, "dtype": {"type": "DT_FLOAT"}}}, {"name": "model_36/tf.nn.convolution_106/convolution/filter", "op": "Const", "attr": {"value": {"tensor": {"dtype": "DT_FLOAT", "tensorShape": {"dim": [{"size": "3"}, {"size": "3"}, {"size": "1"}, {"size": "1"}]}}}, "dtype": {"type": "DT_FLOAT"}}}, {"name": "model_36/tf.nn.convolution_107/convolution/filter", "op": "Const", "attr": {"value": {"tensor": {"dtype": "DT_FLOAT", "tensorShape": {"dim": [{"size": "3"}, {"size": "3"}, {"size": "1"}, {"size": "1"}]}}}, "dtype": {"type": "DT_FLOAT"}}}, {"name": "model_36/tf.nn.convolution_108/convolution/filter", "op": "Const", "attr": {"value": {"tensor": {"dtype": "DT_FLOAT", "tensorShape": {"dim": [{"size": "3"}, {"size": "3"}, {"size": "1"}, {"size": "1"}]}}}, "dtype": {"type": "DT_FLOAT"}}}, {"name": "model_36/tf.nn.convolution_109/convolution/filter", "op": "Const", "attr": {"value": {"tensor": {"dtype": "DT_FLOAT", "tensorShape": {"dim": [{"size": "3"}, {"size": "3"}, {"size": "1"}, {"size": "1"}]}}}, "dtype": {"type": "DT_FLOAT"}}}, {"name": "model_36/tf.nn.convolution_110/convolution/filter", "op": "Const", "attr": {"value": {"tensor": {"dtype": "DT_FLOAT", "tensorShape": {"dim": [{"size": "3"}, {"size": "3"}, {"size": "1"}, {"size": "1"}]}}}, "dtype": {"type": "DT_FLOAT"}}}, {"name": "model_36/tf.nn.convolution_111/convolution/filter", "op": "Const", "attr": {"value": {"tensor": {"dtype": "DT_FLOAT", "tensorShape": {"dim": [{"size": "3"}, {"size": "3"}, {"size": "1"}, {"size": "1"}]}}}, "dtype": {"type": "DT_FLOAT"}}}, {"name": "model_36/tf.nn.convolution_112/convolution/filter", "op": "Const", "attr": {"value": {"tensor": {"dtype": "DT_FLOAT", "tensorShape": {"dim": [{"size": "3"}, {"size": "3"}, {"size": "1"}, {"size": "1"}]}}}, "dtype": {"type": "DT_FLOAT"}}}, {"name": "model_36/tf.nn.convolution_113/convolution/filter", "op": "Const", "attr": {"value": {"tensor": {"dtype": "DT_FLOAT", "tensorShape": {"dim": [{"size": "3"}, {"size": "3"}, {"size": "1"}, {"size": "1"}]}}}, "dtype": {"type": "DT_FLOAT"}}}, {"name": "model_36/tf.nn.convolution_114/convolution/filter", "op": "Const", "attr": {"value": {"tensor": {"dtype": "DT_FLOAT", "tensorShape": {"dim": [{"size": "3"}, {"size": "3"}, {"size": "1"}, {"size": "1"}]}}}, "dtype": {"type": "DT_FLOAT"}}}, {"name": "model_36/tf.nn.convolution_115/convolution/filter", "op": "Const", "attr": {"value": {"tensor": {"dtype": "DT_FLOAT", "tensorShape": {"dim": [{"size": "3"}, {"size": "3"}, {"size": "1"}, {"size": "1"}]}}}, "dtype": {"type": "DT_FLOAT"}}}, {"name": "model_36/tf.nn.convolution_116/convolution/filter", "op": "Const", "attr": {"value": {"tensor": {"dtype": "DT_FLOAT", "tensorShape": {"dim": [{"size": "3"}, {"size": "3"}, {"size": "1"}, {"size": "1"}]}}}, "dtype": {"type": "DT_FLOAT"}}}, {"name": "model_36/tf.nn.convolution_117/convolution/filter", "op": "Const", "attr": {"value": {"tensor": {"dtype": "DT_FLOAT", "tensorShape": {"dim": [{"size": "3"}, {"size": "3"}, {"size": "1"}, {"size": "1"}]}}}, "dtype": {"type": "DT_FLOAT"}}}, {"name": "model_36/tf.nn.convolution_118/convolution/filter", "op": "Const", "attr": {"value": {"tensor": {"dtype": "DT_FLOAT", "tensorShape": {"dim": [{"size": "3"}, {"size": "3"}, {"size": "1"}, {"size": "1"}]}}}, "dtype": {"type": "DT_FLOAT"}}}, {"name": "model_36/tf.nn.convolution_119/convolution/filter", "op": "Const", "attr": {"value": {"tensor": {"dtype": "DT_FLOAT", "tensorShape": {"dim": [{"size": "3"}, {"size": "3"}, {"size": "1"}, {"size": "1"}]}}}, "dtype": {"type": "DT_FLOAT"}}}, {"name": "model_36/tf.nn.convolution_120/convolution/filter", "op": "Const", "attr": {"value": {"tensor": {"dtype": "DT_FLOAT", "tensorShape": {"dim": [{"size": "3"}, {"size": "3"}, {"size": "1"}, {"size": "1"}]}}}, "dtype": {"type": "DT_FLOAT"}}}, {"name": "model_36/tf.nn.convolution_121/convolution/filter", "op": "Const", "attr": {"value": {"tensor": {"dtype": "DT_FLOAT", "tensorShape": {"dim": [{"size": "3"}, {"size": "3"}, {"size": "1"}, {"size": "1"}]}}}, "dtype": {"type": "DT_FLOAT"}}}, {"name": "model_36/tf.nn.convolution_122/convolution/filter", "op": "Const", "attr": {"value": {"tensor": {"dtype": "DT_FLOAT", "tensorShape": {"dim": [{"size": "3"}, {"size": "3"}, {"size": "1"}, {"size": "1"}]}}}, "dtype": {"type": "DT_FLOAT"}}}, {"name": "model_36/tf.nn.convolution_123/convolution/filter", "op": "Const", "attr": {"value": {"tensor": {"dtype": "DT_FLOAT", "tensorShape": {"dim": [{"size": "3"}, {"size": "3"}, {"size": "1"}, {"size": "1"}]}}}, "dtype": {"type": "DT_FLOAT"}}}, {"name": "model_36/tf.nn.convolution_124/convolution/filter", "op": "Const", "attr": {"value": {"tensor": {"dtype": "DT_FLOAT", "tensorShape": {"dim": [{"size": "3"}, {"size": "3"}, {"size": "1"}, {"size": "1"}]}}}, "dtype": {"type": "DT_FLOAT"}}}, {"name": "model_36/tf.nn.convolution_125/convolution/filter", "op": "Const", "attr": {"value": {"tensor": {"dtype": "DT_FLOAT", "tensorShape": {"dim": [{"size": "3"}, {"size": "3"}, {"size": "1"}, {"size": "1"}]}}}, "dtype": {"type": "DT_FLOAT"}}}, {"name": "model_36/tf.nn.convolution_126/convolution/filter", "op": "Const", "attr": {"value": {"tensor": {"dtype": "DT_FLOAT", "tensorShape": {"dim": [{"size": "3"}, {"size": "3"}, {"size": "1"}, {"size": "1"}]}}}, "dtype": {"type": "DT_FLOAT"}}}, {"name": "model_36/tf.nn.convolution_127/convolution/filter", "op": "Const", "attr": {"value": {"tensor": {"dtype": "DT_FLOAT", "tensorShape": {"dim": [{"size": "3"}, {"size": "3"}, {"size": "1"}, {"size": "1"}]}}}, "dtype": {"type": "DT_FLOAT"}}}, {"name": "model_36/tf.nn.convolution_128/convolution/filter", "op": "Const", "attr": {"value": {"tensor": {"dtype": "DT_FLOAT", "tensorShape": {"dim": [{"size": "3"}, {"size": "3"}, {"size": "1"}, {"size": "1"}]}}}, "dtype": {"type": "DT_FLOAT"}}}, {"name": "model_36/tf.nn.convolution_129/convolution/filter", "op": "Const", "attr": {"value": {"tensor": {"dtype": "DT_FLOAT", "tensorShape": {"dim": [{"size": "3"}, {"size": "3"}, {"size": "1"}, {"size": "1"}]}}}, "dtype": {"type": "DT_FLOAT"}}}, {"name": "model_36/tf.nn.convolution_130/convolution/filter", "op": "Const", "attr": {"value": {"tensor": {"dtype": "DT_FLOAT", "tensorShape": {"dim": [{"size": "3"}, {"size": "3"}, {"size": "1"}, {"size": "1"}]}}}, "dtype": {"type": "DT_FLOAT"}}}, {"name": "model_36/tf.nn.convolution_131/convolution/filter", "op": "Const", "attr": {"value": {"tensor": {"dtype": "DT_FLOAT", "tensorShape": {"dim": [{"size": "3"}, {"size": "3"}, {"size": "1"}, {"size": "1"}]}}}, "dtype": {"type": "DT_FLOAT"}}}, {"name": "model_36/tf.nn.convolution_132/convolution/filter", "op": "Const", "attr": {"value": {"tensor": {"dtype": "DT_FLOAT", "tensorShape": {"dim": [{"size": "3"}, {"size": "3"}, {"size": "1"}, {"size": "1"}]}}}, "dtype": {"type": "DT_FLOAT"}}}, {"name": "model_36/tf.nn.convolution_133/convolution/filter", "op": "Const", "attr": {"value": {"tensor": {"dtype": "DT_FLOAT", "tensorShape": {"dim": [{"size": "3"}, {"size": "3"}, {"size": "1"}, {"size": "1"}]}}}, "dtype": {"type": "DT_FLOAT"}}}, {"name": "model_36/tf.nn.convolution_134/convolution/filter", "op": "Const", "attr": {"value": {"tensor": {"dtype": "DT_FLOAT", "tensorShape": {"dim": [{"size": "3"}, {"size": "3"}, {"size": "1"}, {"size": "1"}]}}}, "dtype": {"type": "DT_FLOAT"}}}, {"name": "model_36/tf.nn.convolution_135/convolution/filter", "op": "Const", "attr": {"value": {"tensor": {"dtype": "DT_FLOAT", "tensorShape": {"dim": [{"size": "3"}, {"size": "3"}, {"size": "1"}, {"size": "1"}]}}}, "dtype": {"type": "DT_FLOAT"}}}, {"name": "model_36/tf.nn.convolution_136/convolution/filter", "op": "Const", "attr": {"value": {"tensor": {"dtype": "DT_FLOAT", "tensorShape": {"dim": [{"size": "3"}, {"size": "3"}, {"size": "1"}, {"size": "1"}]}}}, "dtype": {"type": "DT_FLOAT"}}}, {"name": "model_36/tf.nn.convolution_137/convolution/filter", "op": "Const", "attr": {"value": {"tensor": {"dtype": "DT_FLOAT", "tensorShape": {"dim": [{"size": "3"}, {"size": "3"}, {"size": "1"}, {"size": "1"}]}}}, "dtype": {"type": "DT_FLOAT"}}}, {"name": "model_36/tf.nn.convolution_138/convolution/filter", "op": "Const", "attr": {"value": {"tensor": {"dtype": "DT_FLOAT", "tensorShape": {"dim": [{"size": "3"}, {"size": "3"}, {"size": "1"}, {"size": "1"}]}}}, "dtype": {"type": "DT_FLOAT"}}}, {"name": "model_36/tf.nn.convolution_139/convolution/filter", "op": "Const", "attr": {"value": {"tensor": {"dtype": "DT_FLOAT", "tensorShape": {"dim": [{"size": "3"}, {"size": "3"}, {"size": "1"}, {"size": "1"}]}}}, "dtype": {"type": "DT_FLOAT"}}}, {"name": "model_36/tf.nn.convolution_140/convolution/filter", "op": "Const", "attr": {"value": {"tensor": {"dtype": "DT_FLOAT", "tensorShape": {"dim": [{"size": "3"}, {"size": "3"}, {"size": "1"}, {"size": "1"}]}}}, "dtype": {"type": "DT_FLOAT"}}}, {"name": "model_36/tf.nn.convolution_141/convolution/filter", "op": "Const", "attr": {"value": {"tensor": {"dtype": "DT_FLOAT", "tensorShape": {"dim": [{"size": "3"}, {"size": "3"}, {"size": "1"}, {"size": "1"}]}}}, "dtype": {"type": "DT_FLOAT"}}}, {"name": "model_36/tf.nn.convolution_142/convolution/filter", "op": "Const", "attr": {"value": {"tensor": {"dtype": "DT_FLOAT", "tensorShape": {"dim": [{"size": "3"}, {"size": "3"}, {"size": "1"}, {"size": "1"}]}}}, "dtype": {"type": "DT_FLOAT"}}}, {"name": "model_36/tf.nn.convolution_143/convolution/filter", "op": "Const", "attr": {"value": {"tensor": {"dtype": "DT_FLOAT", "tensorShape": {"dim": [{"size": "3"}, {"size": "3"}, {"size": "1"}, {"size": "1"}]}}}, "dtype": {"type": "DT_FLOAT"}}}, {"name": "model_36/tf.nn.convolution_144/convolution/filter", "op": "Const", "attr": {"value": {"tensor": {"dtype": "DT_FLOAT", "tensorShape": {"dim": [{"size": "3"}, {"size": "3"}, {"size": "1"}, {"size": "1"}]}}}, "dtype": {"type": "DT_FLOAT"}}}, {"name": "model_36/tf.nn.convolution_145/convolution/filter", "op": "Const", "attr": {"value": {"tensor": {"dtype": "DT_FLOAT", "tensorShape": {"dim": [{"size": "3"}, {"size": "3"}, {"size": "1"}, {"size": "1"}]}}}, "dtype": {"type": "DT_FLOAT"}}}, {"name": "model_36/tf.nn.convolution_146/convolution/filter", "op": "Const", "attr": {"value": {"tensor": {"dtype": "DT_FLOAT", "tensorShape": {"dim": [{"size": "3"}, {"size": "3"}, {"size": "1"}, {"size": "1"}]}}}, "dtype": {"type": "DT_FLOAT"}}}, {"name": "model_36/tf.nn.convolution_147/convolution/filter", "op": "Const", "attr": {"value": {"tensor": {"dtype": "DT_FLOAT", "tensorShape": {"dim": [{"size": "3"}, {"size": "3"}, {"size": "1"}, {"size": "1"}]}}}, "dtype": {"type": "DT_FLOAT"}}}, {"name": "model_36/tf.nn.convolution_148/convolution/filter", "op": "Const", "attr": {"value": {"tensor": {"dtype": "DT_FLOAT", "tensorShape": {"dim": [{"size": "3"}, {"size": "3"}, {"size": "1"}, {"size": "1"}]}}}, "dtype": {"type": "DT_FLOAT"}}}, {"name": "model_36/tf.nn.convolution_149/convolution/filter", "op": "Const", "attr": {"value": {"tensor": {"dtype": "DT_FLOAT", "tensorShape": {"dim": [{"size": "3"}, {"size": "3"}, {"size": "1"}, {"size": "1"}]}}}, "dtype": {"type": "DT_FLOAT"}}}, {"name": "model_36/tf.nn.convolution_150/convolution/filter", "op": "Const", "attr": {"value": {"tensor": {"dtype": "DT_FLOAT", "tensorShape": {"dim": [{"size": "3"}, {"size": "3"}, {"size": "1"}, {"size": "1"}]}}}, "dtype": {"type": "DT_FLOAT"}}}, {"name": "model_36/tf.nn.convolution_151/convolution/filter", "op": "Const", "attr": {"value": {"tensor": {"dtype": "DT_FLOAT", "tensorShape": {"dim": [{"size": "3"}, {"size": "3"}, {"size": "1"}, {"size": "1"}]}}}, "dtype": {"type": "DT_FLOAT"}}}, {"name": "model_36/tf.nn.convolution_152/convolution/filter", "op": "Const", "attr": {"value": {"tensor": {"dtype": "DT_FLOAT", "tensorShape": {"dim": [{"size": "3"}, {"size": "3"}, {"size": "1"}, {"size": "1"}]}}}, "dtype": {"type": "DT_FLOAT"}}}, {"name": "model_36/tf.nn.convolution_153/convolution/filter", "op": "Const", "attr": {"value": {"tensor": {"dtype": "DT_FLOAT", "tensorShape": {"dim": [{"size": "3"}, {"size": "3"}, {"size": "1"}, {"size": "1"}]}}}, "dtype": {"type": "DT_FLOAT"}}}, {"name": "model_36/tf.nn.convolution_154/convolution/filter", "op": "Const", "attr": {"value": {"tensor": {"dtype": "DT_FLOAT", "tensorShape": {"dim": [{"size": "3"}, {"size": "3"}, {"size": "1"}, {"size": "1"}]}}}, "dtype": {"type": "DT_FLOAT"}}}, {"name": "model_36/tf.nn.convolution_155/convolution/filter", "op": "Const", "attr": {"value": {"tensor": {"dtype": "DT_FLOAT", "tensorShape": {"dim": [{"size": "3"}, {"size": "3"}, {"size": "1"}, {"size": "1"}]}}}, "dtype": {"type": "DT_FLOAT"}}}, {"name": "model_36/tf.nn.convolution_156/convolution/filter", "op": "Const", "attr": {"value": {"tensor": {"dtype": "DT_FLOAT", "tensorShape": {"dim": [{"size": "3"}, {"size": "3"}, {"size": "1"}, {"size": "1"}]}}}, "dtype": {"type": "DT_FLOAT"}}}, {"name": "model_36/tf.nn.convolution_157/convolution/filter", "op": "Const", "attr": {"value": {"tensor": {"dtype": "DT_FLOAT", "tensorShape": {"dim": [{"size": "3"}, {"size": "3"}, {"size": "1"}, {"size": "1"}]}}}, "dtype": {"type": "DT_FLOAT"}}}, {"name": "model_36/tf.nn.convolution_158/convolution/filter", "op": "Const", "attr": {"value": {"tensor": {"dtype": "DT_FLOAT", "tensorShape": {"dim": [{"size": "3"}, {"size": "3"}, {"size": "1"}, {"size": "1"}]}}}, "dtype": {"type": "DT_FLOAT"}}}, {"name": "model_36/tf.nn.convolution_159/convolution/filter", "op": "Const", "attr": {"value": {"tensor": {"dtype": "DT_FLOAT", "tensorShape": {"dim": [{"size": "3"}, {"size": "3"}, {"size": "1"}, {"size": "1"}]}}}, "dtype": {"type": "DT_FLOAT"}}}, {"name": "model_36/tf.nn.convolution_160/convolution/filter", "op": "Const", "attr": {"value": {"tensor": {"dtype": "DT_FLOAT", "tensorShape": {"dim": [{"size": "3"}, {"size": "3"}, {"size": "1"}, {"size": "1"}]}}}, "dtype": {"type": "DT_FLOAT"}}}, {"name": "model_36/tf.nn.convolution_161/convolution/filter", "op": "Const", "attr": {"value": {"tensor": {"dtype": "DT_FLOAT", "tensorShape": {"dim": [{"size": "3"}, {"size": "3"}, {"size": "1"}, {"size": "1"}]}}}, "dtype": {"type": "DT_FLOAT"}}}, {"name": "model_36/tf.nn.convolution_162/convolution/filter", "op": "Const", "attr": {"value": {"tensor": {"dtype": "DT_FLOAT", "tensorShape": {"dim": [{"size": "3"}, {"size": "3"}, {"size": "1"}, {"size": "1"}]}}}, "dtype": {"type": "DT_FLOAT"}}}, {"name": "model_36/tf.nn.convolution_163/convolution/filter", "op": "Const", "attr": {"value": {"tensor": {"dtype": "DT_FLOAT", "tensorShape": {"dim": [{"size": "3"}, {"size": "3"}, {"size": "1"}, {"size": "1"}]}}}, "dtype": {"type": "DT_FLOAT"}}}, {"name": "model_36/tf.nn.convolution_164/convolution/filter", "op": "Const", "attr": {"value": {"tensor": {"dtype": "DT_FLOAT", "tensorShape": {"dim": [{"size": "3"}, {"size": "3"}, {"size": "1"}, {"size": "1"}]}}}, "dtype": {"type": "DT_FLOAT"}}}, {"name": "model_36/tf.nn.convolution_165/convolution/filter", "op": "Const", "attr": {"value": {"tensor": {"dtype": "DT_FLOAT", "tensorShape": {"dim": [{"size": "3"}, {"size": "3"}, {"size": "1"}, {"size": "1"}]}}}, "dtype": {"type": "DT_FLOAT"}}}, {"name": "model_36/tf.nn.convolution_166/convolution/filter", "op": "Const", "attr": {"value": {"tensor": {"dtype": "DT_FLOAT", "tensorShape": {"dim": [{"size": "3"}, {"size": "3"}, {"size": "1"}, {"size": "1"}]}}}, "dtype": {"type": "DT_FLOAT"}}}, {"name": "model_36/tf.nn.convolution_167/convolution/filter", "op": "Const", "attr": {"value": {"tensor": {"dtype": "DT_FLOAT", "tensorShape": {"dim": [{"size": "3"}, {"size": "3"}, {"size": "1"}, {"size": "1"}]}}}, "dtype": {"type": "DT_FLOAT"}}}, {"name": "model_36/tf.nn.convolution_168/convolution/filter", "op": "Const", "attr": {"value": {"tensor": {"dtype": "DT_FLOAT", "tensorShape": {"dim": [{"size": "3"}, {"size": "3"}, {"size": "1"}, {"size": "1"}]}}}, "dtype": {"type": "DT_FLOAT"}}}, {"name": "model_36/tf.nn.convolution_169/convolution/filter", "op": "Const", "attr": {"value": {"tensor": {"dtype": "DT_FLOAT", "tensorShape": {"dim": [{"size": "3"}, {"size": "3"}, {"size": "1"}, {"size": "1"}]}}}, "dtype": {"type": "DT_FLOAT"}}}, {"name": "model_36/tf.nn.convolution_170/convolution/filter", "op": "Const", "attr": {"value": {"tensor": {"dtype": "DT_FLOAT", "tensorShape": {"dim": [{"size": "3"}, {"size": "3"}, {"size": "1"}, {"size": "1"}]}}}, "dtype": {"type": "DT_FLOAT"}}}, {"name": "model_36/tf.nn.convolution_171/convolution/filter", "op": "Const", "attr": {"value": {"tensor": {"dtype": "DT_FLOAT", "tensorShape": {"dim": [{"size": "3"}, {"size": "3"}, {"size": "1"}, {"size": "1"}]}}}, "dtype": {"type": "DT_FLOAT"}}}, {"name": "model_36/tf.nn.convolution_172/convolution/filter", "op": "Const", "attr": {"value": {"tensor": {"dtype": "DT_FLOAT", "tensorShape": {"dim": [{"size": "3"}, {"size": "3"}, {"size": "1"}, {"size": "1"}]}}}, "dtype": {"type": "DT_FLOAT"}}}, {"name": "model_36/tf.nn.convolution_173/convolution/filter", "op": "Const", "attr": {"value": {"tensor": {"dtype": "DT_FLOAT", "tensorShape": {"dim": [{"size": "3"}, {"size": "3"}, {"size": "1"}, {"size": "1"}]}}}, "dtype": {"type": "DT_FLOAT"}}}, {"name": "model_36/tf.nn.convolution_174/convolution/filter", "op": "Const", "attr": {"value": {"tensor": {"dtype": "DT_FLOAT", "tensorShape": {"dim": [{"size": "3"}, {"size": "3"}, {"size": "1"}, {"size": "1"}]}}}, "dtype": {"type": "DT_FLOAT"}}}, {"name": "model_36/tf.nn.convolution_175/convolution/filter", "op": "Const", "attr": {"value": {"tensor": {"dtype": "DT_FLOAT", "tensorShape": {"dim": [{"size": "3"}, {"size": "3"}, {"size": "1"}, {"size": "1"}]}}}, "dtype": {"type": "DT_FLOAT"}}}, {"name": "model_36/tf.nn.convolution_176/convolution/filter", "op": "Const", "attr": {"value": {"tensor": {"dtype": "DT_FLOAT", "tensorShape": {"dim": [{"size": "3"}, {"size": "3"}, {"size": "1"}, {"size": "1"}]}}}, "dtype": {"type": "DT_FLOAT"}}}, {"name": "model_36/tf.nn.convolution_177/convolution/filter", "op": "Const", "attr": {"value": {"tensor": {"dtype": "DT_FLOAT", "tensorShape": {"dim": [{"size": "3"}, {"size": "3"}, {"size": "1"}, {"size": "1"}]}}}, "dtype": {"type": "DT_FLOAT"}}}, {"name": "model_36/tf.nn.convolution_178/convolution/filter", "op": "Const", "attr": {"value": {"tensor": {"dtype": "DT_FLOAT", "tensorShape": {"dim": [{"size": "3"}, {"size": "3"}, {"size": "1"}, {"size": "1"}]}}}, "dtype": {"type": "DT_FLOAT"}}}, {"name": "model_36/tf.nn.convolution_179/convolution/filter", "op": "Const", "attr": {"value": {"tensor": {"dtype": "DT_FLOAT", "tensorShape": {"dim": [{"size": "3"}, {"size": "3"}, {"size": "1"}, {"size": "1"}]}}}, "dtype": {"type": "DT_FLOAT"}}}, {"name": "model_36/tf.nn.convolution_180/convolution/filter", "op": "Const", "attr": {"value": {"tensor": {"dtype": "DT_FLOAT", "tensorShape": {"dim": [{"size": "3"}, {"size": "3"}, {"size": "1"}, {"size": "1"}]}}}, "dtype": {"type": "DT_FLOAT"}}}, {"name": "model_36/tf.nn.convolution_181/convolution/filter", "op": "Const", "attr": {"value": {"tensor": {"dtype": "DT_FLOAT", "tensorShape": {"dim": [{"size": "3"}, {"size": "3"}, {"size": "1"}, {"size": "1"}]}}}, "dtype": {"type": "DT_FLOAT"}}}, {"name": "model_36/tf.nn.convolution_182/convolution/filter", "op": "Const", "attr": {"value": {"tensor": {"dtype": "DT_FLOAT", "tensorShape": {"dim": [{"size": "3"}, {"size": "3"}, {"size": "1"}, {"size": "1"}]}}}, "dtype": {"type": "DT_FLOAT"}}}, {"name": "model_36/tf.nn.convolution_183/convolution/filter", "op": "Const", "attr": {"value": {"tensor": {"dtype": "DT_FLOAT", "tensorShape": {"dim": [{"size": "3"}, {"size": "3"}, {"size": "1"}, {"size": "1"}]}}}, "dtype": {"type": "DT_FLOAT"}}}, {"name": "model_36/tf.nn.convolution_184/convolution/filter", "op": "Const", "attr": {"value": {"tensor": {"dtype": "DT_FLOAT", "tensorShape": {"dim": [{"size": "3"}, {"size": "3"}, {"size": "1"}, {"size": "1"}]}}}, "dtype": {"type": "DT_FLOAT"}}}, {"name": "model_36/tf.nn.convolution_185/convolution/filter", "op": "Const", "attr": {"value": {"tensor": {"dtype": "DT_FLOAT", "tensorShape": {"dim": [{"size": "3"}, {"size": "3"}, {"size": "1"}, {"size": "1"}]}}}, "dtype": {"type": "DT_FLOAT"}}}, {"name": "model_36/tf.nn.convolution_186/convolution/filter", "op": "Const", "attr": {"value": {"tensor": {"dtype": "DT_FLOAT", "tensorShape": {"dim": [{"size": "3"}, {"size": "3"}, {"size": "1"}, {"size": "1"}]}}}, "dtype": {"type": "DT_FLOAT"}}}, {"name": "model_36/tf.nn.convolution_187/convolution/filter", "op": "Const", "attr": {"value": {"tensor": {"dtype": "DT_FLOAT", "tensorShape": {"dim": [{"size": "3"}, {"size": "3"}, {"size": "1"}, {"size": "1"}]}}}, "dtype": {"type": "DT_FLOAT"}}}, {"name": "model_36/tf.nn.convolution_188/convolution/filter", "op": "Const", "attr": {"value": {"tensor": {"dtype": "DT_FLOAT", "tensorShape": {"dim": [{"size": "3"}, {"size": "3"}, {"size": "1"}, {"size": "1"}]}}}, "dtype": {"type": "DT_FLOAT"}}}, {"name": "model_36/tf.nn.convolution_189/convolution/filter", "op": "Const", "attr": {"value": {"tensor": {"dtype": "DT_FLOAT", "tensorShape": {"dim": [{"size": "3"}, {"size": "3"}, {"size": "1"}, {"size": "1"}]}}}, "dtype": {"type": "DT_FLOAT"}}}, {"name": "model_36/tf.nn.convolution_190/convolution/filter", "op": "Const", "attr": {"value": {"tensor": {"dtype": "DT_FLOAT", "tensorShape": {"dim": [{"size": "3"}, {"size": "3"}, {"size": "1"}, {"size": "1"}]}}}, "dtype": {"type": "DT_FLOAT"}}}, {"name": "model_36/tf.nn.convolution_191/convolution/filter", "op": "Const", "attr": {"value": {"tensor": {"dtype": "DT_FLOAT", "tensorShape": {"dim": [{"size": "3"}, {"size": "3"}, {"size": "1"}, {"size": "1"}]}}}, "dtype": {"type": "DT_FLOAT"}}}, {"name": "model_36/tf.nn.convolution_192/convolution/filter", "op": "Const", "attr": {"value": {"tensor": {"dtype": "DT_FLOAT", "tensorShape": {"dim": [{"size": "3"}, {"size": "3"}, {"size": "1"}, {"size": "1"}]}}}, "dtype": {"type": "DT_FLOAT"}}}, {"name": "model_36/tf.nn.convolution_193/convolution/filter", "op": "Const", "attr": {"value": {"tensor": {"dtype": "DT_FLOAT", "tensorShape": {"dim": [{"size": "3"}, {"size": "3"}, {"size": "1"}, {"size": "1"}]}}}, "dtype": {"type": "DT_FLOAT"}}}, {"name": "model_36/tf.nn.convolution_194/convolution/filter", "op": "Const", "attr": {"value": {"tensor": {"dtype": "DT_FLOAT", "tensorShape": {"dim": [{"size": "3"}, {"size": "3"}, {"size": "1"}, {"size": "1"}]}}}, "dtype": {"type": "DT_FLOAT"}}}, {"name": "model_36/tf.nn.convolution_195/convolution/filter", "op": "Const", "attr": {"value": {"tensor": {"dtype": "DT_FLOAT", "tensorShape": {"dim": [{"size": "3"}, {"size": "3"}, {"size": "1"}, {"size": "1"}]}}}, "dtype": {"type": "DT_FLOAT"}}}, {"name": "model_36/tf.nn.convolution_196/convolution/filter", "op": "Const", "attr": {"value": {"tensor": {"dtype": "DT_FLOAT", "tensorShape": {"dim": [{"size": "3"}, {"size": "3"}, {"size": "1"}, {"size": "1"}]}}}, "dtype": {"type": "DT_FLOAT"}}}, {"name": "model_36/tf.nn.convolution_197/convolution/filter", "op": "Const", "attr": {"value": {"tensor": {"dtype": "DT_FLOAT", "tensorShape": {"dim": [{"size": "3"}, {"size": "3"}, {"size": "1"}, {"size": "1"}]}}}, "dtype": {"type": "DT_FLOAT"}}}, {"name": "model_36/tf.nn.convolution_198/convolution/filter", "op": "Const", "attr": {"value": {"tensor": {"dtype": "DT_FLOAT", "tensorShape": {"dim": [{"size": "3"}, {"size": "3"}, {"size": "1"}, {"size": "1"}]}}}, "dtype": {"type": "DT_FLOAT"}}}, {"name": "model_36/tf.nn.convolution_199/convolution/filter", "op": "Const", "attr": {"value": {"tensor": {"dtype": "DT_FLOAT", "tensorShape": {"dim": [{"size": "3"}, {"size": "3"}, {"size": "1"}, {"size": "1"}]}}}, "dtype": {"type": "DT_FLOAT"}}}, {"name": "model_36/tf.nn.convolution_200/convolution/filter", "op": "Const", "attr": {"value": {"tensor": {"dtype": "DT_FLOAT", "tensorShape": {"dim": [{"size": "3"}, {"size": "3"}, {"size": "1"}, {"size": "1"}]}}}, "dtype": {"type": "DT_FLOAT"}}}, {"name": "model_36/tf.nn.convolution_201/convolution/filter", "op": "Const", "attr": {"value": {"tensor": {"dtype": "DT_FLOAT", "tensorShape": {"dim": [{"size": "3"}, {"size": "3"}, {"size": "1"}, {"size": "1"}]}}}, "dtype": {"type": "DT_FLOAT"}}}, {"name": "model_36/tf.nn.convolution_202/convolution/filter", "op": "Const", "attr": {"value": {"tensor": {"dtype": "DT_FLOAT", "tensorShape": {"dim": [{"size": "3"}, {"size": "3"}, {"size": "1"}, {"size": "1"}]}}}, "dtype": {"type": "DT_FLOAT"}}}, {"name": "model_36/tf.nn.convolution_203/convolution/filter", "op": "Const", "attr": {"value": {"tensor": {"dtype": "DT_FLOAT", "tensorShape": {"dim": [{"size": "3"}, {"size": "3"}, {"size": "1"}, {"size": "1"}]}}}, "dtype": {"type": "DT_FLOAT"}}}, {"name": "model_36/tf.nn.convolution_204/convolution/filter", "op": "Const", "attr": {"value": {"tensor": {"dtype": "DT_FLOAT", "tensorShape": {"dim": [{"size": "3"}, {"size": "3"}, {"size": "1"}, {"size": "1"}]}}}, "dtype": {"type": "DT_FLOAT"}}}, {"name": "model_36/tf.nn.convolution_205/convolution/filter", "op": "Const", "attr": {"value": {"tensor": {"dtype": "DT_FLOAT", "tensorShape": {"dim": [{"size": "3"}, {"size": "3"}, {"size": "1"}, {"size": "1"}]}}}, "dtype": {"type": "DT_FLOAT"}}}, {"name": "model_36/tf.nn.convolution_206/convolution/filter", "op": "Const", "attr": {"value": {"tensor": {"dtype": "DT_FLOAT", "tensorShape": {"dim": [{"size": "3"}, {"size": "3"}, {"size": "1"}, {"size": "1"}]}}}, "dtype": {"type": "DT_FLOAT"}}}, {"name": "model_36/tf.nn.convolution_207/convolution/filter", "op": "Const", "attr": {"value": {"tensor": {"dtype": "DT_FLOAT", "tensorShape": {"dim": [{"size": "3"}, {"size": "3"}, {"size": "1"}, {"size": "1"}]}}}, "dtype": {"type": "DT_FLOAT"}}}, {"name": "model_36/tf.nn.convolution_208/convolution/filter", "op": "Const", "attr": {"value": {"tensor": {"dtype": "DT_FLOAT", "tensorShape": {"dim": [{"size": "3"}, {"size": "3"}, {"size": "1"}, {"size": "1"}]}}}, "dtype": {"type": "DT_FLOAT"}}}, {"name": "model_36/tf.nn.convolution_209/convolution/filter", "op": "Const", "attr": {"value": {"tensor": {"dtype": "DT_FLOAT", "tensorShape": {"dim": [{"size": "3"}, {"size": "3"}, {"size": "1"}, {"size": "1"}]}}}, "dtype": {"type": "DT_FLOAT"}}}, {"name": "model_36/tf.nn.convolution_210/convolution/filter", "op": "Const", "attr": {"value": {"tensor": {"dtype": "DT_FLOAT", "tensorShape": {"dim": [{"size": "3"}, {"size": "3"}, {"size": "1"}, {"size": "1"}]}}}, "dtype": {"type": "DT_FLOAT"}}}, {"name": "model_36/tf.nn.convolution_211/convolution/filter", "op": "Const", "attr": {"value": {"tensor": {"dtype": "DT_FLOAT", "tensorShape": {"dim": [{"size": "3"}, {"size": "3"}, {"size": "1"}, {"size": "1"}]}}}, "dtype": {"type": "DT_FLOAT"}}}, {"name": "model_36/tf.nn.convolution_212/convolution/filter", "op": "Const", "attr": {"value": {"tensor": {"dtype": "DT_FLOAT", "tensorShape": {"dim": [{"size": "3"}, {"size": "3"}, {"size": "1"}, {"size": "1"}]}}}, "dtype": {"type": "DT_FLOAT"}}}, {"name": "model_36/tf.nn.convolution_213/convolution/filter", "op": "Const", "attr": {"value": {"tensor": {"dtype": "DT_FLOAT", "tensorShape": {"dim": [{"size": "3"}, {"size": "3"}, {"size": "1"}, {"size": "1"}]}}}, "dtype": {"type": "DT_FLOAT"}}}, {"name": "model_36/tf.nn.convolution_214/convolution/filter", "op": "Const", "attr": {"value": {"tensor": {"dtype": "DT_FLOAT", "tensorShape": {"dim": [{"size": "3"}, {"size": "3"}, {"size": "1"}, {"size": "1"}]}}}, "dtype": {"type": "DT_FLOAT"}}}, {"name": "model_36/tf.nn.convolution_215/convolution/filter", "op": "Const", "attr": {"value": {"tensor": {"dtype": "DT_FLOAT", "tensorShape": {"dim": [{"size": "3"}, {"size": "3"}, {"size": "1"}, {"size": "1"}]}}}, "dtype": {"type": "DT_FLOAT"}}}, {"name": "model_36/tf.nn.convolution_216/convolution/filter", "op": "Const", "attr": {"value": {"tensor": {"dtype": "DT_FLOAT", "tensorShape": {"dim": [{"size": "3"}, {"size": "3"}, {"size": "1"}, {"size": "1"}]}}}, "dtype": {"type": "DT_FLOAT"}}}, {"name": "model_36/tf.nn.convolution_217/convolution/filter", "op": "Const", "attr": {"value": {"tensor": {"dtype": "DT_FLOAT", "tensorShape": {"dim": [{"size": "3"}, {"size": "3"}, {"size": "1"}, {"size": "1"}]}}}, "dtype": {"type": "DT_FLOAT"}}}, {"name": "model_36/tf.nn.convolution_218/convolution/filter", "op": "Const", "attr": {"value": {"tensor": {"dtype": "DT_FLOAT", "tensorShape": {"dim": [{"size": "3"}, {"size": "3"}, {"size": "1"}, {"size": "1"}]}}}, "dtype": {"type": "DT_FLOAT"}}}, {"name": "model_36/tf.nn.convolution_219/convolution/filter", "op": "Const", "attr": {"value": {"tensor": {"dtype": "DT_FLOAT", "tensorShape": {"dim": [{"size": "3"}, {"size": "3"}, {"size": "1"}, {"size": "1"}]}}}, "dtype": {"type": "DT_FLOAT"}}}, {"name": "model_36/tf.nn.convolution_220/convolution/filter", "op": "Const", "attr": {"value": {"tensor": {"dtype": "DT_FLOAT", "tensorShape": {"dim": [{"size": "3"}, {"size": "3"}, {"size": "1"}, {"size": "1"}]}}}, "dtype": {"type": "DT_FLOAT"}}}, {"name": "model_36/tf.nn.convolution_221/convolution/filter", "op": "Const", "attr": {"value": {"tensor": {"dtype": "DT_FLOAT", "tensorShape": {"dim": [{"size": "3"}, {"size": "3"}, {"size": "1"}, {"size": "1"}]}}}, "dtype": {"type": "DT_FLOAT"}}}, {"name": "model_36/tf.nn.convolution_222/convolution/filter", "op": "Const", "attr": {"value": {"tensor": {"dtype": "DT_FLOAT", "tensorShape": {"dim": [{"size": "3"}, {"size": "3"}, {"size": "1"}, {"size": "1"}]}}}, "dtype": {"type": "DT_FLOAT"}}}, {"name": "model_36/tf.nn.convolution_223/convolution/filter", "op": "Const", "attr": {"value": {"tensor": {"dtype": "DT_FLOAT", "tensorShape": {"dim": [{"size": "3"}, {"size": "3"}, {"size": "1"}, {"size": "1"}]}}}, "dtype": {"type": "DT_FLOAT"}}}, {"name": "model_36/tf.nn.convolution_224/convolution/filter", "op": "Const", "attr": {"value": {"tensor": {"dtype": "DT_FLOAT", "tensorShape": {"dim": [{"size": "3"}, {"size": "3"}, {"size": "1"}, {"size": "1"}]}}}, "dtype": {"type": "DT_FLOAT"}}}, {"name": "model_36/tf.nn.convolution_225/convolution/filter", "op": "Const", "attr": {"value": {"tensor": {"dtype": "DT_FLOAT", "tensorShape": {"dim": [{"size": "3"}, {"size": "3"}, {"size": "1"}, {"size": "1"}]}}}, "dtype": {"type": "DT_FLOAT"}}}, {"name": "model_36/tf.nn.convolution_226/convolution/filter", "op": "Const", "attr": {"value": {"tensor": {"dtype": "DT_FLOAT", "tensorShape": {"dim": [{"size": "3"}, {"size": "3"}, {"size": "1"}, {"size": "1"}]}}}, "dtype": {"type": "DT_FLOAT"}}}, {"name": "model_36/tf.nn.convolution_227/convolution/filter", "op": "Const", "attr": {"value": {"tensor": {"dtype": "DT_FLOAT", "tensorShape": {"dim": [{"size": "3"}, {"size": "3"}, {"size": "1"}, {"size": "1"}]}}}, "dtype": {"type": "DT_FLOAT"}}}, {"name": "model_36/tf.nn.convolution_228/convolution/filter", "op": "Const", "attr": {"value": {"tensor": {"dtype": "DT_FLOAT", "tensorShape": {"dim": [{"size": "3"}, {"size": "3"}, {"size": "1"}, {"size": "1"}]}}}, "dtype": {"type": "DT_FLOAT"}}}, {"name": "model_36/tf.nn.convolution_229/convolution/filter", "op": "Const", "attr": {"value": {"tensor": {"dtype": "DT_FLOAT", "tensorShape": {"dim": [{"size": "3"}, {"size": "3"}, {"size": "1"}, {"size": "1"}]}}}, "dtype": {"type": "DT_FLOAT"}}}, {"name": "model_36/tf.nn.convolution_230/convolution/filter", "op": "Const", "attr": {"value": {"tensor": {"dtype": "DT_FLOAT", "tensorShape": {"dim": [{"size": "3"}, {"size": "3"}, {"size": "1"}, {"size": "1"}]}}}, "dtype": {"type": "DT_FLOAT"}}}, {"name": "model_36/tf.nn.convolution_231/convolution/filter", "op": "Const", "attr": {"value": {"tensor": {"dtype": "DT_FLOAT", "tensorShape": {"dim": [{"size": "3"}, {"size": "3"}, {"size": "1"}, {"size": "1"}]}}}, "dtype": {"type": "DT_FLOAT"}}}, {"name": "model_36/tf.nn.convolution_232/convolution/filter", "op": "Const", "attr": {"value": {"tensor": {"dtype": "DT_FLOAT", "tensorShape": {"dim": [{"size": "3"}, {"size": "3"}, {"size": "1"}, {"size": "1"}]}}}, "dtype": {"type": "DT_FLOAT"}}}, {"name": "model_36/tf.nn.convolution_233/convolution/filter", "op": "Const", "attr": {"value": {"tensor": {"dtype": "DT_FLOAT", "tensorShape": {"dim": [{"size": "3"}, {"size": "3"}, {"size": "1"}, {"size": "1"}]}}}, "dtype": {"type": "DT_FLOAT"}}}, {"name": "model_36/tf.nn.convolution_234/convolution/filter", "op": "Const", "attr": {"value": {"tensor": {"dtype": "DT_FLOAT", "tensorShape": {"dim": [{"size": "3"}, {"size": "3"}, {"size": "1"}, {"size": "1"}]}}}, "dtype": {"type": "DT_FLOAT"}}}, {"name": "model_36/tf.nn.convolution_235/convolution/filter", "op": "Const", "attr": {"value": {"tensor": {"dtype": "DT_FLOAT", "tensorShape": {"dim": [{"size": "3"}, {"size": "3"}, {"size": "1"}, {"size": "1"}]}}}, "dtype": {"type": "DT_FLOAT"}}}, {"name": "model_36/tf.nn.convolution_236/convolution/filter", "op": "Const", "attr": {"value": {"tensor": {"dtype": "DT_FLOAT", "tensorShape": {"dim": [{"size": "3"}, {"size": "3"}, {"size": "1"}, {"size": "1"}]}}}, "dtype": {"type": "DT_FLOAT"}}}, {"name": "model_36/tf.nn.convolution_237/convolution/filter", "op": "Const", "attr": {"value": {"tensor": {"dtype": "DT_FLOAT", "tensorShape": {"dim": [{"size": "3"}, {"size": "3"}, {"size": "1"}, {"size": "1"}]}}}, "dtype": {"type": "DT_FLOAT"}}}, {"name": "model_36/tf.nn.convolution_238/convolution/filter", "op": "Const", "attr": {"value": {"tensor": {"dtype": "DT_FLOAT", "tensorShape": {"dim": [{"size": "3"}, {"size": "3"}, {"size": "1"}, {"size": "1"}]}}}, "dtype": {"type": "DT_FLOAT"}}}, {"name": "model_36/tf.nn.convolution_239/convolution/filter", "op": "Const", "attr": {"value": {"tensor": {"dtype": "DT_FLOAT", "tensorShape": {"dim": [{"size": "3"}, {"size": "3"}, {"size": "1"}, {"size": "1"}]}}}, "dtype": {"type": "DT_FLOAT"}}}, {"name": "model_36/tf.nn.convolution_240/convolution/filter", "op": "Const", "attr": {"value": {"tensor": {"dtype": "DT_FLOAT", "tensorShape": {"dim": [{"size": "3"}, {"size": "3"}, {"size": "1"}, {"size": "1"}]}}}, "dtype": {"type": "DT_FLOAT"}}}, {"name": "model_36/tf.nn.convolution_241/convolution/filter", "op": "Const", "attr": {"value": {"tensor": {"dtype": "DT_FLOAT", "tensorShape": {"dim": [{"size": "3"}, {"size": "3"}, {"size": "1"}, {"size": "1"}]}}}, "dtype": {"type": "DT_FLOAT"}}}, {"name": "model_36/tf.nn.convolution_242/convolution/filter", "op": "Const", "attr": {"value": {"tensor": {"dtype": "DT_FLOAT", "tensorShape": {"dim": [{"size": "3"}, {"size": "3"}, {"size": "1"}, {"size": "1"}]}}}, "dtype": {"type": "DT_FLOAT"}}}, {"name": "model_36/tf.nn.convolution_243/convolution/filter", "op": "Const", "attr": {"value": {"tensor": {"dtype": "DT_FLOAT", "tensorShape": {"dim": [{"size": "3"}, {"size": "3"}, {"size": "1"}, {"size": "1"}]}}}, "dtype": {"type": "DT_FLOAT"}}}, {"name": "model_36/tf.nn.convolution_244/convolution/filter", "op": "Const", "attr": {"value": {"tensor": {"dtype": "DT_FLOAT", "tensorShape": {"dim": [{"size": "3"}, {"size": "3"}, {"size": "1"}, {"size": "1"}]}}}, "dtype": {"type": "DT_FLOAT"}}}, {"name": "model_36/tf.nn.convolution_245/convolution/filter", "op": "Const", "attr": {"value": {"tensor": {"dtype": "DT_FLOAT", "tensorShape": {"dim": [{"size": "3"}, {"size": "3"}, {"size": "1"}, {"size": "1"}]}}}, "dtype": {"type": "DT_FLOAT"}}}, {"name": "model_36/tf.nn.convolution_246/convolution/filter", "op": "Const", "attr": {"value": {"tensor": {"dtype": "DT_FLOAT", "tensorShape": {"dim": [{"size": "3"}, {"size": "3"}, {"size": "1"}, {"size": "1"}]}}}, "dtype": {"type": "DT_FLOAT"}}}, {"name": "model_36/tf.nn.convolution_247/convolution/filter", "op": "Const", "attr": {"value": {"tensor": {"dtype": "DT_FLOAT", "tensorShape": {"dim": [{"size": "3"}, {"size": "3"}, {"size": "1"}, {"size": "1"}]}}}, "dtype": {"type": "DT_FLOAT"}}}, {"name": "model_36/tf.nn.convolution_248/convolution/filter", "op": "Const", "attr": {"value": {"tensor": {"dtype": "DT_FLOAT", "tensorShape": {"dim": [{"size": "3"}, {"size": "3"}, {"size": "1"}, {"size": "1"}]}}}, "dtype": {"type": "DT_FLOAT"}}}, {"name": "model_36/tf.nn.convolution_249/convolution/filter", "op": "Const", "attr": {"value": {"tensor": {"dtype": "DT_FLOAT", "tensorShape": {"dim": [{"size": "3"}, {"size": "3"}, {"size": "1"}, {"size": "1"}]}}}, "dtype": {"type": "DT_FLOAT"}}}, {"name": "model_36/tf.nn.convolution_250/convolution/filter", "op": "Const", "attr": {"value": {"tensor": {"dtype": "DT_FLOAT", "tensorShape": {"dim": [{"size": "3"}, {"size": "3"}, {"size": "1"}, {"size": "1"}]}}}, "dtype": {"type": "DT_FLOAT"}}}, {"name": "model_36/tf.nn.convolution_251/convolution/filter", "op": "Const", "attr": {"value": {"tensor": {"dtype": "DT_FLOAT", "tensorShape": {"dim": [{"size": "3"}, {"size": "3"}, {"size": "1"}, {"size": "1"}]}}}, "dtype": {"type": "DT_FLOAT"}}}, {"name": "model_36/tf.nn.convolution_252/convolution/filter", "op": "Const", "attr": {"value": {"tensor": {"dtype": "DT_FLOAT", "tensorShape": {"dim": [{"size": "3"}, {"size": "3"}, {"size": "1"}, {"size": "1"}]}}}, "dtype": {"type": "DT_FLOAT"}}}, {"name": "model_36/tf.nn.convolution_253/convolution/filter", "op": "Const", "attr": {"value": {"tensor": {"dtype": "DT_FLOAT", "tensorShape": {"dim": [{"size": "3"}, {"size": "3"}, {"size": "1"}, {"size": "1"}]}}}, "dtype": {"type": "DT_FLOAT"}}}, {"name": "model_36/tf.nn.convolution_254/convolution/filter", "op": "Const", "attr": {"value": {"tensor": {"dtype": "DT_FLOAT", "tensorShape": {"dim": [{"size": "3"}, {"size": "3"}, {"size": "1"}, {"size": "1"}]}}}, "dtype": {"type": "DT_FLOAT"}}}, {"name": "model_36/tf.nn.convolution_255/convolution/filter", "op": "Const", "attr": {"value": {"tensor": {"dtype": "DT_FLOAT", "tensorShape": {"dim": [{"size": "3"}, {"size": "3"}, {"size": "1"}, {"size": "1"}]}}}, "dtype": {"type": "DT_FLOAT"}}}, {"name": "model_36/tf.nn.convolution_256/convolution/filter", "op": "Const", "attr": {"value": {"tensor": {"dtype": "DT_FLOAT", "tensorShape": {"dim": [{"size": "3"}, {"size": "3"}, {"size": "1"}, {"size": "1"}]}}}, "dtype": {"type": "DT_FLOAT"}}}, {"name": "model_36/tf.nn.convolution_257/convolution/filter", "op": "Const", "attr": {"value": {"tensor": {"dtype": "DT_FLOAT", "tensorShape": {"dim": [{"size": "3"}, {"size": "3"}, {"size": "1"}, {"size": "1"}]}}}, "dtype": {"type": "DT_FLOAT"}}}, {"name": "model_36/tf.nn.convolution_258/convolution/filter", "op": "Const", "attr": {"value": {"tensor": {"dtype": "DT_FLOAT", "tensorShape": {"dim": [{"size": "3"}, {"size": "3"}, {"size": "1"}, {"size": "1"}]}}}, "dtype": {"type": "DT_FLOAT"}}}, {"name": "model_36/tf.nn.convolution_259/convolution/filter", "op": "Const", "attr": {"value": {"tensor": {"dtype": "DT_FLOAT", "tensorShape": {"dim": [{"size": "3"}, {"size": "3"}, {"size": "1"}, {"size": "1"}]}}}, "dtype": {"type": "DT_FLOAT"}}}, {"name": "model_36/tf.nn.convolution_260/convolution/filter", "op": "Const", "attr": {"value": {"tensor": {"dtype": "DT_FLOAT", "tensorShape": {"dim": [{"size": "3"}, {"size": "3"}, {"size": "1"}, {"size": "1"}]}}}, "dtype": {"type": "DT_FLOAT"}}}, {"name": "model_36/tf.nn.convolution_261/convolution/filter", "op": "Const", "attr": {"value": {"tensor": {"dtype": "DT_FLOAT", "tensorShape": {"dim": [{"size": "3"}, {"size": "3"}, {"size": "1"}, {"size": "1"}]}}}, "dtype": {"type": "DT_FLOAT"}}}, {"name": "model_36/tf.nn.convolution_262/convolution/filter", "op": "Const", "attr": {"value": {"tensor": {"dtype": "DT_FLOAT", "tensorShape": {"dim": [{"size": "3"}, {"size": "3"}, {"size": "1"}, {"size": "1"}]}}}, "dtype": {"type": "DT_FLOAT"}}}, {"name": "model_36/tf.nn.convolution_263/convolution/filter", "op": "Const", "attr": {"value": {"tensor": {"dtype": "DT_FLOAT", "tensorShape": {"dim": [{"size": "3"}, {"size": "3"}, {"size": "1"}, {"size": "1"}]}}}, "dtype": {"type": "DT_FLOAT"}}}, {"name": "model_36/tf.nn.convolution_264/convolution/filter", "op": "Const", "attr": {"value": {"tensor": {"dtype": "DT_FLOAT", "tensorShape": {"dim": [{"size": "3"}, {"size": "3"}, {"size": "1"}, {"size": "1"}]}}}, "dtype": {"type": "DT_FLOAT"}}}, {"name": "model_36/tf.nn.convolution_265/convolution/filter", "op": "Const", "attr": {"value": {"tensor": {"dtype": "DT_FLOAT", "tensorShape": {"dim": [{"size": "3"}, {"size": "3"}, {"size": "1"}, {"size": "1"}]}}}, "dtype": {"type": "DT_FLOAT"}}}, {"name": "model_36/tf.nn.convolution_266/convolution/filter", "op": "Const", "attr": {"value": {"tensor": {"dtype": "DT_FLOAT", "tensorShape": {"dim": [{"size": "3"}, {"size": "3"}, {"size": "1"}, {"size": "1"}]}}}, "dtype": {"type": "DT_FLOAT"}}}, {"name": "model_36/tf.nn.convolution_267/convolution/filter", "op": "Const", "attr": {"value": {"tensor": {"dtype": "DT_FLOAT", "tensorShape": {"dim": [{"size": "3"}, {"size": "3"}, {"size": "1"}, {"size": "1"}]}}}, "dtype": {"type": "DT_FLOAT"}}}, {"name": "model_36/tf.nn.convolution_268/convolution/filter", "op": "Const", "attr": {"value": {"tensor": {"dtype": "DT_FLOAT", "tensorShape": {"dim": [{"size": "3"}, {"size": "3"}, {"size": "1"}, {"size": "1"}]}}}, "dtype": {"type": "DT_FLOAT"}}}, {"name": "model_36/tf.nn.convolution_269/convolution/filter", "op": "Const", "attr": {"value": {"tensor": {"dtype": "DT_FLOAT", "tensorShape": {"dim": [{"size": "3"}, {"size": "3"}, {"size": "1"}, {"size": "1"}]}}}, "dtype": {"type": "DT_FLOAT"}}}, {"name": "model_36/tf.nn.convolution_270/convolution/filter", "op": "Const", "attr": {"value": {"tensor": {"dtype": "DT_FLOAT", "tensorShape": {"dim": [{"size": "3"}, {"size": "3"}, {"size": "1"}, {"size": "1"}]}}}, "dtype": {"type": "DT_FLOAT"}}}, {"name": "model_36/tf.nn.convolution_271/convolution/filter", "op": "Const", "attr": {"value": {"tensor": {"dtype": "DT_FLOAT", "tensorShape": {"dim": [{"size": "3"}, {"size": "3"}, {"size": "1"}, {"size": "1"}]}}}, "dtype": {"type": "DT_FLOAT"}}}, {"name": "model_36/tf.nn.convolution_272/convolution/filter", "op": "Const", "attr": {"value": {"tensor": {"dtype": "DT_FLOAT", "tensorShape": {"dim": [{"size": "3"}, {"size": "3"}, {"size": "1"}, {"size": "1"}]}}}, "dtype": {"type": "DT_FLOAT"}}}, {"name": "model_36/tf.nn.convolution_273/convolution/filter", "op": "Const", "attr": {"value": {"tensor": {"dtype": "DT_FLOAT", "tensorShape": {"dim": [{"size": "3"}, {"size": "3"}, {"size": "1"}, {"size": "1"}]}}}, "dtype": {"type": "DT_FLOAT"}}}, {"name": "model_36/tf.nn.convolution_274/convolution/filter", "op": "Const", "attr": {"value": {"tensor": {"dtype": "DT_FLOAT", "tensorShape": {"dim": [{"size": "3"}, {"size": "3"}, {"size": "1"}, {"size": "1"}]}}}, "dtype": {"type": "DT_FLOAT"}}}, {"name": "model_36/tf.nn.convolution_275/convolution/filter", "op": "Const", "attr": {"value": {"tensor": {"dtype": "DT_FLOAT", "tensorShape": {"dim": [{"size": "3"}, {"size": "3"}, {"size": "1"}, {"size": "1"}]}}}, "dtype": {"type": "DT_FLOAT"}}}, {"name": "model_36/tf.nn.convolution_276/convolution/filter", "op": "Const", "attr": {"value": {"tensor": {"dtype": "DT_FLOAT", "tensorShape": {"dim": [{"size": "3"}, {"size": "3"}, {"size": "1"}, {"size": "1"}]}}}, "dtype": {"type": "DT_FLOAT"}}}, {"name": "model_36/tf.nn.convolution_277/convolution/filter", "op": "Const", "attr": {"value": {"tensor": {"dtype": "DT_FLOAT", "tensorShape": {"dim": [{"size": "3"}, {"size": "3"}, {"size": "1"}, {"size": "1"}]}}}, "dtype": {"type": "DT_FLOAT"}}}, {"name": "model_36/tf.nn.convolution_278/convolution/filter", "op": "Const", "attr": {"value": {"tensor": {"dtype": "DT_FLOAT", "tensorShape": {"dim": [{"size": "3"}, {"size": "3"}, {"size": "1"}, {"size": "1"}]}}}, "dtype": {"type": "DT_FLOAT"}}}, {"name": "model_36/tf.nn.convolution_279/convolution/filter", "op": "Const", "attr": {"value": {"tensor": {"dtype": "DT_FLOAT", "tensorShape": {"dim": [{"size": "3"}, {"size": "3"}, {"size": "1"}, {"size": "1"}]}}}, "dtype": {"type": "DT_FLOAT"}}}, {"name": "model_36/tf.nn.convolution_280/convolution/filter", "op": "Const", "attr": {"value": {"tensor": {"dtype": "DT_FLOAT", "tensorShape": {"dim": [{"size": "3"}, {"size": "3"}, {"size": "1"}, {"size": "1"}]}}}, "dtype": {"type": "DT_FLOAT"}}}, {"name": "model_36/tf.nn.convolution_281/convolution/filter", "op": "Const", "attr": {"value": {"tensor": {"dtype": "DT_FLOAT", "tensorShape": {"dim": [{"size": "3"}, {"size": "3"}, {"size": "1"}, {"size": "1"}]}}}, "dtype": {"type": "DT_FLOAT"}}}, {"name": "model_36/tf.nn.convolution_282/convolution/filter", "op": "Const", "attr": {"value": {"tensor": {"dtype": "DT_FLOAT", "tensorShape": {"dim": [{"size": "3"}, {"size": "3"}, {"size": "1"}, {"size": "1"}]}}}, "dtype": {"type": "DT_FLOAT"}}}, {"name": "model_36/tf.nn.convolution_283/convolution/filter", "op": "Const", "attr": {"value": {"tensor": {"dtype": "DT_FLOAT", "tensorShape": {"dim": [{"size": "3"}, {"size": "3"}, {"size": "1"}, {"size": "1"}]}}}, "dtype": {"type": "DT_FLOAT"}}}, {"name": "model_36/tf.nn.convolution_284/convolution/filter", "op": "Const", "attr": {"value": {"tensor": {"dtype": "DT_FLOAT", "tensorShape": {"dim": [{"size": "3"}, {"size": "3"}, {"size": "1"}, {"size": "1"}]}}}, "dtype": {"type": "DT_FLOAT"}}}, {"name": "model_36/tf.nn.convolution_285/convolution/filter", "op": "Const", "attr": {"value": {"tensor": {"dtype": "DT_FLOAT", "tensorShape": {"dim": [{"size": "3"}, {"size": "3"}, {"size": "1"}, {"size": "1"}]}}}, "dtype": {"type": "DT_FLOAT"}}}, {"name": "model_36/tf.nn.convolution_286/convolution/filter", "op": "Const", "attr": {"value": {"tensor": {"dtype": "DT_FLOAT", "tensorShape": {"dim": [{"size": "3"}, {"size": "3"}, {"size": "1"}, {"size": "1"}]}}}, "dtype": {"type": "DT_FLOAT"}}}, {"name": "model_36/tf.nn.convolution_287/convolution/filter", "op": "Const", "attr": {"value": {"tensor": {"dtype": "DT_FLOAT", "tensorShape": {"dim": [{"size": "3"}, {"size": "3"}, {"size": "1"}, {"size": "1"}]}}}, "dtype": {"type": "DT_FLOAT"}}}, {"name": "model_36/tf.nn.convolution_288/convolution/filter", "op": "Const", "attr": {"value": {"tensor": {"dtype": "DT_FLOAT", "tensorShape": {"dim": [{"size": "3"}, {"size": "3"}, {"size": "1"}, {"size": "1"}]}}}, "dtype": {"type": "DT_FLOAT"}}}, {"name": "model_36/tf.nn.convolution_289/convolution/filter", "op": "Const", "attr": {"value": {"tensor": {"dtype": "DT_FLOAT", "tensorShape": {"dim": [{"size": "3"}, {"size": "3"}, {"size": "1"}, {"size": "1"}]}}}, "dtype": {"type": "DT_FLOAT"}}}, {"name": "model_36/tf.split/split/split_dim", "op": "Const", "attr": {"value": {"tensor": {"dtype": "DT_INT32", "tensorShape": {}}}, "dtype": {"type": "DT_INT32"}}}, {"name": "model_36/tf.strided_slice_6/ones_like/tensor", "op": "Const", "attr": {"value": {"tensor": {"dtype": "DT_INT64", "tensorShape": {"dim": [{"size": "4"}]}}}, "dtype": {"type": "DT_INT64"}}}, {"name": "model_36/tf.strided_slice_6/StridedSlice/end", "op": "Const", "attr": {"value": {"tensor": {"dtype": "DT_INT64", "tensorShape": {"dim": [{"size": "4"}]}}}, "dtype": {"type": "DT_INT64"}}}, {"name": "model_36/tf.strided_slice_6/ones_like", "op": "Const", "attr": {"value": {"tensor": {"dtype": "DT_INT64", "tensorShape": {"dim": [{"size": "4"}]}}}, "dtype": {"type": "DT_INT64"}}}, {"name": "model_36/tf.nn.convolution_23/convolution/filter", "op": "Const", "attr": {"value": {"tensor": {"dtype": "DT_FLOAT", "tensorShape": {"dim": [{"size": "1"}, {"size": "1"}, {"size": "256"}, {"size": "128"}]}}}, "dtype": {"type": "DT_FLOAT"}}}, {"name": "model_36/tf.math.add_31/Add/y", "op": "Const", "attr": {"value": {"tensor": {"dtype": "DT_FLOAT", "tensorShape": {"dim": [{"size": "128"}]}}}, "dtype": {"type": "DT_FLOAT"}}}, {"name": "model_36/tf.nn.convolution_25/convolution/filter", "op": "Const", "attr": {"value": {"tensor": {"dtype": "DT_FLOAT", "tensorShape": {"dim": [{"size": "3"}, {"size": "3"}, {"size": "128"}, {"size": "128"}]}}}, "dtype": {"type": "DT_FLOAT"}}}, {"name": "model_36/tf.math.add_33/Add/y", "op": "Const", "attr": {"value": {"tensor": {"dtype": "DT_FLOAT", "tensorShape": {"dim": [{"size": "128"}]}}}, "dtype": {"type": "DT_FLOAT"}}}, {"name": "model_36/tf.nn.convolution_26/convolution/filter", "op": "Const", "attr": {"value": {"tensor": {"dtype": "DT_FLOAT", "tensorShape": {"dim": [{"size": "3"}, {"size": "3"}, {"size": "128"}, {"size": "128"}]}}}, "dtype": {"type": "DT_FLOAT"}}}, {"name": "model_36/tf.math.add_34/Add/y", "op": "Const", "attr": {"value": {"tensor": {"dtype": "DT_FLOAT", "tensorShape": {"dim": [{"size": "128"}]}}}, "dtype": {"type": "DT_FLOAT"}}}, {"name": "model_36/tf.nn.convolution_27/convolution/filter", "op": "Const", "attr": {"value": {"tensor": {"dtype": "DT_FLOAT", "tensorShape": {"dim": [{"size": "3"}, {"size": "3"}, {"size": "128"}, {"size": "128"}]}}}, "dtype": {"type": "DT_FLOAT"}}}, {"name": "model_36/tf.math.add_37/Add/y", "op": "Const", "attr": {"value": {"tensor": {"dtype": "DT_FLOAT", "tensorShape": {"dim": [{"size": "128"}]}}}, "dtype": {"type": "DT_FLOAT"}}}, {"name": "model_36/tf.nn.convolution_28/convolution/filter", "op": "Const", "attr": {"value": {"tensor": {"dtype": "DT_FLOAT", "tensorShape": {"dim": [{"size": "3"}, {"size": "3"}, {"size": "128"}, {"size": "128"}]}}}, "dtype": {"type": "DT_FLOAT"}}}, {"name": "model_36/tf.math.add_38/Add/y", "op": "Const", "attr": {"value": {"tensor": {"dtype": "DT_FLOAT", "tensorShape": {"dim": [{"size": "128"}]}}}, "dtype": {"type": "DT_FLOAT"}}}, {"name": "model_36/tf.strided_slice_4/ones_like/tensor", "op": "Const", "attr": {"value": {"tensor": {"dtype": "DT_INT64", "tensorShape": {"dim": [{"size": "4"}]}}}, "dtype": {"type": "DT_INT64"}}}, {"name": "model_36/tf.strided_slice_4/StridedSlice/end", "op": "Const", "attr": {"value": {"tensor": {"dtype": "DT_INT64", "tensorShape": {"dim": [{"size": "4"}]}}}, "dtype": {"type": "DT_INT64"}}}, {"name": "model_36/tf.strided_slice_4/ones_like", "op": "Const", "attr": {"value": {"tensor": {"dtype": "DT_INT64", "tensorShape": {"dim": [{"size": "4"}]}}}, "dtype": {"type": "DT_INT64"}}}, {"name": "model_36/tf.nn.convolution_13/convolution/filter", "op": "Const", "attr": {"value": {"tensor": {"dtype": "DT_FLOAT", "tensorShape": {"dim": [{"size": "1"}, {"size": "1"}, {"size": "128"}, {"size": "64"}]}}}, "dtype": {"type": "DT_FLOAT"}}}, {"name": "model_36/tf.math.add_17/Add/y", "op": "Const", "attr": {"value": {"tensor": {"dtype": "DT_FLOAT", "tensorShape": {"dim": [{"size": "64"}]}}}, "dtype": {"type": "DT_FLOAT"}}}, {"name": "model_36/tf.nn.convolution_15/convolution/filter", "op": "Const", "attr": {"value": {"tensor": {"dtype": "DT_FLOAT", "tensorShape": {"dim": [{"size": "3"}, {"size": "3"}, {"size": "64"}, {"size": "64"}]}}}, "dtype": {"type": "DT_FLOAT"}}}, {"name": "model_36/tf.math.add_19/Add/y", "op": "Const", "attr": {"value": {"tensor": {"dtype": "DT_FLOAT", "tensorShape": {"dim": [{"size": "64"}]}}}, "dtype": {"type": "DT_FLOAT"}}}, {"name": "model_36/tf.nn.convolution_16/convolution/filter", "op": "Const", "attr": {"value": {"tensor": {"dtype": "DT_FLOAT", "tensorShape": {"dim": [{"size": "3"}, {"size": "3"}, {"size": "64"}, {"size": "64"}]}}}, "dtype": {"type": "DT_FLOAT"}}}, {"name": "model_36/tf.math.add_20/Add/y", "op": "Const", "attr": {"value": {"tensor": {"dtype": "DT_FLOAT", "tensorShape": {"dim": [{"size": "64"}]}}}, "dtype": {"type": "DT_FLOAT"}}}, {"name": "model_36/tf.nn.convolution_17/convolution/filter", "op": "Const", "attr": {"value": {"tensor": {"dtype": "DT_FLOAT", "tensorShape": {"dim": [{"size": "3"}, {"size": "3"}, {"size": "64"}, {"size": "64"}]}}}, "dtype": {"type": "DT_FLOAT"}}}, {"name": "model_36/tf.math.add_23/Add/y", "op": "Const", "attr": {"value": {"tensor": {"dtype": "DT_FLOAT", "tensorShape": {"dim": [{"size": "64"}]}}}, "dtype": {"type": "DT_FLOAT"}}}, {"name": "model_36/tf.nn.convolution_18/convolution/filter", "op": "Const", "attr": {"value": {"tensor": {"dtype": "DT_FLOAT", "tensorShape": {"dim": [{"size": "3"}, {"size": "3"}, {"size": "64"}, {"size": "64"}]}}}, "dtype": {"type": "DT_FLOAT"}}}, {"name": "model_36/tf.math.add_24/Add/y", "op": "Const", "attr": {"value": {"tensor": {"dtype": "DT_FLOAT", "tensorShape": {"dim": [{"size": "64"}]}}}, "dtype": {"type": "DT_FLOAT"}}}, {"name": "model_36/tf.strided_slice_2/ones_like/tensor", "op": "Const", "attr": {"value": {"tensor": {"dtype": "DT_INT64", "tensorShape": {"dim": [{"size": "4"}]}}}, "dtype": {"type": "DT_INT64"}}}, {"name": "model_36/tf.strided_slice_2/StridedSlice/end", "op": "Const", "attr": {"value": {"tensor": {"dtype": "DT_INT64", "tensorShape": {"dim": [{"size": "4"}]}}}, "dtype": {"type": "DT_INT64"}}}, {"name": "model_36/tf.strided_slice_2/ones_like", "op": "Const", "attr": {"value": {"tensor": {"dtype": "DT_INT64", "tensorShape": {"dim": [{"size": "4"}]}}}, "dtype": {"type": "DT_INT64"}}}, {"name": "model_36/tf.strided_slice/ones_like/tensor", "op": "Const", "attr": {"value": {"tensor": {"dtype": "DT_INT64", "tensorShape": {"dim": [{"size": "4"}]}}}, "dtype": {"type": "DT_INT64"}}}, {"name": "model_36/tf.strided_slice/StridedSlice/end", "op": "Const", "attr": {"value": {"tensor": {"dtype": "DT_INT64", "tensorShape": {"dim": [{"size": "4"}]}}}, "dtype": {"type": "DT_INT64"}}}, {"name": "model_36/tf.strided_slice/ones_like", "op": "Const", "attr": {"value": {"tensor": {"dtype": "DT_INT64", "tensorShape": {"dim": [{"size": "4"}]}}}, "dtype": {"type": "DT_INT64"}}}, {"name": "model_36/tf.compat.v1.pad/Pad/paddings", "op": "Const", "attr": {"value": {"tensor": {"dtype": "DT_INT32", "tensorShape": {"dim": [{"size": "4"}, {"size": "2"}]}}}, "dtype": {"type": "DT_INT32"}}}, {"name": "model_36/tf.nn.convolution/convolution/filter", "op": "Const", "attr": {"value": {"tensor": {"dtype": "DT_FLOAT", "tensorShape": {"dim": [{"size": "3"}, {"size": "3"}, {"size": "3"}, {"size": "32"}]}}}, "dtype": {"type": "DT_FLOAT"}}}, {"name": "model_36/tf.math.add/Add/y", "op": "Const", "attr": {"value": {"tensor": {"dtype": "DT_FLOAT", "tensorShape": {"dim": [{"size": "32"}]}}}, "dtype": {"type": "DT_FLOAT"}}}, {"name": "model_36/tf.compat.v1.pad_1/Pad/paddings", "op": "Const", "attr": {"value": {"tensor": {"dtype": "DT_INT32", "tensorShape": {"dim": [{"size": "4"}, {"size": "2"}]}}}, "dtype": {"type": "DT_INT32"}}}, {"name": "model_36/tf.nn.convolution_1/convolution/filter", "op": "Const", "attr": {"value": {"tensor": {"dtype": "DT_FLOAT", "tensorShape": {"dim": [{"size": "3"}, {"size": "3"}, {"size": "32"}, {"size": "64"}]}}}, "dtype": {"type": "DT_FLOAT"}}}, {"name": "model_36/tf.math.add_1/Add/y", "op": "Const", "attr": {"value": {"tensor": {"dtype": "DT_FLOAT", "tensorShape": {"dim": [{"size": "64"}]}}}, "dtype": {"type": "DT_FLOAT"}}}, {"name": "model_36/tf.nn.convolution_2/convolution/filter", "op": "Const", "attr": {"value": {"tensor": {"dtype": "DT_FLOAT", "tensorShape": {"dim": [{"size": "1"}, {"size": "1"}, {"size": "64"}, {"size": "64"}]}}}, "dtype": {"type": "DT_FLOAT"}}}, {"name": "model_36/tf.math.add_2/Add/y", "op": "Const", "attr": {"value": {"tensor": {"dtype": "DT_FLOAT", "tensorShape": {"dim": [{"size": "64"}]}}}, "dtype": {"type": "DT_FLOAT"}}}, {"name": "model_36/tf.strided_slice_1/ones_like/tensor", "op": "Const", "attr": {"value": {"tensor": {"dtype": "DT_INT64", "tensorShape": {"dim": [{"size": "4"}]}}}, "dtype": {"type": "DT_INT64"}}}, {"name": "model_36/tf.strided_slice_1/StridedSlice/end", "op": "Const", "attr": {"value": {"tensor": {"dtype": "DT_INT64", "tensorShape": {"dim": [{"size": "4"}]}}}, "dtype": {"type": "DT_INT64"}}}, {"name": "model_36/tf.strided_slice_1/ones_like", "op": "Const", "attr": {"value": {"tensor": {"dtype": "DT_INT64", "tensorShape": {"dim": [{"size": "4"}]}}}, "dtype": {"type": "DT_INT64"}}}, {"name": "model_36/tf.nn.convolution_3/convolution/filter", "op": "Const", "attr": {"value": {"tensor": {"dtype": "DT_FLOAT", "tensorShape": {"dim": [{"size": "3"}, {"size": "3"}, {"size": "32"}, {"size": "16"}]}}}, "dtype": {"type": "DT_FLOAT"}}}, {"name": "model_36/tf.math.add_3/Add/y", "op": "Const", "attr": {"value": {"tensor": {"dtype": "DT_FLOAT", "tensorShape": {"dim": [{"size": "16"}]}}}, "dtype": {"type": "DT_FLOAT"}}}, {"name": "model_36/tf.nn.convolution_4/convolution/filter", "op": "Const", "attr": {"value": {"tensor": {"dtype": "DT_FLOAT", "tensorShape": {"dim": [{"size": "3"}, {"size": "3"}, {"size": "16"}, {"size": "32"}]}}}, "dtype": {"type": "DT_FLOAT"}}}, {"name": "model_36/tf.math.add_4/Add/y", "op": "Const", "attr": {"value": {"tensor": {"dtype": "DT_FLOAT", "tensorShape": {"dim": [{"size": "32"}]}}}, "dtype": {"type": "DT_FLOAT"}}}, {"name": "model_36/tf.concat/concat/axis", "op": "Const", "attr": {"value": {"tensor": {"dtype": "DT_INT32", "tensorShape": {}}}, "dtype": {"type": "DT_INT32"}}}, {"name": "model_36/tf.nn.convolution_5/convolution/filter", "op": "Const", "attr": {"value": {"tensor": {"dtype": "DT_FLOAT", "tensorShape": {"dim": [{"size": "1"}, {"size": "1"}, {"size": "96"}, {"size": "128"}]}}}, "dtype": {"type": "DT_FLOAT"}}}, {"name": "model_36/tf.math.add_7/Add/y", "op": "Const", "attr": {"value": {"tensor": {"dtype": "DT_FLOAT", "tensorShape": {"dim": [{"size": "128"}]}}}, "dtype": {"type": "DT_FLOAT"}}}, {"name": "model_36/tf.compat.v1.pad_2/Pad/paddings", "op": "Const", "attr": {"value": {"tensor": {"dtype": "DT_INT32", "tensorShape": {"dim": [{"size": "4"}, {"size": "2"}]}}}, "dtype": {"type": "DT_INT32"}}}, {"name": "model_36/tf.nn.convolution_6/convolution/filter", "op": "Const", "attr": {"value": {"tensor": {"dtype": "DT_FLOAT", "tensorShape": {"dim": [{"size": "3"}, {"size": "3"}, {"size": "128"}, {"size": "128"}]}}}, "dtype": {"type": "DT_FLOAT"}}}, {"name": "model_36/tf.math.add_8/Add/y", "op": "Const", "attr": {"value": {"tensor": {"dtype": "DT_FLOAT", "tensorShape": {"dim": [{"size": "128"}]}}}, "dtype": {"type": "DT_FLOAT"}}}, {"name": "model_36/tf.nn.convolution_7/convolution/filter", "op": "Const", "attr": {"value": {"tensor": {"dtype": "DT_FLOAT", "tensorShape": {"dim": [{"size": "1"}, {"size": "1"}, {"size": "128"}, {"size": "128"}]}}}, "dtype": {"type": "DT_FLOAT"}}}, {"name": "model_36/tf.math.add_9/Add/y", "op": "Const", "attr": {"value": {"tensor": {"dtype": "DT_FLOAT", "tensorShape": {"dim": [{"size": "128"}]}}}, "dtype": {"type": "DT_FLOAT"}}}, {"name": "model_36/tf.strided_slice_3/ones_like/tensor", "op": "Const", "attr": {"value": {"tensor": {"dtype": "DT_INT64", "tensorShape": {"dim": [{"size": "4"}]}}}, "dtype": {"type": "DT_INT64"}}}, {"name": "model_36/tf.strided_slice_3/StridedSlice/end", "op": "Const", "attr": {"value": {"tensor": {"dtype": "DT_INT64", "tensorShape": {"dim": [{"size": "4"}]}}}, "dtype": {"type": "DT_INT64"}}}, {"name": "model_36/tf.strided_slice_3/ones_like", "op": "Const", "attr": {"value": {"tensor": {"dtype": "DT_INT64", "tensorShape": {"dim": [{"size": "4"}]}}}, "dtype": {"type": "DT_INT64"}}}, {"name": "model_36/tf.nn.convolution_8/convolution/filter", "op": "Const", "attr": {"value": {"tensor": {"dtype": "DT_FLOAT", "tensorShape": {"dim": [{"size": "3"}, {"size": "3"}, {"size": "64"}, {"size": "32"}]}}}, "dtype": {"type": "DT_FLOAT"}}}, {"name": "model_36/tf.math.add_10/Add/y", "op": "Const", "attr": {"value": {"tensor": {"dtype": "DT_FLOAT", "tensorShape": {"dim": [{"size": "32"}]}}}, "dtype": {"type": "DT_FLOAT"}}}, {"name": "model_36/tf.nn.convolution_9/convolution/filter", "op": "Const", "attr": {"value": {"tensor": {"dtype": "DT_FLOAT", "tensorShape": {"dim": [{"size": "3"}, {"size": "3"}, {"size": "32"}, {"size": "64"}]}}}, "dtype": {"type": "DT_FLOAT"}}}, {"name": "model_36/tf.math.add_11/Add/y", "op": "Const", "attr": {"value": {"tensor": {"dtype": "DT_FLOAT", "tensorShape": {"dim": [{"size": "64"}]}}}, "dtype": {"type": "DT_FLOAT"}}}, {"name": "model_36/tf.concat_1/concat/axis", "op": "Const", "attr": {"value": {"tensor": {"dtype": "DT_INT32", "tensorShape": {}}}, "dtype": {"type": "DT_INT32"}}}, {"name": "model_36/tf.nn.convolution_10/convolution/filter", "op": "Const", "attr": {"value": {"tensor": {"dtype": "DT_FLOAT", "tensorShape": {"dim": [{"size": "1"}, {"size": "1"}, {"size": "192"}, {"size": "256"}]}}}, "dtype": {"type": "DT_FLOAT"}}}, {"name": "model_36/tf.math.add_14/Add/y", "op": "Const", "attr": {"value": {"tensor": {"dtype": "DT_FLOAT", "tensorShape": {"dim": [{"size": "256"}]}}}, "dtype": {"type": "DT_FLOAT"}}}, {"name": "model_36/tf.compat.v1.pad_3/Pad/paddings", "op": "Const", "attr": {"value": {"tensor": {"dtype": "DT_INT32", "tensorShape": {"dim": [{"size": "4"}, {"size": "2"}]}}}, "dtype": {"type": "DT_INT32"}}}, {"name": "model_36/tf.nn.convolution_11/convolution/filter", "op": "Const", "attr": {"value": {"tensor": {"dtype": "DT_FLOAT", "tensorShape": {"dim": [{"size": "3"}, {"size": "3"}, {"size": "256"}, {"size": "256"}]}}}, "dtype": {"type": "DT_FLOAT"}}}, {"name": "model_36/tf.math.add_15/Add/y", "op": "Const", "attr": {"value": {"tensor": {"dtype": "DT_FLOAT", "tensorShape": {"dim": [{"size": "256"}]}}}, "dtype": {"type": "DT_FLOAT"}}}, {"name": "model_36/tf.nn.convolution_12/convolution/filter", "op": "Const", "attr": {"value": {"tensor": {"dtype": "DT_FLOAT", "tensorShape": {"dim": [{"size": "1"}, {"size": "1"}, {"size": "256"}, {"size": "256"}]}}}, "dtype": {"type": "DT_FLOAT"}}}, {"name": "model_36/tf.math.add_16/Add/y", "op": "Const", "attr": {"value": {"tensor": {"dtype": "DT_FLOAT", "tensorShape": {"dim": [{"size": "256"}]}}}, "dtype": {"type": "DT_FLOAT"}}}, {"name": "model_36/tf.strided_slice_5/ones_like/tensor", "op": "Const", "attr": {"value": {"tensor": {"dtype": "DT_INT64", "tensorShape": {"dim": [{"size": "4"}]}}}, "dtype": {"type": "DT_INT64"}}}, {"name": "model_36/tf.strided_slice_5/StridedSlice/end", "op": "Const", "attr": {"value": {"tensor": {"dtype": "DT_INT64", "tensorShape": {"dim": [{"size": "4"}]}}}, "dtype": {"type": "DT_INT64"}}}, {"name": "model_36/tf.strided_slice_5/ones_like", "op": "Const", "attr": {"value": {"tensor": {"dtype": "DT_INT64", "tensorShape": {"dim": [{"size": "4"}]}}}, "dtype": {"type": "DT_INT64"}}}, {"name": "model_36/tf.nn.convolution_14/convolution/filter", "op": "Const", "attr": {"value": {"tensor": {"dtype": "DT_FLOAT", "tensorShape": {"dim": [{"size": "1"}, {"size": "1"}, {"size": "128"}, {"size": "64"}]}}}, "dtype": {"type": "DT_FLOAT"}}}, {"name": "model_36/tf.math.add_18/Add/y", "op": "Const", "attr": {"value": {"tensor": {"dtype": "DT_FLOAT", "tensorShape": {"dim": [{"size": "64"}]}}}, "dtype": {"type": "DT_FLOAT"}}}, {"name": "model_36/tf.concat_2/concat/axis", "op": "Const", "attr": {"value": {"tensor": {"dtype": "DT_INT32", "tensorShape": {}}}, "dtype": {"type": "DT_INT32"}}}, {"name": "model_36/tf.nn.convolution_19/convolution/filter", "op": "Const", "attr": {"value": {"tensor": {"dtype": "DT_FLOAT", "tensorShape": {"dim": [{"size": "1"}, {"size": "1"}, {"size": "128"}, {"size": "128"}]}}}, "dtype": {"type": "DT_FLOAT"}}}, {"name": "model_36/tf.math.add_27/Add/y", "op": "Const", "attr": {"value": {"tensor": {"dtype": "DT_FLOAT", "tensorShape": {"dim": [{"size": "128"}]}}}, "dtype": {"type": "DT_FLOAT"}}}, {"name": "model_36/tf.concat_3/concat/axis", "op": "Const", "attr": {"value": {"tensor": {"dtype": "DT_INT32", "tensorShape": {}}}, "dtype": {"type": "DT_INT32"}}}, {"name": "model_36/tf.nn.convolution_20/convolution/filter", "op": "Const", "attr": {"value": {"tensor": {"dtype": "DT_FLOAT", "tensorShape": {"dim": [{"size": "1"}, {"size": "1"}, {"size": "384"}, {"size": "256"}]}}}, "dtype": {"type": "DT_FLOAT"}}}, {"name": "model_36/tf.math.add_28/Add/y", "op": "Const", "attr": {"value": {"tensor": {"dtype": "DT_FLOAT", "tensorShape": {"dim": [{"size": "256"}]}}}, "dtype": {"type": "DT_FLOAT"}}}, {"name": "model_36/tf.compat.v1.pad_4/Pad/paddings", "op": "Const", "attr": {"value": {"tensor": {"dtype": "DT_INT32", "tensorShape": {"dim": [{"size": "4"}, {"size": "2"}]}}}, "dtype": {"type": "DT_INT32"}}}, {"name": "model_36/tf.nn.convolution_21/convolution/filter", "op": "Const", "attr": {"value": {"tensor": {"dtype": "DT_FLOAT", "tensorShape": {"dim": [{"size": "3"}, {"size": "3"}, {"size": "256"}, {"size": "512"}]}}}, "dtype": {"type": "DT_FLOAT"}}}, {"name": "model_36/tf.math.add_29/Add/y", "op": "Const", "attr": {"value": {"tensor": {"dtype": "DT_FLOAT", "tensorShape": {"dim": [{"size": "512"}]}}}, "dtype": {"type": "DT_FLOAT"}}}, {"name": "model_36/tf.nn.convolution_22/convolution/filter", "op": "Const", "attr": {"value": {"tensor": {"dtype": "DT_FLOAT", "tensorShape": {"dim": [{"size": "1"}, {"size": "1"}, {"size": "512"}, {"size": "512"}]}}}, "dtype": {"type": "DT_FLOAT"}}}, {"name": "model_36/tf.math.add_30/Add/y", "op": "Const", "attr": {"value": {"tensor": {"dtype": "DT_FLOAT", "tensorShape": {"dim": [{"size": "512"}]}}}, "dtype": {"type": "DT_FLOAT"}}}, {"name": "model_36/tf.strided_slice_7/ones_like/tensor", "op": "Const", "attr": {"value": {"tensor": {"dtype": "DT_INT64", "tensorShape": {"dim": [{"size": "4"}]}}}, "dtype": {"type": "DT_INT64"}}}, {"name": "model_36/tf.strided_slice_7/StridedSlice/end", "op": "Const", "attr": {"value": {"tensor": {"dtype": "DT_INT64", "tensorShape": {"dim": [{"size": "4"}]}}}, "dtype": {"type": "DT_INT64"}}}, {"name": "model_36/tf.strided_slice_7/ones_like", "op": "Const", "attr": {"value": {"tensor": {"dtype": "DT_INT64", "tensorShape": {"dim": [{"size": "4"}]}}}, "dtype": {"type": "DT_INT64"}}}, {"name": "model_36/tf.nn.convolution_24/convolution/filter", "op": "Const", "attr": {"value": {"tensor": {"dtype": "DT_FLOAT", "tensorShape": {"dim": [{"size": "1"}, {"size": "1"}, {"size": "256"}, {"size": "128"}]}}}, "dtype": {"type": "DT_FLOAT"}}}, {"name": "model_36/tf.math.add_32/Add/y", "op": "Const", "attr": {"value": {"tensor": {"dtype": "DT_FLOAT", "tensorShape": {"dim": [{"size": "128"}]}}}, "dtype": {"type": "DT_FLOAT"}}}, {"name": "model_36/tf.concat_4/concat/axis", "op": "Const", "attr": {"value": {"tensor": {"dtype": "DT_INT32", "tensorShape": {}}}, "dtype": {"type": "DT_INT32"}}}, {"name": "model_36/tf.nn.convolution_29/convolution/filter", "op": "Const", "attr": {"value": {"tensor": {"dtype": "DT_FLOAT", "tensorShape": {"dim": [{"size": "1"}, {"size": "1"}, {"size": "256"}, {"size": "256"}]}}}, "dtype": {"type": "DT_FLOAT"}}}, {"name": "model_36/tf.math.add_41/Add/y", "op": "Const", "attr": {"value": {"tensor": {"dtype": "DT_FLOAT", "tensorShape": {"dim": [{"size": "256"}]}}}, "dtype": {"type": "DT_FLOAT"}}}, {"name": "model_36/tf.concat_5/concat/axis", "op": "Const", "attr": {"value": {"tensor": {"dtype": "DT_INT32", "tensorShape": {}}}, "dtype": {"type": "DT_INT32"}}}, {"name": "model_36/tf.nn.convolution_30/convolution/filter", "op": "Const", "attr": {"value": {"tensor": {"dtype": "DT_FLOAT", "tensorShape": {"dim": [{"size": "1"}, {"size": "1"}, {"size": "768"}, {"size": "512"}]}}}, "dtype": {"type": "DT_FLOAT"}}}, {"name": "model_36/tf.math.add_42/Add/y", "op": "Const", "attr": {"value": {"tensor": {"dtype": "DT_FLOAT", "tensorShape": {"dim": [{"size": "512"}]}}}, "dtype": {"type": "DT_FLOAT"}}}, {"name": "model_36/tf.nn.convolution_31/convolution/filter", "op": "Const", "attr": {"value": {"tensor": {"dtype": "DT_FLOAT", "tensorShape": {"dim": [{"size": "1"}, {"size": "1"}, {"size": "512"}, {"size": "256"}]}}}, "dtype": {"type": "DT_FLOAT"}}}, {"name": "model_36/tf.math.add_43/Add/y", "op": "Const", "attr": {"value": {"tensor": {"dtype": "DT_FLOAT", "tensorShape": {"dim": [{"size": "256"}]}}}, "dtype": {"type": "DT_FLOAT"}}}, {"name": "model_36/tf.concat_6/concat/axis", "op": "Const", "attr": {"value": {"tensor": {"dtype": "DT_INT32", "tensorShape": {}}}, "dtype": {"type": "DT_INT32"}}}, {"name": "model_36/tf.nn.convolution_32/convolution/filter", "op": "Const", "attr": {"value": {"tensor": {"dtype": "DT_FLOAT", "tensorShape": {"dim": [{"size": "1"}, {"size": "1"}, {"size": "1024"}, {"size": "512"}]}}}, "dtype": {"type": "DT_FLOAT"}}}, {"name": "model_36/tf.math.add_44/Add/y", "op": "Const", "attr": {"value": {"tensor": {"dtype": "DT_FLOAT", "tensorShape": {"dim": [{"size": "512"}]}}}, "dtype": {"type": "DT_FLOAT"}}}, {"name": "model_36/tf.nn.convolution_33/convolution/filter", "op": "Const", "attr": {"value": {"tensor": {"dtype": "DT_FLOAT", "tensorShape": {"dim": [{"size": "1"}, {"size": "1"}, {"size": "512"}, {"size": "512"}]}}}, "dtype": {"type": "DT_FLOAT"}}}, {"name": "model_36/tf.math.add_45/Add/y", "op": "Const", "attr": {"value": {"tensor": {"dtype": "DT_FLOAT", "tensorShape": {"dim": [{"size": "512"}]}}}, "dtype": {"type": "DT_FLOAT"}}}, {"name": "model_36/tf.strided_slice_9/StridedSlice/begin", "op": "Const", "attr": {"value": {"tensor": {"dtype": "DT_INT32", "tensorShape": {"dim": [{"size": "4"}]}}}, "dtype": {"type": "DT_INT32"}}}, {"name": "model_36/tf.strided_slice_9/StridedSlice/end", "op": "Const", "attr": {"value": {"tensor": {"dtype": "DT_INT32", "tensorShape": {"dim": [{"size": "4"}]}}}, "dtype": {"type": "DT_INT32"}}}, {"name": "model_36/tf.strided_slice_9/ones_like", "op": "Const", "attr": {"value": {"tensor": {"dtype": "DT_INT32", "tensorShape": {"dim": [{"size": "4"}]}}}, "dtype": {"type": "DT_INT32"}}}, {"name": "model_36/tf.nn.convolution_34/convolution/filter", "op": "Const", "attr": {"value": {"tensor": {"dtype": "DT_FLOAT", "tensorShape": {"dim": [{"size": "1"}, {"size": "1"}, {"size": "256"}, {"size": "512"}]}}}, "dtype": {"type": "DT_FLOAT"}}}, {"name": "model_36/tf.math.add_46/Add/y", "op": "Const", "attr": {"value": {"tensor": {"dtype": "DT_FLOAT", "tensorShape": {"dim": [{"size": "512"}]}}}, "dtype": {"type": "DT_FLOAT"}}}, {"name": "model_36/tf.compat.v1.transpose_42/transpose/perm", "op": "Const", "attr": {"value": {"tensor": {"dtype": "DT_INT32", "tensorShape": {"dim": [{"size": "4"}]}}}, "dtype": {"type": "DT_INT32"}}}, {"name": "model_36/tf.reshape_2/Reshape/shape", "op": "Const", "attr": {"value": {"tensor": {"dtype": "DT_INT32", "tensorShape": {"dim": [{"size": "4"}]}}}, "dtype": {"type": "DT_INT32"}}}, {"name": "model_36/tf.strided_slice_12/StridedSlice/begin", "op": "Const", "attr": {"value": {"tensor": {"dtype": "DT_INT32", "tensorShape": {"dim": [{"size": "4"}]}}}, "dtype": {"type": "DT_INT32"}}}, {"name": "model_36/tf.strided_slice_12/StridedSlice/end", "op": "Const", "attr": {"value": {"tensor": {"dtype": "DT_INT32", "tensorShape": {"dim": [{"size": "4"}]}}}, "dtype": {"type": "DT_INT32"}}}, {"name": "model_36/tf.strided_slice_12/ones_like", "op": "Const", "attr": {"value": {"tensor": {"dtype": "DT_INT32", "tensorShape": {"dim": [{"size": "4"}]}}}, "dtype": {"type": "DT_INT32"}}}, {"name": "model_36/tf.reshape_5/Reshape/shape", "op": "Const", "attr": {"value": {"tensor": {"dtype": "DT_INT32", "tensorShape": {"dim": [{"size": "4"}]}}}, "dtype": {"type": "DT_INT32"}}}, {"name": "model_36/tf.compat.v1.transpose_50/transpose/perm", "op": "Const", "attr": {"value": {"tensor": {"dtype": "DT_INT32", "tensorShape": {"dim": [{"size": "4"}]}}}, "dtype": {"type": "DT_INT32"}}}, {"name": "model_36/tf.nn.convolution_290/convolution/filter", "op": "Const", "attr": {"value": {"tensor": {"dtype": "DT_FLOAT", "tensorShape": {"dim": [{"size": "3"}, {"size": "3"}, {"size": "1"}, {"size": "1"}]}}}, "dtype": {"type": "DT_FLOAT"}}}, {"name": "model_36/tf.concat_7/concat/axis", "op": "Const", "attr": {"value": {"tensor": {"dtype": "DT_INT32", "tensorShape": {}}}, "dtype": {"type": "DT_INT32"}}}, {"name": "model_36/tf.nn.convolution_291/convolution/filter", "op": "Const", "attr": {"value": {"tensor": {"dtype": "DT_FLOAT", "tensorShape": {"dim": [{"size": "1"}, {"size": "1"}, {"size": "256"}, {"size": "256"}]}}}, "dtype": {"type": "DT_FLOAT"}}}, {"name": "model_36/tf.math.add_50/Add/y", "op": "Const", "attr": {"value": {"tensor": {"dtype": "DT_FLOAT", "tensorShape": {"dim": [{"size": "256"}]}}}, "dtype": {"type": "DT_FLOAT"}}}, {"name": "model_36/tf.nn.convolution_292/convolution/filter", "op": "Const", "attr": {"value": {"tensor": {"dtype": "DT_FLOAT", "tensorShape": {"dim": [{"size": "1"}, {"size": "1"}, {"size": "256"}, {"size": "512"}]}}}, "dtype": {"type": "DT_FLOAT"}}}, {"name": "model_36/tf.math.add_53/Add/y", "op": "Const", "attr": {"value": {"tensor": {"dtype": "DT_FLOAT", "tensorShape": {"dim": [{"size": "512"}]}}}, "dtype": {"type": "DT_FLOAT"}}}, {"name": "model_36/tf.nn.convolution_293/convolution/filter", "op": "Const", "attr": {"value": {"tensor": {"dtype": "DT_FLOAT", "tensorShape": {"dim": [{"size": "1"}, {"size": "1"}, {"size": "512"}, {"size": "256"}]}}}, "dtype": {"type": "DT_FLOAT"}}}, {"name": "model_36/tf.concat_8/concat/axis", "op": "Const", "attr": {"value": {"tensor": {"dtype": "DT_INT32", "tensorShape": {}}}, "dtype": {"type": "DT_INT32"}}}, {"name": "model_36/tf.nn.convolution_294/convolution/filter", "op": "Const", "attr": {"value": {"tensor": {"dtype": "DT_FLOAT", "tensorShape": {"dim": [{"size": "1"}, {"size": "1"}, {"size": "512"}, {"size": "512"}]}}}, "dtype": {"type": "DT_FLOAT"}}}, {"name": "model_36/tf.math.add_57/Add/y", "op": "Const", "attr": {"value": {"tensor": {"dtype": "DT_FLOAT", "tensorShape": {"dim": [{"size": "512"}]}}}, "dtype": {"type": "DT_FLOAT"}}}, {"name": "model_36/tf.concat_16/concat/axis", "op": "Const", "attr": {"value": {"tensor": {"dtype": "DT_INT32", "tensorShape": {}}}, "dtype": {"type": "DT_INT32"}}}, {"name": "model_36/tf.nn.convolution_326/convolution/filter", "op": "Const", "attr": {"value": {"tensor": {"dtype": "DT_FLOAT", "tensorShape": {"dim": [{"size": "1"}, {"size": "1"}, {"size": "768"}, {"size": "512"}]}}}, "dtype": {"type": "DT_FLOAT"}}}, {"name": "model_36/tf.math.add_99/Add/y", "op": "Const", "attr": {"value": {"tensor": {"dtype": "DT_FLOAT", "tensorShape": {"dim": [{"size": "512"}]}}}, "dtype": {"type": "DT_FLOAT"}}}, {"name": "model_36/tf.strided_slice_20/ones_like/tensor", "op": "Const", "attr": {"value": {"tensor": {"dtype": "DT_INT64", "tensorShape": {"dim": [{"size": "4"}]}}}, "dtype": {"type": "DT_INT64"}}}, {"name": "model_36/tf.strided_slice_20/StridedSlice/end", "op": "Const", "attr": {"value": {"tensor": {"dtype": "DT_INT64", "tensorShape": {"dim": [{"size": "4"}]}}}, "dtype": {"type": "DT_INT64"}}}, {"name": "model_36/tf.strided_slice_20/ones_like", "op": "Const", "attr": {"value": {"tensor": {"dtype": "DT_INT64", "tensorShape": {"dim": [{"size": "4"}]}}}, "dtype": {"type": "DT_INT64"}}}, {"name": "model_36/tf.nn.convolution_330/convolution/filter", "op": "Const", "attr": {"value": {"tensor": {"dtype": "DT_FLOAT", "tensorShape": {"dim": [{"size": "1"}, {"size": "1"}, {"size": "256"}, {"size": "128"}]}}}, "dtype": {"type": "DT_FLOAT"}}}, {"name": "model_36/tf.math.add_104/Add/y", "op": "Const", "attr": {"value": {"tensor": {"dtype": "DT_FLOAT", "tensorShape": {"dim": [{"size": "128"}]}}}, "dtype": {"type": "DT_FLOAT"}}}, {"name": "model_36/tf.concat_18/concat/axis", "op": "Const", "attr": {"value": {"tensor": {"dtype": "DT_INT32", "tensorShape": {}}}, "dtype": {"type": "DT_INT32"}}}, {"name": "model_36/tf.nn.convolution_337/convolution/filter", "op": "Const", "attr": {"value": {"tensor": {"dtype": "DT_FLOAT", "tensorShape": {"dim": [{"size": "1"}, {"size": "1"}, {"size": "256"}, {"size": "256"}]}}}, "dtype": {"type": "DT_FLOAT"}}}, {"name": "model_36/tf.math.add_115/Add/y", "op": "Const", "attr": {"value": {"tensor": {"dtype": "DT_FLOAT", "tensorShape": {"dim": [{"size": "256"}]}}}, "dtype": {"type": "DT_FLOAT"}}}, {"name": "model_36/tf.concat_19/concat/axis", "op": "Const", "attr": {"value": {"tensor": {"dtype": "DT_INT32", "tensorShape": {}}}, "dtype": {"type": "DT_INT32"}}}, {"name": "model_36/tf.nn.convolution_338/convolution/filter", "op": "Const", "attr": {"value": {"tensor": {"dtype": "DT_FLOAT", "tensorShape": {"dim": [{"size": "1"}, {"size": "1"}, {"size": "768"}, {"size": "512"}]}}}, "dtype": {"type": "DT_FLOAT"}}}, {"name": "model_36/tf.math.add_116/Add/y", "op": "Const", "attr": {"value": {"tensor": {"dtype": "DT_FLOAT", "tensorShape": {"dim": [{"size": "512"}]}}}, "dtype": {"type": "DT_FLOAT"}}}, {"name": "model_36/tf.nn.convolution_339/convolution/filter", "op": "Const", "attr": {"value": {"tensor": {"dtype": "DT_FLOAT", "tensorShape": {"dim": [{"size": "3"}, {"size": "3"}, {"size": "512"}, {"size": "32"}]}}}, "dtype": {"type": "DT_FLOAT"}}}, {"name": "model_36/tf.math.add_117/Add/y", "op": "Const", "attr": {"value": {"tensor": {"dtype": "DT_FLOAT", "tensorShape": {"dim": [{"size": "32"}]}}}, "dtype": {"type": "DT_FLOAT"}}}, {"name": "model_36/tf.nn.convolution_341/convolution/filter", "op": "Const", "attr": {"value": {"tensor": {"dtype": "DT_FLOAT", "tensorShape": {"dim": [{"size": "3"}, {"size": "3"}, {"size": "32"}, {"size": "32"}]}}}, "dtype": {"type": "DT_FLOAT"}}}, {"name": "model_36/tf.math.add_120/Add/y", "op": "Const", "attr": {"value": {"tensor": {"dtype": "DT_FLOAT", "tensorShape": {"dim": [{"size": "32"}]}}}, "dtype": {"type": "DT_FLOAT"}}}, {"name": "model_36/tf.nn.convolution_344/convolution/filter", "op": "Const", "attr": {"value": {"tensor": {"dtype": "DT_FLOAT", "tensorShape": {"dim": [{"size": "1"}, {"size": "1"}, {"size": "32"}, {"size": "32"}]}}}, "dtype": {"type": "DT_FLOAT"}}}, {"name": "model_36/tf.math.add_123/Add/y", "op": "Const", "attr": {"value": {"tensor": {"dtype": "DT_FLOAT", "tensorShape": {"dim": [{"size": "32"}]}}}, "dtype": {"type": "DT_FLOAT"}}}, {"name": "model_36/tf.compat.v1.transpose_138/transpose/perm", "op": "Const", "attr": {"value": {"tensor": {"dtype": "DT_INT32", "tensorShape": {"dim": [{"size": "4"}]}}}, "dtype": {"type": "DT_INT32"}}}, {"name": "model_36/tf.reshape_23/Reshape/shape", "op": "Const", "attr": {"value": {"tensor": {"dtype": "DT_INT32", "tensorShape": {"dim": [{"size": "3"}]}}}, "dtype": {"type": "DT_INT32"}}}, {"name": "model_36/tf.concat_20/concat/axis", "op": "Const", "attr": {"value": {"tensor": {"dtype": "DT_INT32", "tensorShape": {}}}, "dtype": {"type": "DT_INT32"}}}, {"name": "model_36/tf.concat_27/concat/axis", "op": "Const", "attr": {"value": {"tensor": {"dtype": "DT_INT32", "tensorShape": {}}}, "dtype": {"type": "DT_INT32"}}}, {"name": "model_36/tf.compat.v1.transpose_161/transpose/perm", "op": "Const", "attr": {"value": {"tensor": {"dtype": "DT_INT32", "tensorShape": {"dim": [{"size": "3"}]}}}, "dtype": {"type": "DT_INT32"}}}, {"name": "model_36/tf.strided_slice_26/ones_like/tensor", "op": "Const", "attr": {"value": {"tensor": {"dtype": "DT_INT64", "tensorShape": {"dim": [{"size": "3"}]}}}, "dtype": {"type": "DT_INT64"}}}, {"name": "model_36/tf.strided_slice_26/StridedSlice/end", "op": "Const", "attr": {"value": {"tensor": {"dtype": "DT_INT64", "tensorShape": {"dim": [{"size": "3"}]}}}, "dtype": {"type": "DT_INT64"}}}, {"name": "model_36/tf.strided_slice_26/ones_like", "op": "Const", "attr": {"value": {"tensor": {"dtype": "DT_INT64", "tensorShape": {"dim": [{"size": "3"}]}}}, "dtype": {"type": "DT_INT64"}}}, {"name": "model_36/tf.math.reduce_max_1/Max/reduction_indices", "op": "Const", "attr": {"value": {"tensor": {"dtype": "DT_INT32", "tensorShape": {"dim": [{"size": "1"}]}}}, "dtype": {"type": "DT_INT32"}}}, {"name": "model_36/tf.compat.v1.gather_3/GatherV2/indices", "op": "Const", "attr": {"value": {"tensor": {"dtype": "DT_INT32", "tensorShape": {}}}, "dtype": {"type": "DT_INT32"}}}, {"name": "model_36/tf.compat.v1.gather_3/GatherV2/axis", "op": "Const", "attr": {"value": {"tensor": {"dtype": "DT_INT32", "tensorShape": {}}}, "dtype": {"type": "DT_INT32"}}}, {"name": "model_36/tf.math.greater/Greater/y", "op": "Const", "attr": {"value": {"ten…
me": "model_36/tf.math.add_81/Add/y", "shape": [32], "dtype": "float32"}, {"name": "model_36/tf.compat.v1.transpose_85/transpose/perm", "shape": [4], "dtype": "int32"}, {"name": "model_36/tf.reshape_11/Reshape/shape", "shape": [3], "dtype": "int32"}, {"name": "model_36/tf.nn.convolution_321/convolution/filter", "shape": [3, 3, 256, 32], "dtype": "float32"}, {"name": "model_36/tf.math.add_93/Add/y", "shape": [32], "dtype": "float32"}, {"name": "model_36/tf.nn.convolution_323/convolution/filter", "shape": [3, 3, 32, 32], "dtype": "float32"}, {"name": "model_36/tf.math.add_96/Add/y", "shape": [32], "dtype": "float32"}, {"name": "model_36/tf.nn.convolution_327/convolution/filter", "shape": [1, 1, 32, 32], "dtype": "float32"}, {"name": "model_36/tf.math.add_100/Add/y", "shape": [32], "dtype": "float32"}, {"name": "model_36/tf.compat.v1.transpose_110/transpose/perm", "shape": [4], "dtype": "int32"}, {"name": "model_36/tf.reshape_17/Reshape/shape", "shape": [3], "dtype": "int32"}, {"name": "model_36/tf.strided_slice_19/ones_like/tensor", "shape": [4], "dtype": "int32"}, {"name": "model_36/tf.strided_slice_19/StridedSlice/end", "shape": [4], "dtype": "int32"}, {"name": "model_36/tf.strided_slice_19/ones_like", "shape": [4], "dtype": "int32"}, {"name": "model_36/tf.nn.convolution_329/convolution/filter", "shape": [1, 1, 256, 128], "dtype": "float32"}, {"name": "model_36/tf.math.add_103/Add/y", "shape": [128], "dtype": "float32"}, {"name": "model_36/tf.nn.convolution_332/convolution/filter", "shape": [3, 3, 128, 128], "dtype": "float32"}, {"name": "model_36/tf.math.add_106/Add/y", "shape": [128], "dtype": "float32"}, {"name": "model_36/tf.nn.convolution_334/convolution/filter", "shape": [3, 3, 128, 128], "dtype": "float32"}, {"name": "model_36/tf.math.add_108/Add/y", "shape": [128], "dtype": "float32"}, {"name": "model_36/tf.nn.convolution_335/convolution/filter", "shape": [3, 3, 128, 128], "dtype": "float32"}, {"name": "model_36/tf.math.add_111/Add/y", "shape": [128], "dtype": "float32"}, {"name": "model_36/tf.nn.convolution_336/convolution/filter", "shape": [3, 3, 128, 128], "dtype": "float32"}, {"name": "model_36/tf.math.add_112/Add/y", "shape": [128], "dtype": "float32"}, {"name": "model_36/tf.strided_slice_17/ones_like/tensor", "shape": [4], "dtype": "int32"}, {"name": "model_36/tf.strided_slice_17/StridedSlice/end", "shape": [4], "dtype": "int32"}, {"name": "model_36/tf.strided_slice_17/ones_like", "shape": [4], "dtype": "int32"}, {"name": "model_36/tf.strided_slice_15/ones_like/tensor", "shape": [4], "dtype": "int32"}, {"name": "model_36/tf.strided_slice_15/StridedSlice/end", "shape": [4], "dtype": "int32"}, {"name": "model_36/tf.strided_slice_15/ones_like", "shape": [4], "dtype": "int32"}, {"name": "model_36/tf.image.resize_1/resize/size", "shape": [2], "dtype": "int32"}, {"name": "model_36/tf.concat_11/concat/axis", "shape": [], "dtype": "int32"}, {"name": "model_36/tf.nn.convolution_299/convolution/filter", "shape": [1, 1, 512, 128], "dtype": "float32"}, {"name": "model_36/tf.math.add_64/Add/y", "shape": [128], "dtype": "float32"}, {"name": "model_36/tf.strided_slice_16/ones_like/tensor", "shape": [4], "dtype": "int32"}, {"name": "model_36/tf.strided_slice_16/StridedSlice/end", "shape": [4], "dtype": "int32"}, {"name": "model_36/tf.strided_slice_16/ones_like", "shape": [4], "dtype": "int32"}, {"name": "model_36/tf.nn.convolution_300/convolution/filter", "shape": [3, 3, 64, 32], "dtype": "float32"}, {"name": "model_36/tf.math.add_65/Add/y", "shape": [32], "dtype": "float32"}, {"name": "model_36/tf.nn.convolution_301/convolution/filter", "shape": [3, 3, 32, 64], "dtype": "float32"}, {"name": "model_36/tf.math.add_66/Add/y", "shape": [64], "dtype": "float32"}, {"name": "model_36/tf.concat_12/concat/axis", "shape": [], "dtype": "int32"}, {"name": "model_36/tf.nn.convolution_302/convolution/filter", "shape": [1, 1, 192, 128], "dtype": "float32"}, {"name": "model_36/tf.math.add_69/Add/y", "shape": [128], "dtype": "float32"}, {"name": "model_36/tf.compat.v1.pad_5/Pad/paddings", "shape": [4, 2], "dtype": "int32"}, {"name": "model_36/tf.nn.convolution_303/convolution/filter", "shape": [3, 3, 128, 128], "dtype": "float32"}, {"name": "model_36/tf.math.add_70/Add/y", "shape": [128], "dtype": "float32"}, {"name": "model_36/tf.strided_slice_13/ones_like/tensor", "shape": [4], "dtype": "int32"}, {"name": "model_36/tf.strided_slice_13/StridedSlice/end", "shape": [4], "dtype": "int32"}, {"name": "model_36/tf.strided_slice_13/ones_like", "shape": [4], "dtype": "int32"}, {"name": "model_36/tf.image.resize/resize/size", "shape": [2], "dtype": "int32"}, {"name": "model_36/tf.concat_9/concat/axis", "shape": [], "dtype": "int32"}, {"name": "model_36/tf.nn.convolution_295/convolution/filter", "shape": [1, 1, 768, 256], "dtype": "float32"}, {"name": "model_36/tf.math.add_58/Add/y", "shape": [256], "dtype": "float32"}, {"name": "model_36/tf.strided_slice_14/ones_like/tensor", "shape": [4], "dtype": "int32"}, {"name": "model_36/tf.strided_slice_14/StridedSlice/end", "shape": [4], "dtype": "int32"}, {"name": "model_36/tf.strided_slice_14/ones_like", "shape": [4], "dtype": "int32"}, {"name": "model_36/tf.nn.convolution_296/convolution/filter", "shape": [3, 3, 128, 64], "dtype": "float32"}, {"name": "model_36/tf.math.add_59/Add/y", "shape": [64], "dtype": "float32"}, {"name": "model_36/tf.nn.convolution_297/convolution/filter", "shape": [3, 3, 64, 128], "dtype": "float32"}, {"name": "model_36/tf.math.add_60/Add/y", "shape": [128], "dtype": "float32"}, {"name": "model_36/tf.concat_10/concat/axis", "shape": [], "dtype": "int32"}, {"name": "model_36/tf.nn.convolution_298/convolution/filter", "shape": [1, 1, 384, 256], "dtype": "float32"}, {"name": "model_36/tf.math.add_63/Add/y", "shape": [256], "dtype": "float32"}, {"name": "model_36/tf.concat_13/concat/axis", "shape": [], "dtype": "int32"}, {"name": "model_36/tf.nn.convolution_310/convolution/filter", "shape": [1, 1, 384, 256], "dtype": "float32"}, {"name": "model_36/tf.math.add_79/Add/y", "shape": [256], "dtype": "float32"}, {"name": "model_36/tf.strided_slice_18/ones_like/tensor", "shape": [4], "dtype": "int32"}, {"name": "model_36/tf.strided_slice_18/StridedSlice/end", "shape": [4], "dtype": "int32"}, {"name": "model_36/tf.strided_slice_18/ones_like", "shape": [4], "dtype": "int32"}, {"name": "model_36/tf.nn.convolution_315/convolution/filter", "shape": [3, 3, 128, 64], "dtype": "float32"}, {"name": "model_36/tf.math.add_85/Add/y", "shape": [64], "dtype": "float32"}, {"name": "model_36/tf.nn.convolution_317/convolution/filter", "shape": [3, 3, 64, 128], "dtype": "float32"}, {"name": "model_36/tf.math.add_87/Add/y", "shape": [128], "dtype": "float32"}, {"name": "model_36/tf.concat_15/concat/axis", "shape": [], "dtype": "int32"}, {"name": "model_36/tf.nn.convolution_319/convolution/filter", "shape": [1, 1, 384, 256], "dtype": "float32"}, {"name": "model_36/tf.math.add_91/Add/y", "shape": [256], "dtype": "float32"}, {"name": "model_36/tf.compat.v1.pad_6/Pad/paddings", "shape": [4, 2], "dtype": "int32"}, {"name": "model_36/tf.nn.convolution_320/convolution/filter", "shape": [3, 3, 256, 256], "dtype": "float32"}, {"name": "model_36/tf.math.add_92/Add/y", "shape": [256], "dtype": "float32"}, {"name": "model_36/tf.strided_slice_8/StridedSlice/begin", "shape": [4], "dtype": "int32"}, {"name": "model_36/tf.strided_slice_8/StridedSlice/end", "shape": [4], "dtype": "int32"}, {"name": "model_36/tf.strided_slice_8/ones_like", "shape": [4], "dtype": "int32"}, {"name": "model_36/tf.math.add_54/Add/y", "shape": [256], "dtype": "float32"}, {"name": "model_36/tf.math.add_47/Add/y", "shape": [256], "dtype": "float32"}, {"name": "model_36/tf.strided_slice_10/StridedSlice/begin", "shape": [4], "dtype": "int32"}, {"name": "model_36/tf.strided_slice_10/StridedSlice/end", "shape": [4], "dtype": "int32"}, {"name": "model_36/tf.strided_slice_10/ones_like", "shape": [4], "dtype": "int32"}, {"name": "model_36/tf.strided_slice_11/StridedSlice/begin", "shape": [4], "dtype": "int32"}, {"name": "model_36/tf.strided_slice_11/StridedSlice/end", "shape": [4], "dtype": "int32"}, {"name": "model_36/tf.strided_slice_11/ones_like", "shape": [4], "dtype": "int32"}, {"name": "model_36/tf.math.multiply_150/Mul/y", "shape": [], "dtype": "float32"}, {"name": "model_36/tf.reshape_8/Reshape/shape", "shape": [4], "dtype": "int32"}, {"name": "model_36/tf.compat.v1.transpose_57/transpose/perm", "shape": [4], "dtype": "int32"}, {"name": "model_36/tf.nn.convolution_35/convolution/filter", "shape": [3, 3, 1, 1], "dtype": "float32"}, {"name": "model_36/tf.nn.convolution_36/convolution/filter", "shape": [3, 3, 1, 1], "dtype": "float32"}, {"name": "model_36/tf.nn.convolution_37/convolution/filter", "shape": [3, 3, 1, 1], "dtype": "float32"}, {"name": "model_36/tf.nn.convolution_38/convolution/filter", "shape": [3, 3, 1, 1], "dtype": "float32"}, {"name": "model_36/tf.nn.convolution_39/convolution/filter", "shape": [3, 3, 1, 1], "dtype": "float32"}, {"name": "model_36/tf.nn.convolution_40/convolution/filter", "shape": [3, 3, 1, 1], "dtype": "float32"}, {"name": "model_36/tf.nn.convolution_41/convolution/filter", "shape": [3, 3, 1, 1], "dtype": "float32"}, {"name": "model_36/tf.nn.convolution_42/convolution/filter", "shape": [3, 3, 1, 1], "dtype": "float32"}, {"name": "model_36/tf.nn.convolution_43/convolution/filter", "shape": [3, 3, 1, 1], "dtype": "float32"}, {"name": "model_36/tf.nn.convolution_44/convolution/filter", "shape": [3, 3, 1, 1], "dtype": "float32"}, {"name": "model_36/tf.nn.convolution_45/convolution/filter", "shape": [3, 3, 1, 1], "dtype": "float32"}, {"name": "model_36/tf.nn.convolution_46/convolution/filter", "shape": [3, 3, 1, 1], "dtype": "float32"}, {"name": "model_36/tf.nn.convolution_47/convolution/filter", "shape": [3, 3, 1, 1], "dtype": "float32"}, {"name": "model_36/tf.nn.convolution_48/convolution/filter", "shape": [3, 3, 1, 1], "dtype": "float32"}, {"name": "model_36/tf.nn.convolution_49/convolution/filter", "shape": [3, 3, 1, 1], "dtype": "float32"}, {"name": "model_36/tf.nn.convolution_50/convolution/filter", "shape": [3, 3, 1, 1], "dtype": "float32"}, {"name": "model_36/tf.nn.convolution_51/convolution/filter", "shape": [3, 3, 1, 1], "dtype": "float32"}, {"name": "model_36/tf.nn.convolution_52/convolution/filter", "shape": [3, 3, 1, 1], "dtype": "float32"}, {"name": "model_36/tf.nn.convolution_53/convolution/filter", "shape": [3, 3, 1, 1], "dtype": "float32"}, {"name": "model_36/tf.nn.convolution_54/convolution/filter", "shape": [3, 3, 1, 1], "dtype": "float32"}, {"name": "model_36/tf.nn.convolution_55/convolution/filter", "shape": [3, 3, 1, 1], "dtype": "float32"}, {"name": "model_36/tf.nn.convolution_56/convolution/filter", "shape": [3, 3, 1, 1], "dtype": "float32"}, {"name": "model_36/tf.nn.convolution_57/convolution/filter", "shape": [3, 3, 1, 1], "dtype": "float32"}, {"name": "model_36/tf.nn.convolution_58/convolution/filter", "shape": [3, 3, 1, 1], "dtype": "float32"}, {"name": "model_36/tf.nn.convolution_59/convolution/filter", "shape": [3, 3, 1, 1], "dtype": "float32"}, {"name": "model_36/tf.nn.convolution_60/convolution/filter", "shape": [3, 3, 1, 1], "dtype": "float32"}, {"name": "model_36/tf.nn.convolution_61/convolution/filter", "shape": [3, 3, 1, 1], "dtype": "float32"}, {"name": "model_36/tf.nn.convolution_62/convolution/filter", "shape": [3, 3, 1, 1], "dtype": "float32"}, {"name": "model_36/tf.nn.convolution_63/convolution/filter", "shape": [3, 3, 1, 1], "dtype": "float32"}, {"name": "model_36/tf.nn.convolution_64/convolution/filter", "shape": [3, 3, 1, 1], "dtype": "float32"}, {"name": "model_36/tf.nn.convolution_65/convolution/filter", "shape": [3, 3, 1, 1], "dtype": "float32"}, {"name": "model_36/tf.nn.convolution_66/convolution/filter", "shape": [3, 3, 1, 1], "dtype": "float32"}, {"name": "model_36/tf.nn.convolution_67/convolution/filter", "shape": [3, 3, 1, 1], "dtype": "float32"}, {"name": "model_36/tf.nn.convolution_68/convolution/filter", "shape": [3, 3, 1, 1], "dtype": "float32"}, {"name": "model_36/tf.nn.convolution_69/convolution/filter", "shape": [3, 3, 1, 1], "dtype": "float32"}, {"name": "model_36/tf.nn.convolution_70/convolution/filter", "shape": [3, 3, 1, 1], "dtype": "float32"}, {"name": "model_36/tf.nn.convolution_71/convolution/filter", "shape": [3, 3, 1, 1], "dtype": "float32"}, {"name": "model_36/tf.nn.convolution_72/convolution/filter", "shape": [3, 3, 1, 1], "dtype": "float32"}, {"name": "model_36/tf.nn.convolution_73/convolution/filter", "shape": [3, 3, 1, 1], "dtype": "float32"}, {"name": "model_36/tf.nn.convolution_74/convolution/filter", "shape": [3, 3, 1, 1], "dtype": "float32"}, {"name": "model_36/tf.nn.convolution_75/convolution/filter", "shape": [3, 3, 1, 1], "dtype": "float32"}, {"name": "model_36/tf.nn.convolution_76/convolution/filter", "shape": [3, 3, 1, 1], "dtype": "float32"}, {"name": "model_36/tf.nn.convolution_77/convolution/filter", "shape": [3, 3, 1, 1], "dtype": "float32"}, {"name": "model_36/tf.nn.convolution_78/convolution/filter", "shape": [3, 3, 1, 1], "dtype": "float32"}, {"name": "model_36/tf.nn.convolution_79/convolution/filter", "shape": [3, 3, 1, 1], "dtype": "float32"}, {"name": "model_36/tf.nn.convolution_80/convolution/filter", "shape": [3, 3, 1, 1], "dtype": "float32"}, {"name": "model_36/tf.nn.convolution_81/convolution/filter", "shape": [3, 3, 1, 1], "dtype": "float32"}, {"name": "model_36/tf.nn.convolution_82/convolution/filter", "shape": [3, 3, 1, 1], "dtype": "float32"}, {"name": "model_36/tf.nn.convolution_83/convolution/filter", "shape": [3, 3, 1, 1], "dtype": "float32"}, {"name": "model_36/tf.nn.convolution_84/convolution/filter", "shape": [3, 3, 1, 1], "dtype": "float32"}, {"name": "model_36/tf.nn.convolution_85/convolution/filter", "shape": [3, 3, 1, 1], "dtype": "float32"}, {"name": "model_36/tf.nn.convolution_86/convolution/filter", "shape": [3, 3, 1, 1], "dtype": "float32"}, {"name": "model_36/tf.nn.convolution_87/convolution/filter", "shape": [3, 3, 1, 1], "dtype": "float32"}, {"name": "model_36/tf.nn.convolution_88/convolution/filter", "shape": [3, 3, 1, 1], "dtype": "float32"}, {"name": "model_36/tf.nn.convolution_89/convolution/filter", "shape": [3, 3, 1, 1], "dtype": "float32"}, {"name": "model_36/tf.nn.convolution_90/convolution/filter", "shape": [3, 3, 1, 1], "dtype": "float32"}, {"name": "model_36/tf.nn.convolution_91/convolution/filter", "shape": [3, 3, 1, 1], "dtype": "float32"}, {"name": "model_36/tf.nn.convolution_92/convolution/filter", "shape": [3, 3, 1, 1], "dtype": "float32"}, {"name": "model_36/tf.nn.convolution_93/convolution/filter", "shape": [3, 3, 1, 1], "dtype": "float32"}, {"name": "model_36/tf.nn.convolution_94/convolution/filter", "shape": [3, 3, 1, 1], "dtype": "float32"}, {"name": "model_36/tf.nn.convolution_95/convolution/filter", "shape": [3, 3, 1, 1], "dtype": "float32"}, {"name": "model_36/tf.nn.convolution_96/convolution/filter", "shape": [3, 3, 1, 1], "dtype": "float32"}, {"name": "model_36/tf.nn.convolution_97/convolution/filter", "shape": [3, 3, 1, 1], "dtype": "float32"}, {"name": "model_36/tf.nn.convolution_98/convolution/filter", "shape": [3, 3, 1, 1], "dtype": "float32"}, {"name": "model_36/tf.nn.convolution_99/convolution/filter", "shape": [3, 3, 1, 1], "dtype": "float32"}, {"name": "model_36/tf.nn.convolution_100/convolution/filter", "shape": [3, 3, 1, 1], "dtype": "float32"}, {"name": "model_36/tf.nn.convolution_101/convolution/filter", "shape": [3, 3, 1, 1], "dtype": "float32"}, {"name": "model_36/tf.nn.convolution_102/convolution/filter", "shape": [3, 3, 1, 1], "dtype": "float32"}, {"name": "model_36/tf.nn.convolution_103/convolution/filter", "shape": [3, 3, 1, 1], "dtype": "float32"}, {"name": "model_36/tf.nn.convolution_104/convolution/filter", "shape": [3, 3, 1, 1], "dtype": "float32"}, {"name": "model_36/tf.nn.convolution_105/convolution/filter", "shape": [3, 3, 1, 1], "dtype": "float32"}, {"name": "model_36/tf.nn.convolution_106/convolution/filter", "shape": [3, 3, 1, 1], "dtype": "float32"}, {"name": "model_36/tf.nn.convolution_107/convolution/filter", "shape": [3, 3, 1, 1], "dtype": "float32"}, {"name": "model_36/tf.nn.convolution_108/convolution/filter", "shape": [3, 3, 1, 1], "dtype": "float32"}, {"name": "model_36/tf.nn.convolution_109/convolution/filter", "shape": [3, 3, 1, 1], "dtype": "float32"}, {"name": "model_36/tf.nn.convolution_110/convolution/filter", "shape": [3, 3, 1, 1], "dtype": "float32"}, {"name": "model_36/tf.nn.convolution_111/convolution/filter", "shape": [3, 3, 1, 1], "dtype": "float32"}, {"name": "model_36/tf.nn.convolution_112/convolution/filter", "shape": [3, 3, 1, 1], "dtype": "float32"}, {"name": "model_36/tf.nn.convolution_113/convolution/filter", "shape": [3, 3, 1, 1], "dtype": "float32"}, {"name": "model_36/tf.nn.convolution_114/convolution/filter", "shape": [3, 3, 1, 1], "dtype": "float32"}, {"name": "model_36/tf.nn.convolution_115/convolution/filter", "shape": [3, 3, 1, 1], "dtype": "float32"}, {"name": "model_36/tf.nn.convolution_116/convolution/filter", "shape": [3, 3, 1, 1], "dtype": "float32"}, {"name": "model_36/tf.nn.convolution_117/convolution/filter", "shape": [3, 3, 1, 1], "dtype": "float32"}, {"name": "model_36/tf.nn.convolution_118/convolution/filter", "shape": [3, 3, 1, 1], "dtype": "float32"}, {"name": "model_36/tf.nn.convolution_119/convolution/filter", "shape": [3, 3, 1, 1], "dtype": "float32"}, {"name": "model_36/tf.nn.convolution_120/convolution/filter", "shape": [3, 3, 1, 1], "dtype": "float32"}, {"name": "model_36/tf.nn.convolution_121/convolution/filter", "shape": [3, 3, 1, 1], "dtype": "float32"}, {"name": "model_36/tf.nn.convolution_122/convolution/filter", "shape": [3, 3, 1, 1], "dtype": "float32"}, {"name": "model_36/tf.nn.convolution_123/convolution/filter", "shape": [3, 3, 1, 1], "dtype": "float32"}, {"name": "model_36/tf.nn.convolution_124/convolution/filter", "shape": [3, 3, 1, 1], "dtype": "float32"}, {"name": "model_36/tf.nn.convolution_125/convolution/filter", "shape": [3, 3, 1, 1], "dtype": "float32"}, {"name": "model_36/tf.nn.convolution_126/convolution/filter", "shape": [3, 3, 1, 1], "dtype": "float32"}, {"name": "model_36/tf.nn.convolution_127/convolution/filter", "shape": [3, 3, 1, 1], "dtype": "float32"}, {"name": "model_36/tf.nn.convolution_128/convolution/filter", "shape": [3, 3, 1, 1], "dtype": "float32"}, {"name": "model_36/tf.nn.convolution_129/convolution/filter", "shape": [3, 3, 1, 1], "dtype": "float32"}, {"name": "model_36/tf.nn.convolution_130/convolution/filter", "shape": [3, 3, 1, 1], "dtype": "float32"}, {"name": "model_36/tf.nn.convolution_131/convolution/filter", "shape": [3, 3, 1, 1], "dtype": "float32"}, {"name": "model_36/tf.nn.convolution_132/convolution/filter", "shape": [3, 3, 1, 1], "dtype": "float32"}, {"name": "model_36/tf.nn.convolution_133/convolution/filter", "shape": [3, 3, 1, 1], "dtype": "float32"}, {"name": "model_36/tf.nn.convolution_134/convolution/filter", "shape": [3, 3, 1, 1], "dtype": "float32"}, {"name": "model_36/tf.nn.convolution_135/convolution/filter", "shape": [3, 3, 1, 1], "dtype": "float32"}, {"name": "model_36/tf.nn.convolution_136/convolution/filter", "shape": [3, 3, 1, 1], "dtype": "float32"}, {"name": "model_36/tf.nn.convolution_137/convolution/filter", "shape": [3, 3, 1, 1], "dtype": "float32"}, {"name": "model_36/tf.nn.convolution_138/convolution/filter", "shape": [3, 3, 1, 1], "dtype": "float32"}, {"name": "model_36/tf.nn.convolution_139/convolution/filter", "shape": [3, 3, 1, 1], "dtype": "float32"}, {"name": "model_36/tf.nn.convolution_140/convolution/filter", "shape": [3, 3, 1, 1], "dtype": "float32"}, {"name": "model_36/tf.nn.convolution_141/convolution/filter", "shape": [3, 3, 1, 1], "dtype": "float32"}, {"name": "model_36/tf.nn.convolution_142/convolution/filter", "shape": [3, 3, 1, 1], "dtype": "float32"}, {"name": "model_36/tf.nn.convolution_143/convolution/filter", "shape": [3, 3, 1, 1], "dtype": "float32"}, {"name": "model_36/tf.nn.convolution_144/convolution/filter", "shape": [3, 3, 1, 1], "dtype": "float32"}, {"name": "model_36/tf.nn.convolution_145/convolution/filter", "shape": [3, 3, 1, 1], "dtype": "float32"}, {"name": "model_36/tf.nn.convolution_146/convolution/filter", "shape": [3, 3, 1, 1], "dtype": "float32"}, {"name": "model_36/tf.nn.convolution_147/convolution/filter", "shape": [3, 3, 1, 1], "dtype": "float32"}, {"name": "model_36/tf.nn.convolution_148/convolution/filter", "shape": [3, 3, 1, 1], "dtype": "float32"}, {"name": "model_36/tf.nn.convolution_149/convolution/filter", "shape": [3, 3, 1, 1], "dtype": "float32"}, {"name": "model_36/tf.nn.convolution_150/convolution/filter", "shape": [3, 3, 1, 1], "dtype": "float32"}, {"name": "model_36/tf.nn.convolution_151/convolution/filter", "shape": [3, 3, 1, 1], "dtype": "float32"}, {"name": "model_36/tf.nn.convolution_152/convolution/filter", "shape": [3, 3, 1, 1], "dtype": "float32"}, {"name": "model_36/tf.nn.convolution_153/convolution/filter", "shape": [3, 3, 1, 1], "dtype": "float32"}, {"name": "model_36/tf.nn.convolution_154/convolution/filter", "shape": [3, 3, 1, 1], "dtype": "float32"}, {"name": "model_36/tf.nn.convolution_155/convolution/filter", "shape": [3, 3, 1, 1], "dtype": "float32"}, {"name": "model_36/tf.nn.convolution_156/convolution/filter", "shape": [3, 3, 1, 1], "dtype": "float32"}, {"name": "model_36/tf.nn.convolution_157/convolution/filter", "shape": [3, 3, 1, 1], "dtype": "float32"}, {"name": "model_36/tf.nn.convolution_158/convolution/filter", "shape": [3, 3, 1, 1], "dtype": "float32"}, {"name": "model_36/tf.nn.convolution_159/convolution/filter", "shape": [3, 3, 1, 1], "dtype": "float32"}, {"name": "model_36/tf.nn.convolution_160/convolution/filter", "shape": [3, 3, 1, 1], "dtype": "float32"}, {"name": "model_36/tf.nn.convolution_161/convolution/filter", "shape": [3, 3, 1, 1], "dtype": "float32"}, {"name": "model_36/tf.nn.convolution_162/convolution/filter", "shape": [3, 3, 1, 1], "dtype": "float32"}, {"name": "model_36/tf.nn.convolution_163/convolution/filter", "shape": [3, 3, 1, 1], "dtype": "float32"}, {"name": "model_36/tf.nn.convolution_164/convolution/filter", "shape": [3, 3, 1, 1], "dtype": "float32"}, {"name": "model_36/tf.nn.convolution_165/convolution/filter", "shape": [3, 3, 1, 1], "dtype": "float32"}, {"name": "model_36/tf.nn.convolution_166/convolution/filter", "shape": [3, 3, 1, 1], "dtype": "float32"}, {"name": "model_36/tf.nn.convolution_167/convolution/filter", "shape": [3, 3, 1, 1], "dtype": "float32"}, {"name": "model_36/tf.nn.convolution_168/convolution/filter", "shape": [3, 3, 1, 1], "dtype": "float32"}, {"name": "model_36/tf.nn.convolution_169/convolution/filter", "shape": [3, 3, 1, 1], "dtype": "float32"}, {"name": "model_36/tf.nn.convolution_170/convolution/filter", "shape": [3, 3, 1, 1], "dtype": "float32"}, {"name": "model_36/tf.nn.convolution_171/convolution/filter", "shape": [3, 3, 1, 1], "dtype": "float32"}, {"name": "model_36/tf.nn.convolution_172/convolution/filter", "shape": [3, 3, 1, 1], "dtype": "float32"}, {"name": "model_36/tf.nn.convolution_173/convolution/filter", "shape": [3, 3, 1, 1], "dtype": "float32"}, {"name": "model_36/tf.nn.convolution_174/convolution/filter", "shape": [3, 3, 1, 1], "dtype": "float32"}, {"name": "model_36/tf.nn.convolution_175/convolution/filter", "shape": [3, 3, 1, 1], "dtype": "float32"}, {"name": "model_36/tf.nn.convolution_176/convolution/filter", "shape": [3, 3, 1, 1], "dtype": "float32"}, {"name": "model_36/tf.nn.convolution_177/convolution/filter", "shape": [3, 3, 1, 1], "dtype": "float32"}, {"name": "model_36/tf.nn.convolution_178/convolution/filter", "shape": [3, 3, 1, 1], "dtype": "float32"}, {"name": "model_36/tf.nn.convolution_179/convolution/filter", "shape": [3, 3, 1, 1], "dtype": "float32"}, {"name": "model_36/tf.nn.convolution_180/convolution/filter", "shape": [3, 3, 1, 1], "dtype": "float32"}, {"name": "model_36/tf.nn.convolution_181/convolution/filter", "shape": [3, 3, 1, 1], "dtype": "float32"}, {"name": "model_36/tf.nn.convolution_182/convolution/filter", "shape": [3, 3, 1, 1], "dtype": "float32"}, {"name": "model_36/tf.nn.convolution_183/convolution/filter", "shape": [3, 3, 1, 1], "dtype": "float32"}, {"name": "model_36/tf.nn.convolution_184/convolution/filter", "shape": [3, 3, 1, 1], "dtype": "float32"}, {"name": "model_36/tf.nn.convolution_185/convolution/filter", "shape": [3, 3, 1, 1], "dtype": "float32"}, {"name": "model_36/tf.nn.convolution_186/convolution/filter", "shape": [3, 3, 1, 1], "dtype": "float32"}, {"name": "model_36/tf.nn.convolution_187/convolution/filter", "shape": [3, 3, 1, 1], "dtype": "float32"}, {"name": "model_36/tf.nn.convolution_188/convolution/filter", "shape": [3, 3, 1, 1], "dtype": "float32"}, {"name": "model_36/tf.nn.convolution_189/convolution/filter", "shape": [3, 3, 1, 1], "dtype": "float32"}, {"name": "model_36/tf.nn.convolution_190/convolution/filter", "shape": [3, 3, 1, 1], "dtype": "float32"}, {"name": "model_36/tf.nn.convolution_191/convolution/filter", "shape": [3, 3, 1, 1], "dtype": "float32"}, {"name": "model_36/tf.nn.convolution_192/convolution/filter", "shape": [3, 3, 1, 1], "dtype": "float32"}, {"name": "model_36/tf.nn.convolution_193/convolution/filter", "shape": [3, 3, 1, 1], "dtype": "float32"}, {"name": "model_36/tf.nn.convolution_194/convolution/filter", "shape": [3, 3, 1, 1], "dtype": "float32"}, {"name": "model_36/tf.nn.convolution_195/convolution/filter", "shape": [3, 3, 1, 1], "dtype": "float32"}, {"name": "model_36/tf.nn.convolution_196/convolution/filter", "shape": [3, 3, 1, 1], "dtype": "float32"}, {"name": "model_36/tf.nn.convolution_197/convolution/filter", "shape": [3, 3, 1, 1], "dtype": "float32"}, {"name": "model_36/tf.nn.convolution_198/convolution/filter", "shape": [3, 3, 1, 1], "dtype": "float32"}, {"name": "model_36/tf.nn.convolution_199/convolution/filter", "shape": [3, 3, 1, 1], "dtype": "float32"}, {"name": "model_36/tf.nn.convolution_200/convolution/filter", "shape": [3, 3, 1, 1], "dtype": "float32"}, {"name": "model_36/tf.nn.convolution_201/convolution/filter", "shape": [3, 3, 1, 1], "dtype": "float32"}, {"name": "model_36/tf.nn.convolution_202/convolution/filter", "shape": [3, 3, 1, 1], "dtype": "float32"}, {"name": "model_36/tf.nn.convolution_203/convolution/filter", "shape": [3, 3, 1, 1], "dtype": "float32"}, {"name": "model_36/tf.nn.convolution_204/convolution/filter", "shape": [3, 3, 1, 1], "dtype": "float32"}, {"name": "model_36/tf.nn.convolution_205/convolution/filter", "shape": [3, 3, 1, 1], "dtype": "float32"}, {"name": "model_36/tf.nn.convolution_206/convolution/filter", "shape": [3, 3, 1, 1], "dtype": "float32"}, {"name": "model_36/tf.nn.convolution_207/convolution/filter", "shape": [3, 3, 1, 1], "dtype": "float32"}, {"name": "model_36/tf.nn.convolution_208/convolution/filter", "shape": [3, 3, 1, 1], "dtype": "float32"}, {"name": "model_36/tf.nn.convolution_209/convolution/filter", "shape": [3, 3, 1, 1], "dtype": "float32"}, {"name": "model_36/tf.nn.convolution_210/convolution/filter", "shape": [3, 3, 1, 1], "dtype": "float32"}, {"name": "model_36/tf.nn.convolution_211/convolution/filter", "shape": [3, 3, 1, 1], "dtype": "float32"}, {"name": "model_36/tf.nn.convolution_212/convolution/filter", "shape": [3, 3, 1, 1], "dtype": "float32"}, {"name": "model_36/tf.nn.convolution_213/convolution/filter", "shape": [3, 3, 1, 1], "dtype": "float32"}, {"name": "model_36/tf.nn.convolution_214/convolution/filter", "shape": [3, 3, 1, 1], "dtype": "float32"}, {"name": "model_36/tf.nn.convolution_215/convolution/filter", "shape": [3, 3, 1, 1], "dtype": "float32"}, {"name": "model_36/tf.nn.convolution_216/convolution/filter", "shape": [3, 3, 1, 1], "dtype": "float32"}, {"name": "model_36/tf.nn.convolution_217/convolution/filter", "shape": [3, 3, 1, 1], "dtype": "float32"}, {"name": "model_36/tf.nn.convolution_218/convolution/filter", "shape": [3, 3, 1, 1], "dtype": "float32"}, {"name": "model_36/tf.nn.convolution_219/convolution/filter", "shape": [3, 3, 1, 1], "dtype": "float32"}, {"name": "model_36/tf.nn.convolution_220/convolution/filter", "shape": [3, 3, 1, 1], "dtype": "float32"}, {"name": "model_36/tf.nn.convolution_221/convolution/filter", "shape": [3, 3, 1, 1], "dtype": "float32"}, {"name": "model_36/tf.nn.convolution_222/convolution/filter", "shape": [3, 3, 1, 1], "dtype": "float32"}, {"name": "model_36/tf.nn.convolution_223/convolution/filter", "shape": [3, 3, 1, 1], "dtype": "float32"}, {"name": "model_36/tf.nn.convolution_224/convolution/filter", "shape": [3, 3, 1, 1], "dtype": "float32"}, {"name": "model_36/tf.nn.convolution_225/convolution/filter", "shape": [3, 3, 1, 1], "dtype": "float32"}, {"name": "model_36/tf.nn.convolution_226/convolution/filter", "shape": [3, 3, 1, 1], "dtype": "float32"}, {"name": "model_36/tf.nn.convolution_227/convolution/filter", "shape": [3, 3, 1, 1], "dtype": "float32"}, {"name": "model_36/tf.nn.convolution_228/convolution/filter", "shape": [3, 3, 1, 1], "dtype": "float32"}, {"name": "model_36/tf.nn.convolution_229/convolution/filter", "shape": [3, 3, 1, 1], "dtype": "float32"}, {"name": "model_36/tf.nn.convolution_230/convolution/filter", "shape": [3, 3, 1, 1], "dtype": "float32"}, {"name": "model_36/tf.nn.convolution_231/convolution/filter", "shape": [3, 3, 1, 1], "dtype": "float32"}, {"name": "model_36/tf.nn.convolution_232/convolution/filter", "shape": [3, 3, 1, 1], "dtype": "float32"}, {"name": "model_36/tf.nn.convolution_233/convolution/filter", "shape": [3, 3, 1, 1], "dtype": "float32"}, {"name": "model_36/tf.nn.convolution_234/convolution/filter", "shape": [3, 3, 1, 1], "dtype": "float32"}, {"name": "model_36/tf.nn.convolution_235/convolution/filter", "shape": [3, 3, 1, 1], "dtype": "float32"}, {"name": "model_36/tf.nn.convolution_236/convolution/filter", "shape": [3, 3, 1, 1], "dtype": "float32"}, {"name": "model_36/tf.nn.convolution_237/convolution/filter", "shape": [3, 3, 1, 1], "dtype": "float32"}, {"name": "model_36/tf.nn.convolution_238/convolution/filter", "shape": [3, 3, 1, 1], "dtype": "float32"}, {"name": "model_36/tf.nn.convolution_239/convolution/filter", "shape": [3, 3, 1, 1], "dtype": "float32"}, {"name": "model_36/tf.nn.convolution_240/convolution/filter", "shape": [3, 3, 1, 1], "dtype": "float32"}, {"name": "model_36/tf.nn.convolution_241/convolution/filter", "shape": [3, 3, 1, 1], "dtype": "float32"}, {"name": "model_36/tf.nn.convolution_242/convolution/filter", "shape": [3, 3, 1, 1], "dtype": "float32"}, {"name": "model_36/tf.nn.convolution_243/convolution/filter", "shape": [3, 3, 1, 1], "dtype": "float32"}, {"name": "model_36/tf.nn.convolution_244/convolution/filter", "shape": [3, 3, 1, 1], "dtype": "float32"}, {"name": "model_36/tf.nn.convolution_245/convolution/filter", "shape": [3, 3, 1, 1], "dtype": "float32"}, {"name": "model_36/tf.nn.convolution_246/convolution/filter", "shape": [3, 3, 1, 1], "dtype": "float32"}, {"name": "model_36/tf.nn.convolution_247/convolution/filter", "shape": [3, 3, 1, 1], "dtype": "float32"}, {"name": "model_36/tf.nn.convolution_248/convolution/filter", "shape": [3, 3, 1, 1], "dtype": "float32"}, {"name": "model_36/tf.nn.convolution_249/convolution/filter", "shape": [3, 3, 1, 1], "dtype": "float32"}, {"name": "model_36/tf.nn.convolution_250/convolution/filter", "shape": [3, 3, 1, 1], "dtype": "float32"}, {"name": "model_36/tf.nn.convolution_251/convolution/filter", "shape": [3, 3, 1, 1], "dtype": "float32"}, {"name": "model_36/tf.nn.convolution_252/convolution/filter", "shape": [3, 3, 1, 1], "dtype": "float32"}, {"name": "model_36/tf.nn.convolution_253/convolution/filter", "shape": [3, 3, 1, 1], "dtype": "float32"}, {"name": "model_36/tf.nn.convolution_254/convolution/filter", "shape": [3, 3, 1, 1], "dtype": "float32"}, {"name": "model_36/tf.nn.convolution_255/convolution/filter", "shape": [3, 3, 1, 1], "dtype": "float32"}, {"name": "model_36/tf.nn.convolution_256/convolution/filter", "shape": [3, 3, 1, 1], "dtype": "float32"}, {"name": "model_36/tf.nn.convolution_257/convolution/filter", "shape": [3, 3, 1, 1], "dtype": "float32"}, {"name": "model_36/tf.nn.convolution_258/convolution/filter", "shape": [3, 3, 1, 1], "dtype": "float32"}, {"name": "model_36/tf.nn.convolution_259/convolution/filter", "shape": [3, 3, 1, 1], "dtype": "float32"}, {"name": "model_36/tf.nn.convolution_260/convolution/filter", "shape": [3, 3, 1, 1], "dtype": "float32"}, {"name": "model_36/tf.nn.convolution_261/convolution/filter", "shape": [3, 3, 1, 1], "dtype": "float32"}, {"name": "model_36/tf.nn.convolution_262/convolution/filter", "shape": [3, 3, 1, 1], "dtype": "float32"}, {"name": "model_36/tf.nn.convolution_263/convolution/filter", "shape": [3, 3, 1, 1], "dtype": "float32"}, {"name": "model_36/tf.nn.convolution_264/convolution/filter", "shape": [3, 3, 1, 1], "dtype": "float32"}, {"name": "model_36/tf.nn.convolution_265/convolution/filter", "shape": [3, 3, 1, 1], "dtype": "float32"}, {"name": "model_36/tf.nn.convolution_266/convolution/filter", "shape": [3, 3, 1, 1], "dtype": "float32"}, {"name": "model_36/tf.nn.convolution_267/convolution/filter", "shape": [3, 3, 1, 1], "dtype": "float32"}, {"name": "model_36/tf.nn.convolution_268/convolution/filter", "shape": [3, 3, 1, 1], "dtype": "float32"}, {"name": "model_36/tf.nn.convolution_269/convolution/filter", "shape": [3, 3, 1, 1], "dtype": "float32"}, {"name": "model_36/tf.nn.convolution_270/convolution/filter", "shape": [3, 3, 1, 1], "dtype": "float32"}, {"name": "model_36/tf.nn.convolution_271/convolution/filter", "shape": [3, 3, 1, 1], "dtype": "float32"}, {"name": "model_36/tf.nn.convolution_272/convolution/filter", "shape": [3, 3, 1, 1], "dtype": "float32"}, {"name": "model_36/tf.nn.convolution_273/convolution/filter", "shape": [3, 3, 1, 1], "dtype": "float32"}, {"name": "model_36/tf.nn.convolution_274/convolution/filter", "shape": [3, 3, 1, 1], "dtype": "float32"}, {"name": "model_36/tf.nn.convolution_275/convolution/filter", "shape": [3, 3, 1, 1], "dtype": "float32"}, {"name": "model_36/tf.nn.convolution_276/convolution/filter", "shape": [3, 3, 1, 1], "dtype": "float32"}, {"name": "model_36/tf.nn.convolution_277/convolution/filter", "shape": [3, 3, 1, 1], "dtype": "float32"}, {"name": "model_36/tf.nn.convolution_278/convolution/filter", "shape": [3, 3, 1, 1], "dtype": "float32"}, {"name": "model_36/tf.nn.convolution_279/convolution/filter", "shape": [3, 3, 1, 1], "dtype": "float32"}, {"name": "model_36/tf.nn.convolution_280/convolution/filter", "shape": [3, 3, 1, 1], "dtype": "float32"}, {"name": "model_36/tf.nn.convolution_281/convolution/filter", "shape": [3, 3, 1, 1], "dtype": "float32"}, {"name": "model_36/tf.nn.convolution_282/convolution/filter", "shape": [3, 3, 1, 1], "dtype": "float32"}, {"name": "model_36/tf.nn.convolution_283/convolution/filter", "shape": [3, 3, 1, 1], "dtype": "float32"}, {"name": "model_36/tf.nn.convolution_284/convolution/filter", "shape": [3, 3, 1, 1], "dtype": "float32"}, {"name": "model_36/tf.nn.convolution_285/convolution/filter", "shape": [3, 3, 1, 1], "dtype": "float32"}, {"name": "model_36/tf.nn.convolution_286/convolution/filter", "shape": [3, 3, 1, 1], "dtype": "float32"}, {"name": "model_36/tf.nn.convolution_287/convolution/filter", "shape": [3, 3, 1, 1], "dtype": "float32"}, {"name": "model_36/tf.nn.convolution_288/convolution/filter", "shape": [3, 3, 1, 1], "dtype": "float32"}, {"name": "model_36/tf.nn.convolution_289/convolution/filter", "shape": [3, 3, 1, 1], "dtype": "float32"}, {"name": "model_36/tf.split/split/split_dim", "shape": [], "dtype": "int32"}, {"name": "model_36/tf.strided_slice_6/ones_like/tensor", "shape": [4], "dtype": "int32"}, {"name": "model_36/tf.strided_slice_6/StridedSlice/end", "shape": [4], "dtype": "int32"}, {"name": "model_36/tf.strided_slice_6/ones_like", "shape": [4], "dtype": "int32"}, {"name": "model_36/tf.nn.convolution_23/convolution/filter", "shape": [1, 1, 256, 128], "dtype": "float32"}, {"name": "model_36/tf.math.add_31/Add/y", "shape": [128], "dtype": "float32"}, {"name": "model_36/tf.nn.convolution_25/convolution/filter", "shape": [3, 3, 128, 128], "dtype": "float32"}, {"name": "model_36/tf.math.add_33/Add/y", "shape": [128], "dtype": "float32"}, {"name": "model_36/tf.nn.convolution_26/convolution/filter", "shape": [3, 3, 128, 128], "dtype": "float32"}, {"name": "model_36/tf.math.add_34/Add/y", "shape": [128], "dtype": "float32"}, {"name": "model_36/tf.nn.convolution_27/convolution/filter", "shape": [3, 3, 128, 128], "dtype": "float32"}, {"name": "model_36/tf.math.add_37/Add/y", "shape": [128], "dtype": "float32"}, {"name": "model_36/tf.nn.convolution_28/convolution/filter", "shape": [3, 3, 128, 128], "dtype": "float32"}, {"name": "model_36/tf.math.add_38/Add/y", "shape": [128], "dtype": "float32"}, {"name": "model_36/tf.strided_slice_4/ones_like/tensor", "shape": [4], "dtype": "int32"}, {"name": "model_36/tf.strided_slice_4/StridedSlice/end", "shape": [4], "dtype": "int32"}, {"name": "model_36/tf.strided_slice_4/ones_like", "shape": [4], "dtype": "int32"}, {"name": "model_36/tf.nn.convolution_13/convolution/filter", "shape": [1, 1, 128, 64], "dtype": "float32"}, {"name": "model_36/tf.math.add_17/Add/y", "shape": [64], "dtype": "float32"}, {"name": "model_36/tf.nn.convolution_15/convolution/filter", "shape": [3, 3, 64, 64], "dtype": "float32"}, {"name": "model_36/tf.math.add_19/Add/y", "shape": [64], "dtype": "float32"}, {"name": "model_36/tf.nn.convolution_16/convolution/filter", "shape": [3, 3, 64, 64], "dtype": "float32"}, {"name": "model_36/tf.math.add_20/Add/y", "shape": [64], "dtype": "float32"}, {"name": "model_36/tf.nn.convolution_17/convolution/filter", "shape": [3, 3, 64, 64], "dtype": "float32"}, {"name": "model_36/tf.math.add_23/Add/y", "shape": [64], "dtype": "float32"}, {"name": "model_36/tf.nn.convolution_18/convolution/filter", "shape": [3, 3, 64, 64], "dtype": "float32"}, {"name": "model_36/tf.math.add_24/Add/y", "shape": [64], "dtype": "float32"}, {"name": "model_36/tf.strided_slice_2/ones_like/tensor", "shape": [4], "dtype": "int32"}, {"name": "model_36/tf.strided_slice_2/StridedSlice/end", "shape": [4], "dtype": "int32"}, {"name": "model_36/tf.strided_slice_2/ones_like", "shape": [4], "dtype": "int32"}, {"name": "model_36/tf.strided_slice/ones_like/tensor", "shape": [4], "dtype": "int32"}, {"name": "model_36/tf.strided_slice/StridedSlice/end", "shape": [4], "dtype": "int32"}, {"name": "model_36/tf.strided_slice/ones_like", "shape": [4], "dtype": "int32"}, {"name": "model_36/tf.compat.v1.pad/Pad/paddings", "shape": [4, 2], "dtype": "int32"}, {"name": "model_36/tf.nn.convolution/convolution/filter", "shape": [3, 3, 3, 32], "dtype": "float32"}, {"name": "model_36/tf.math.add/Add/y", "shape": [32], "dtype": "float32"}, {"name": "model_36/tf.compat.v1.pad_1/Pad/paddings", "shape": [4, 2], "dtype": "int32"}, {"name": "model_36/tf.nn.convolution_1/convolution/filter", "shape": [3, 3, 32, 64], "dtype": "float32"}, {"name": "model_36/tf.math.add_1/Add/y", "shape": [64], "dtype": "float32"}, {"name": "model_36/tf.nn.convolution_2/convolution/filter", "shape": [1, 1, 64, 64], "dtype": "float32"}, {"name": "model_36/tf.math.add_2/Add/y", "shape": [64], "dtype": "float32"}, {"name": "model_36/tf.strided_slice_1/ones_like/tensor", "shape": [4], "dtype": "int32"}, {"name": "model_36/tf.strided_slice_1/StridedSlice/end", "shape": [4], "dtype": "int32"}, {"name": "model_36/tf.strided_slice_1/ones_like", "shape": [4], "dtype": "int32"}, {"name": "model_36/tf.nn.convolution_3/convolution/filter", "shape": [3, 3, 32, 16], "dtype": "float32"}, {"name": "model_36/tf.math.add_3/Add/y", "shape": [16], "dtype": "float32"}, {"name": "model_36/tf.nn.convolution_4/convolution/filter", "shape": [3, 3, 16, 32], "dtype": "float32"}, {"name": "model_36/tf.math.add_4/Add/y", "shape": [32], "dtype": "float32"}, {"name": "model_36/tf.concat/concat/axis", "shape": [], "dtype": "int32"}, {"name": "model_36/tf.nn.convolution_5/convolution/filter", "shape": [1, 1, 96, 128], "dtype": "float32"}, {"name": "model_36/tf.math.add_7/Add/y", "shape": [128], "dtype": "float32"}, {"name": "model_36/tf.compat.v1.pad_2/Pad/paddings", "shape": [4, 2], "dtype": "int32"}, {"name": "model_36/tf.nn.convolution_6/convolution/filter", "shape": [3, 3, 128, 128], "dtype": "float32"}, {"name": "model_36/tf.math.add_8/Add/y", "shape": [128], "dtype": "float32"}, {"name": "model_36/tf.nn.convolution_7/convolution/filter", "shape": [1, 1, 128, 128], "dtype": "float32"}, {"name": "model_36/tf.math.add_9/Add/y", "shape": [128], "dtype": "float32"}, {"name": "model_36/tf.strided_slice_3/ones_like/tensor", "shape": [4], "dtype": "int32"}, {"name": "model_36/tf.strided_slice_3/StridedSlice/end", "shape": [4], "dtype": "int32"}, {"name": "model_36/tf.strided_slice_3/ones_like", "shape": [4], "dtype": "int32"}, {"name": "model_36/tf.nn.convolution_8/convolution/filter", "shape": [3, 3, 64, 32], "dtype": "float32"}, {"name": "model_36/tf.math.add_10/Add/y", "shape": [32], "dtype": "float32"}, {"name": "model_36/tf.nn.convolution_9/convolution/filter", "shape": [3, 3, 32, 64], "dtype": "float32"}, {"name": "model_36/tf.math.add_11/Add/y", "shape": [64], "dtype": "float32"}, {"name": "model_36/tf.concat_1/concat/axis", "shape": [], "dtype": "int32"}, {"name": "model_36/tf.nn.convolution_10/convolution/filter", "shape": [1, 1, 192, 256], "dtype": "float32"}, {"name": "model_36/tf.math.add_14/Add/y", "shape": [256], "dtype": "float32"}, {"name": "model_36/tf.compat.v1.pad_3/Pad/paddings", "shape": [4, 2], "dtype": "int32"}, {"name": "model_36/tf.nn.convolution_11/convolution/filter", "shape": [3, 3, 256, 256], "dtype": "float32"}, {"name": "model_36/tf.math.add_15/Add/y", "shape": [256], "dtype": "float32"}, {"name": "model_36/tf.nn.convolution_12/convolution/filter", "shape": [1, 1, 256, 256], "dtype": "float32"}, {"name": "model_36/tf.math.add_16/Add/y", "shape": [256], "dtype": "float32"}, {"name": "model_36/tf.strided_slice_5/ones_like/tensor", "shape": [4], "dtype": "int32"}, {"name": "model_36/tf.strided_slice_5/StridedSlice/end", "shape": [4], "dtype": "int32"}, {"name": "model_36/tf.strided_slice_5/ones_like", "shape": [4], "dtype": "int32"}, {"name": "model_36/tf.nn.convolution_14/convolution/filter", "shape": [1, 1, 128, 64], "dtype": "float32"}, {"name": "model_36/tf.math.add_18/Add/y", "shape": [64], "dtype": "float32"}, {"name": "model_36/tf.concat_2/concat/axis", "shape": [], "dtype": "int32"}, {"name": "model_36/tf.nn.convolution_19/convolution/filter", "shape": [1, 1, 128, 128], "dtype": "float32"}, {"name": "model_36/tf.math.add_27/Add/y", "shape": [128], "dtype": "float32"}, {"name": "model_36/tf.concat_3/concat/axis", "shape": [], "dtype": "int32"}, {"name": "model_36/tf.nn.convolution_20/convolution/filter", "shape": [1, 1, 384, 256], "dtype": "float32"}, {"name": "model_36/tf.math.add_28/Add/y", "shape": [256], "dtype": "float32"}, {"name": "model_36/tf.compat.v1.pad_4/Pad/paddings", "shape": [4, 2], "dtype": "int32"}, {"name": "model_36/tf.nn.convolution_21/convolution/filter", "shape": [3, 3, 256, 512], "dtype": "float32"}, {"name": "model_36/tf.math.add_29/Add/y", "shape": [512], "dtype": "float32"}, {"name": "model_36/tf.nn.convolution_22/convolution/filter", "shape": [1, 1, 512, 512], "dtype": "float32"}, {"name": "model_36/tf.math.add_30/Add/y", "shape": [512], "dtype": "float32"}, {"name": "model_36/tf.strided_slice_7/ones_like/tensor", "shape": [4], "dtype": "int32"}, {"name": "model_36/tf.strided_slice_7/StridedSlice/end", "shape": [4], "dtype": "int32"}, {"name": "model_36/tf.strided_slice_7/ones_like", "shape": [4], "dtype": "int32"}, {"name": "model_36/tf.nn.convolution_24/convolution/filter", "shape": [1, 1, 256, 128], "dtype": "float32"}, {"name": "model_36/tf.math.add_32/Add/y", "shape": [128], "dtype": "float32"}, {"name": "model_36/tf.concat_4/concat/axis", "shape": [], "dtype": "int32"}, {"name": "model_36/tf.nn.convolution_29/convolution/filter", "shape": [1, 1, 256, 256], "dtype": "float32"}, {"name": "model_36/tf.math.add_41/Add/y", "shape": [256], "dtype": "float32"}, {"name": "model_36/tf.concat_5/concat/axis", "shape": [], "dtype": "int32"}, {"name": "model_36/tf.nn.convolution_30/convolution/filter", "shape": [1, 1, 768, 512], "dtype": "float32"}, {"name": "model_36/tf.math.add_42/Add/y", "shape": [512], "dtype": "float32"}, {"name": "model_36/tf.nn.convolution_31/convolution/filter", "shape": [1, 1, 512, 256], "dtype": "float32"}, {"name": "model_36/tf.math.add_43/Add/y", "shape": [256], "dtype": "float32"}, {"name": "model_36/tf.concat_6/concat/axis", "shape": [], "dtype": "int32"}, {"name": "model_36/tf.nn.convolution_32/convolution/filter", "shape": [1, 1, 1024, 512], "dtype": "float32"}, {"name": "model_36/tf.math.add_44/Add/y", "shape": [512], "dtype": "float32"}, {"name": "model_36/tf.nn.convolution_33/convolution/filter", "shape": [1, 1, 512, 512], "dtype": "float32"}, {"name": "model_36/tf.math.add_45/Add/y", "shape": [512], "dtype": "float32"}, {"name": "model_36/tf.strided_slice_9/StridedSlice/begin", "shape": [4], "dtype": "int32"}, {"name": "model_36/tf.strided_slice_9/StridedSlice/end", "shape": [4], "dtype": "int32"}, {"name": "model_36/tf.strided_slice_9/ones_like", "shape": [4], "dtype": "int32"}, {"name": "model_36/tf.nn.convolution_34/convolution/filter", "shape": [1, 1, 256, 512], "dtype": "float32"}, {"name": "model_36/tf.math.add_46/Add/y", "shape": [512], "dtype": "float32"}, {"name": "model_36/tf.compat.v1.transpose_42/transpose/perm", "shape": [4], "dtype": "int32"}, {"name": "model_36/tf.reshape_2/Reshape/shape", "shape": [4], "dtype": "int32"}, {"name": "model_36/tf.strided_slice_12/StridedSlice/begin", "shape": [4], "dtype": "int32"}, {"name": "model_36/tf.strided_slice_12/StridedSlice/end", "shape": [4], "dtype": "int32"}, {"name": "model_36/tf.strided_slice_12/ones_like", "shape": [4], "dtype": "int32"}, {"name": "model_36/tf.reshape_5/Reshape/shape", "shape": [4], "dtype": "int32"}, {"name": "model_36/tf.compat.v1.transpose_50/transpose/perm", "shape": [4], "dtype": "int32"}, {"name": "model_36/tf.nn.convolution_290/convolution/filter", "shape": [3, 3, 1, 1], "dtype": "float32"}, {"name": "model_36/tf.concat_7/concat/axis", "shape": [], "dtype": "int32"}, {"name": "model_36/tf.nn.convolution_291/convolution/filter", "shape": [1, 1, 256, 256], "dtype": "float32"}, {"name": "model_36/tf.math.add_50/Add/y", "shape": [256], "dtype": "float32"}, {"name": "model_36/tf.nn.convolution_292/convolution/filter", "shape": [1, 1, 256, 512], "dtype": "float32"}, {"name": "model_36/tf.math.add_53/Add/y", "shape": [512], "dtype": "float32"}, {"name": "model_36/tf.nn.convolution_293/convolution/filter", "shape": [1, 1, 512, 256], "dtype": "float32"}, {"name": "model_36/tf.concat_8/concat/axis", "shape": [], "dtype": "int32"}, {"name": "model_36/tf.nn.convolution_294/convolution/filter", "shape": [1, 1, 512, 512], "dtype": "float32"}, {"name": "model_36/tf.math.add_57/Add/y", "shape": [512], "dtype": "float32"}, {"name": "model_36/tf.concat_16/concat/axis", "shape": [], "dtype": "int32"}, {"name": "model_36/tf.nn.convolution_326/convolution/filter", "shape": [1, 1, 768, 512], "dtype": "float32"}, {"name": "model_36/tf.math.add_99/Add/y", "shape": [512], "dtype": "float32"}, {"name": "model_36/tf.strided_slice_20/ones_like/tensor", "shape": [4], "dtype": "int32"}, {"name": "model_36/tf.strided_slice_20/StridedSlice/end", "shape": [4], "dtype": "int32"}, {"name": "model_36/tf.strided_slice_20/ones_like", "shape": [4], "dtype": "int32"}, {"name": "model_36/tf.nn.convolution_330/convolution/filter", "shape": [1, 1, 256, 128], "dtype": "float32"}, {"name": "model_36/tf.math.add_104/Add/y", "shape": [128], "dtype": "float32"}, {"name": "model_36/tf.concat_18/concat/axis", "shape": [], "dtype": "int32"}, {"name": "model_36/tf.nn.convolution_337/convolution/filter", "shape": [1, 1, 256, 256], "dtype": "float32"}, {"name": "model_36/tf.math.add_115/Add/y", "shape": [256], "dtype": "float32"}, {"name": "model_36/tf.concat_19/concat/axis", "shape": [], "dtype": "int32"}, {"name": "model_36/tf.nn.convolution_338/convolution/filter", "shape": [1, 1, 768, 512], "dtype": "float32"}, {"name": "model_36/tf.math.add_116/Add/y", "shape": [512], "dtype": "float32"}, {"name": "model_36/tf.nn.convolution_339/convolution/filter", "shape": [3, 3, 512, 32], "dtype": "float32"}, {"name": "model_36/tf.math.add_117/Add/y", "shape": [32], "dtype": "float32"}, {"name": "model_36/tf.nn.convolution_341/convolution/filter", "shape": [3, 3, 32, 32], "dtype": "float32"}, {"name": "model_36/tf.math.add_120/Add/y", "shape": [32], "dtype": "float32"}, {"name": "model_36/tf.nn.convolution_344/convolution/filter", "shape": [1, 1, 32, 32], "dtype": "float32"}, {"name": "model_36/tf.math.add_123/Add/y", "shape": [32], "dtype": "float32"}, {"name": "model_36/tf.compat.v1.transpose_138/transpose/perm", "shape": [4], "dtype": "int32"}, {"name": "model_36/tf.reshape_23/Reshape/shape", "shape": [3], "dtype": "int32"}, {"name": "model_36/tf.concat_20/concat/axis", "shape": [], "dtype": "int32"}, {"name": "model_36/tf.concat_27/concat/axis", "shape": [], "dtype": "int32"}, {"name": "model_36/tf.compat.v1.transpose_161/transpose/perm", "shape": [3], "dtype": "int32"}, {"name": "model_36/tf.strided_slice_26/ones_like/tensor", "shape": [3], "dtype": "int32"}, {"name": "model_36/tf.strided_slice_26/StridedSlice/end", "shape": [3], "dtype": "int32"}, {"name": "model_36/tf.strided_slice_26/ones_like", "shape": [3], "dtype": "int32"}, {"name": "model_36/tf.math.reduce_max_1/Max/reduction_indices", "shape": [1], "dtype": "int32"}, {"name": "model_36/tf.compat.v1.gather_3/GatherV2/indices", "shape": [], "dtype": "int32"}, {"name": "model_36/tf.compat.v1.gather_3/GatherV2/axis", "shape": [], "dtype": "int32"}, {"name": "model_36/tf.math.greater/Greater/y", "shape": [], "dtype": "float32"}, {"name": "model_36/tf.math.top_k/TopKV2/k", "shape": [], "dtype": "int32"}, {"name": "ConstantFolding/model_36/tf.compat.v1.transpose_164/transpose/a_const_axis", "shape": [], "dtype": "int32"}]}]}
